darts_logs/2025-06-25_12_53_18_torch_model_run_422433/checkpoints/last-epoch=3.ckpt (torch, 13464 bytes, 12 tensors)

res_blocks.0.conv1.bias f4 [3]
-0.12959255 -0.18026811 0.19681208
00000000: e9b3 04be 3498 38be 1b89 493e

res_blocks.0.conv1.parametrizations.weight.original0 f4 [3, 1, 1]
0.66455185 0.6478278 0.2247135
00000000: 1220 2a3f 0bd8 253f 4c1b 663e

res_blocks.0.conv1.parametrizations.weight.original1 f4 [3, 1, 5]
-0.31918046 -0.36764374 0.08884842 -0.4402222 0.053864967 0.15211892 -0.026821954 0.3934358
-0.16618061 0.39883482 0.1704338 -0.090849064 0.3468727 0.02861036 -0.25490993
00000000: 9f6b a3be cd3b bcbe 29f6 b53d ce64 e1be
00000010: 83a1 5c3d 10c5 1b3e b7b9 dbbc 6b70 c93e
00000020: 402b 2abe 1434 cc3e 3386 2e3e 130f babd
00000030: 4c99 b13e 4660 ea3c 8e83 82be

res_blocks.0.conv2.parametrizations.weight.original1 f4 [1, 3, 5]
-0.1099323 -0.20823371 -0.01562796 -0.22758919 -0.058561575 -0.14349869 0.21684507 0.09705974
-0.13697317 -0.24976176 -0.063649274 0.012559167 -0.09679545 -0.22766824 -0.17344274
00000000: 3024 e1bd 383b 55be 3506 80bc 240d 69be
00000010: 43de 6fbd 52f1 12be a20c 5e3e 42c7 c63d
00000020: b242 0cbe 8cc1 7fbe 8d5a 82bd f7c4 4d3c
00000030: b13c c6bd dd21 69be f99a 31be

exp_avg f4 [3]
0.0 -0.0022299697 -0.00037524532
00000000: 0000 0000 af24 12bb 93bc c4b9

exp_avg_sq f4 [3]
0.0 5.3380104e-06 0.0007235735
00000000: 0000 0000 291d b336 32ae 3d3a

exp_avg f4 [3, 1, 1]
0.0 -0.0011419113 0.0036929676
00000000: 0000 0000 2fac 95ba b705 723b

exp_avg_sq f4 [3, 1, 1]
0.0 1.5031958e-06 1.0455081e-05
00000000: 0000 0000 6ac1 c935 3b68 2f37

exp_avg f4 [3, 1, 5]
0.0 0.0 0.0 0.0 0.0 0.0010296269 0.00024582833 0.0005533941
-0.0012827851 -0.0015382672 0.0009851431 0.0015839569 -0.0006372588 -0.00037095151 -0.0007982684
00000000: 0000 0000 0000 0000 0000 0000 0000 0000
00000010: 0000 0000 8cf4 863a 85e2 8039 a611 113a
00000020: 2023 a8ba af9f c9ba eb1f 813a c69c cf3a
00000030: b70d 27ba 457c c2b9 e342 51ba

exp_avg_sq f4 [3, 1, 5]
0.0 0.0 0.0 0.0 0.0 4.784167e-07 1.2769415e-06 1.0885248e-07
2.6667374e-06 7.3615604e-07 4.2402877e-05 5.2230505e-05 6.245961e-05 7.129363e-05 8.4628155e-05
00000000: 0000 0000 0000 0000 0000 0000 0000 0000
00000010: 0000 0000 8c6c 0035 6063 ab35 49c2 e933
00000020: 33f6 3236 429c 4535 bed9 3138 1412 5b38
00000030: bffc 8238 7a83 9538 657a b138

exp_avg f4 [1, 3, 5]
0.00013741982 0.00026209222 1.8733193e-05 0.0002866491 6.240222e-05 -0.0018899689 -0.00043076862 4.1656946e-05
0.0009585673 0.0024128035 -0.0029631895 -0.0014202021 -0.0017913455 -0.0020569942 0.001039148
00000000: 5a18 1039 6c69 8939 3a25 9d37 6449 9639
00000010: f0dd 8238 d5b8 f7ba c9d8 e1b9 ceb8 2e38
00000020: 5d48 7b3a 2020 1e3b 1232 42bb 1326 baba
00000030: 95cb eaba a3ce 06bb 0534 883a

exp_avg_sq f4 [1, 3, 5]
2.1410451e-06 7.2172056e-06 1.445107e-07 8.578007e-06 1.6393585e-08 7.119272e-06 1.145124e-05 4.232668e-06
1.4435503e-06 2.7076924e-06 2.905065e-05 5.1068102e-05 3.7625032e-05 2.368436e-05 5.0542792e-05
00000000: e0ae 0f36 532b f236 cc2a 1b34 42ea 0f37
00000010: e0d1 8c32 15e2 ee36 b41e 4037 5706 8e36
00000020: 03c0 c135 cdb5 3536 ccb1 f337 f531 5638
00000030: 92cf 1d38 c7ad c637 e9fd 5338
