darts_logs/LSTM_emissions/checkpoints/best-epoch=11-val_loss=0.06.ckpt (torch, 664247 bytes, 31 tensors)

rnn.weight_ih_l0 f4 [256, 7]
-0.1320602 -0.038430028 -0.124357656 -0.12572502 0.12352788 0.13171744 -0.045218565 0.3343633
0.097928055 0.20685518 0.328468 0.07270696 0.20682809 -0.05521832 0.149168 0.08568094
0.051125653 -0.0380603 -0.01914273 -0.0065746745 -0.12828933 -0.20701724 0.0695285 0.013194786
0.031324316 -0.08334355 0.0988247 -0.010201897 0.11675554 0.110368386 0.0060144747 0.16072057
-0.027749281 -0.17691252 0.044726457 0.028476266 -0.27248117 0.03298787 0.0117702475 -0.00569603
-0.072203465 -0.18867382 0.09909064 0.10441356 -0.14425747 -0.06456257 0.08826832 0.06000839
-0.075302854 0.16977906 0.09575467 0.111334786 0.20031644 0.1961136 0.015045282 0.06521242
-0.0423585 -0.14617904 0.1141654 -0.04573082 0.14613934 -0.031075468 0.11252779 0.20661929
-0.15260778 0.06465494 -0.023844391 0.10752832 0.047506656 -0.2615132 0.19638436 -0.013368729
-0.008891546 -0.1696829 0.039474644 0.07485114 -0.13834319 0.13025886 0.19897787 0.42751756
0.27692032 0.32408303 0.2921664 0.34022468 0.20716053 0.004948533 -0.07589746 -0.0066236746
0.12678972 0.16276796 0.013451723 -0.13308465 0.02335683 0.22602145 0.07868463 -0.045821715
-0.04386206 0.091785565 0.10338254 -0.056094073 0.021777976 -0.070329756 -0.07478209 -0.02751192
-0.00550327 0.08805687 -0.044366512 0.16666485 0.009140436 -0.16645049 -0.05428877 -0.043225188
0.20333894 0.13292915 0.1481814 0.27938786 -0.05746824 0.33518323 -0.012135684 0.21097349
0.2615747 0.035199933 0.1188508 0.15357777 -0.01841181 -0.04477969 0.15620705 -0.22683968
-0.1271354 -0.199675 0.021748442 0.10303784 -0.15324384 0.1935127 0.18936461 0.14537625
-0.020396112 0.28513557 0.0029576973 0.21379395 -0.16176958 0.119501285 0.05280236 0.013702807
-0.037665572 -0.04898706 0.08277732 0.2638484 -0.2030458 0.06505031 0.113337524 0.01208968
-0.14303137 0.25760326 0.2753281 -0.5529316 -0.0031771662 -0.008414063 0.041773453 0.14301525
-0.09164959 0.031283643 0.16298775 -0.07962832 -0.015879259 0.17131618 0.09361632 -0.19094792
0.1883782 0.014476113 -0.06981655 -0.020218346 -0.065634824 -0.030980092 -0.027014991 -0.10653658
0.07875424 -0.17120466 -0.14241737 -0.13112482 0.026296662 -0.15757559 -0.0288233 0.06216689
0.10211371 0.12510891 -0.11384411 -0.2944224 -0.13101709 0.03560252 0.036683552 0.0989443
0.011610826 0.053008042 0.122176886 0.15596482 0.13960618 0.0985304 0.0978096 0.06684528
0.10489316 -0.16768584 0.0148445135 0.22724357 -0.1479477 0.12696365 0.1454947 0.22505566
0.009003862 -0.004142829 0.13488455 -0.16487297 -0.08383063 -0.053616717 0.25610256 0.17859648
-0.11483881 0.22351669 0.3480116 0.34900844 0.26150188 0.27154943 0.36734426 0.17115301
0.16821708 0.041832395 -0.11562002 0.0366374 0.09231342 0.2781717 -0.055160575 -0.11948077
0.06748581 0.08336889 0.15041982 -0.18996575 -0.05157116 0.10735918 0.35013255 0.16528882
0.32041523 0.27947652 0.370408 0.38342947 0.0006117989 0.27021742 0.1982729 0.12057212
0.21752758 0.20658413 0.19023596 -0.022007965 0.23773332 0.011675308 -0.029616613 0.054728027
00000000: ca3a 07be ce68 1dbd 3aaf febd 0fbe 00be
00000010: 2ffc fc3d f0e0 063e 1a37 39bd ab31 ab3e
00000020: 818e c83d d8d1 533e f52c a83e 63e7 943d
00000030: beca 533e 9b2c 62bd 7fbf 183e 7d79 af3d
00000040: 2269 513d 1ee5 1bbd 37d1 9cbc 5e70 d7bb
00000050: 475e 03be 54fc 53be f564 8e3d f22e 583c
00000060: ed4d 003d 06b0 aabd 9b64 ca3d db25 27bc
00000070: 871d ef3d d208 e23d 1215 c53b ef93 243e
00000080: 7652 e3bc 8e28 35be 1733 373d 0f47 e93c
00000090: a782 8bbe 4a1e 073d ffd7 403c c3a5 babb
000000a0: 69df 93bd b633 41be 09f0 ca3d c7d6 d53d
000000b0: 3bb8 13be 6139 84bd 05c6 b43d 5ccb 753d
000000c0: 6238 9abd 90da 2d3e 061b c43d 7e03 e43d
000000d0: c11f 4d3e 01d2 483e 7d80 763c 178e 853d
000000e0: 1b80 2dbd f5af 15be 8dcf e93d 3e50 3bbd
000000f0: 8da5 153e fb91 febc f874 e63d 0294 533e
00000100: 3745 1cbe cf69 843d 5055 c3bc cf37 dc3d
00000110: 5796 423d 0fe5 85be fb18 493e 8308 5bbc
00000120: d9ad 11bc 5bc1 2dbe 2ab0 213d 8e4b 993d
00000130: d6a9 0dbe 9462 053e dbc0 4b3e 95e3 da3e
00000140: 80c8 8d3e 36ee a53e d696 953e ee31 ae3e
00000150: e421 543e 4e27 a23b 2170 9bbd 690b d9bb
00000160: 2ad5 013e a5ac 263e 9e64 5c3c 5847 08be
00000170: d356 bf3c 2b72 673e 6825 a13d 8daf 3bbd
00000180: b4a8 33bd 12fa bb3d 3aba d33d e6c2 65bd
00000190: ba67 b23c 0c09 90bd 5a27 99bd ae60 e1bc
000001a0: c654 b4bb 2957 b43d a9b9 35bd 31aa 2a3e
000001b0: c4c1 153c ff71 2abe e75d 5ebd e50c 31bd
000001c0: 1538 503e 941e 083e ddbc 173e ed0b 8f3e
000001d0: d163 6bbd 239d ab3e bfd4 46bc 6f09 583e
000001e0: 1eed 853e ce2d 103d 0c68 f33d 7e43 1d3e
000001f0: 5dd4 96bc e96a 37bd bef4 1f3e a948 68be
00000200: c82f 02be 9a77 4cbe ca29 b23c 8105 d33d
00000210: f4eb 1cbe 3128 463e cce8 413e 83dd 143e
00000220: bf15 a7bc 4afd 913e edd5 413b cdec 5a3e
00000230: eda6 25be 17bd f43d 4a47 583d bd81 603c
00000240: 3747 1abd a8a6 48bd 2887 a93d 2317 873e
00000250: 3deb 4fbe 1939 853d 811d e83d cb13 463c
00000260: d176 12be 93e4 833e cef7 8c3e ed8c 0dbf
00000270: 0138 50bb 23db 09bc a41a 2b3d 9772 123e
00000280: c8b2 bbbd 4723 003d 43e6 263e 2c14 a3bd
00000290: 3815 82bc 826d 2f3e eab9 bf3d da87 43be
000002a0: 37e6 403e 382d 6d3c fbfb 8ebd f2a0 a5bc
000002b0: 8d6b 86bd f6c9 fdbc 8b4e ddbc da2f dabd
000002c0: e749 a13d 4650 2fbe dcd5 11be 9645 06be
000002d0: 196c d73c 7f5b 21be d71e ecbc b5a2 7e3d
000002e0: fe20 d13d 8d1c 003e 1a27 e9bd 88be 96be
000002f0: 5829 06be f3d3 113d 7e41 163d 4fa3 ca3d
00000300: 553b 3e3c f61e 593d e037 fa3d 3eb5 1f3e
00000310: ecf4 0e3e 4eca c93d 6650 c83d 2ee6 883d
00000320: 3ad2 d63d d6b5 2bbe 6736 733c 8ab2 683e
00000330: 9a7f 17be c202 023e 90fc 143e fe74 663e
00000340: ef84 133c 92c0 87bb 2d1f 0a3e 76d4 28be
00000350: 65af abbd 349d 5bbd e01f 833e ffe1 363e
00000360: 9c30 ebbd 8fe1 643e 942e b23e 3cb1 b23e
00000370: 93e3 853e 8708 8b3e 8c14 bc3e bc42 2f3e
00000380: 1941 2c3e 7258 2b3d 30ca ecbd 1911 163d
00000390: d10e bd3d 856c 8e3e 0ef0 61bd 55b2 f4bd
000003a0: 0036 8a3d 4fbd aa3d a707 1a3e 6286 42be
000003b0: 483c 53bd 21df db3d 9344 b33e 7941 293e
000003c0: 770d a43e 8c17 8f3e 1ea6 bd3e de50 c43e
000003d0: 2161 203a f059 8a3e 0d08 4b3e 84ee f63d
000003e0: 8dbf 5e3e ca8a 533e 37cd 423e 0c4a b4bc
000003f0: 5d70 733e cb49 3f3c 8a9e f2bc 7f2a 603d

rnn.weight_hh_l0 f4 [256, 64]
-0.10631835 -0.20873764 -0.31593746 -0.08138637 -0.028254734 -0.13450244 0.0960486 0.20218807
-0.121541545 0.3304368 -0.35240754 -0.5118279 -0.2659115 0.2029462 0.009274515 0.21520293
-0.18579605 0.31029722 0.0031975487 -0.40392464 0.18766259 -0.21273698 -0.07632362 0.10326956
-0.055829745 0.10021846 0.09837409 0.23642753 -0.2272102 0.07665467 0.21738207 0.3187755
0.30660817 -0.25018135 0.40803456 0.4598467 0.1202693 0.017550131 -0.11502156 -0.03571893
0.30175763 0.33112895 0.047525186 -0.11634712 0.26039436 -0.17428298 0.39726293 0.15615684
0.2538996 -0.043224603 0.014422541 -0.05209765 0.16066812 0.34034273 -0.14707485 0.32750395
0.20118769 -0.22257583 0.021027764 0.22083269 0.053678434 -0.31898406 -0.36359754 -0.54091376
0.111654714 -0.09505619 -0.033002716 -0.054173477 -0.12665509 0.05743126 0.037048455 -0.099383965
0.06524708 -0.14754725 -0.11017794 0.10442507 0.17904937 0.082599275 0.069771886 -0.028925993
-0.17746612 -0.033560973 -0.11548281 0.1425495 -0.054741222 0.33973816 0.13288322 -0.05584422
0.12905231 0.16121814 0.23137128 -0.107187204 0.08434306 -0.063231215 -0.1219698 0.15761346
0.03255439 -0.10582693 0.10052812 -0.13035923 -0.13493147 -0.045058325 0.14954934 0.1515316
-0.06688897 -0.1380754 0.12714548 -0.022125576 -0.12313292 0.1795769 0.17557135 0.006874094
-0.16088577 0.021984337 0.19273762 0.15034978 -0.1113953 -0.019137759 0.069373295 0.12034832
0.11879151 0.08011164 -0.02349382 -0.050832804 -0.15300652 0.16920558 0.018108483 0.123566486
0.1288227 0.07816385 -0.111816354 0.09862488 -0.2614663 -0.011728656 -0.009282538 -0.0040545682
-0.03980127 -0.016304301 0.06401832 -0.103799015 -0.035159886 0.1975615 -0.075054064 0.20340739
0.116909064 0.11107123 0.006735021 0.002677569 0.011387057 0.0015557504 -0.12582748 -0.12727411
-0.073448285 0.06739032 0.027251845 0.2308724 -0.042917464 -0.051426254 -0.0049152724 -0.1473111
0.13227071 0.2115824 -0.08231521 0.11785108 0.0074306703 0.03069332 0.022770982 -0.16619954
0.20759374 0.12240429 0.10003428 -0.08034496 0.13864516 -0.20530911 -0.15565701 -0.06896869
0.20889893 -0.09445862 0.021691535 0.068925194 0.035761368 0.16806255 0.061777253 -0.20696718
0.03031201 0.033988126 0.040910885 -0.10767302 -0.067482784 -0.05206404 -0.0652282 0.03266539
-0.071472876 -0.20557098 -0.36770356 -0.14555709 0.021252625 -0.016535895 -0.10167456 0.2247409
-0.15501721 0.20104435 -0.30804992 -0.34706283 -0.22232604 0.17141189 -0.11121121 0.08662722
-0.4929311 0.314516 0.26173577 -0.31230557 0.051069148 -0.05763076 0.08035368 0.26559708
-0.26162514 0.256196 0.23100635 0.22208175 -0.2479487 0.114792764 0.15346184 0.20237966
0.27801648 -0.31094444 0.37286627 0.34207645 0.27493256 0.1262156 -0.13620405 -0.06581219
0.30979306 0.24128322 -0.022284733 -0.16988552 0.12805198 0.0736835 0.47120133 0.024063628
0.15360732 -0.10864504 -0.032580018 -0.10465923 0.14365558 0.28906897 -0.12356093 0.4293111
0.26263127 0.06279152 0.36032155 0.14709851 0.12096558 -0.30577016 -0.44445464 -0.36131608
00000000: 6fbd d9bd 52bf 55be 8ec2 a1be e6ad a6bd
00000010: 7976 e7bc 02bb 09be 21b5 c43d 640a 4f3e
00000020: c6ea f8bd 032f a93e c36e b4be 2707 03bf
00000030: 8d25 88be 21d1 4f3e 23f4 173c 285e 5c3e
00000040: 5241 3ebe 47df 9e3e f78d 513b 36cf cebe
00000050: 9f2a 403e b9d7 59be 8f4f 9cbd fe7e d33d
00000060: bbad 64bd 563f cd3d 5b78 c93d 0f1a 723e
00000070: caa9 68be 20fd 9c3d 6899 5e3e 8b36 a33e
00000080: bffb 9c3e c517 80be e8e9 d03e 0771 eb3e
00000090: c04f f63d 4bc5 8f3c 6c90 ebbd 034e 12bd
000000a0: fa7f 9a3e bc89 a93e c5a9 423d 6647 eebd
000000b0: 6952 853e 3d77 32be 0c66 cb3e 94e7 1f3e
000000c0: 21ff 813e 480c 31bd 854c 6c3c 5864 55bd
000000d0: 2f86 243e 6741 ae3e ca9a 16be 99ae a73e
000000e0: 2504 4e3e ebea 63be 6b42 ac3c f721 623e
000000f0: ebdd 5b3d e151 a3be 7529 babe 5379 0abf
00000100: 3aab e43d d2ac c2bd db2d 07bd 02e5 5dbd
00000110: dfb1 01be 0a3d 6b3d 1fc0 173d d289 cbbd
00000120: 43a0 853d a016 17be f9a4 e1bd d0dc d53d
00000130: b858 373e cf29 a93d 90e4 8e3d 34f6 ecbc
00000140: aeb9 35be 3b77 09bd 4082 ecbd 7ff8 113e
00000150: 5538 60bd 29f2 ad3e 8a12 083e e9bc 64bd
00000160: 4a26 043e 5e16 253e 98ec 6c3e f784 dbbd
00000170: 0ebc ac3d 5e7f 81bd 4dcb f9bd 6c65 213e
00000180: c157 053d cabb d8bd b0e1 cd3d e47c 05be
00000190: 7a2b 0abe 148f 38bd 7623 193e 1a2b 1b3e
000001a0: 16fd 88bd a363 0dbe 6d32 023e b240 b5bc
000001b0: 1d2d fcbd 02e3 373e fac8 333e 1440 e13b
000001c0: 3dbf 24be 7f18 b43c 035d 453e 4bf5 193e
000001d0: 3823 e4bd cac6 9cbc 9613 8e3d 2e79 f63d
000001e0: f748 f33d 9211 a43d 1d76 c0bc 0f36 50bd
000001f0: bead 1cbe 3a44 2d3e 3e58 943c 6d10 fd3d
00000200: 19ea 033e 5e14 a03d f9ff e4bd d7fb c93d
00000210: e9de 85be 8c29 40bc c915 18bc 2fdc 84bb
00000220: a806 23bd 9990 85bc 091c 833d 9494 d4bd
00000230: d003 10bd 904d 4a3e f2b5 99bd 074a 503e
00000240: 056e ef3d 5079 e33d 73b1 dc3b 277a 2f3b
00000250: c790 3a3c 52ea cb3a ebd8 00be 2554 02be
00000260: 0e6c 96bd f003 8a3d 433f df3c d069 6c3e
00000270: 39ca 2fbd 56a4 52bd 4b10 a1bb b9d8 16be
00000280: f971 073e 0fa9 583e e094 a8bd e85b f13d
00000290: fb7c f33b 8f70 fb3c 368a ba3c 3630 2abe
000002a0: 7493 543e 1aaf fa3d c6de cc3d e68b a4bd
000002b0: fff8 0d3e 8d3c 52be 8d64 1fbe 753f 8dbd
000002c0: 9ae9 553e 8573 c1bd 72b2 b13c a728 8d3d
000002d0: 837a 123d 9718 2c3e 250a 7d3d 34ef 53be
000002e0: e450 f83c 2237 0b3d 2c92 273d ac83 dcbd
000002f0: 6a34 8abd 1a41 55bd 5d96 85bd 25cc 053d
00000300: 5f60 92bd 3381 52be a443 bcbe eb0c 15be
00000310: fc19 ae3c 4976 87bc c03a d0bd 7a22 663e
00000320: d5bc 1ebe 92de 4d3e b8b8 9dbe 38b2 b1be
00000330: 70a9 63be 9986 2f3e b4c2 e3bd 9d69 b13d
00000340: 7761 fcbe 3e08 a13e 3b02 863e 84e6 9fbe
00000350: e22d 513d 3b0e 6cbd 7890 a43d 57fc 873e
00000360: bbf3 85be 1f2c 833e ee8c 6c3e 6669 633e
00000370: 44e6 7dbe 7818 eb3d 1a25 1d3e 9d3c 4f3e
00000380: 2d58 8e3e 1c34 9fbe 54e8 be3e a524 af3e
00000390: f6c3 8c3e aa3e 013e 1379 0bbe 8bc8 86bd
000003a0: 329d 9e3e f312 773e 798e b6bc 78f6 2dbe
000003b0: 0f20 033e 60e7 963d 4d41 f13e 1621 c53c
000003c0: 3d4b 1d3e 4a81 debd a072 05bd 9457 d6bd
000003d0: 731a 133e d900 943e 830d fdbd aace db3e
000003e0: 9b77 863e d798 803d 117c b83e fea0 163e
000003f0: cdbc f73d e88d 9cbe 8f8f e3be 6cfe b8be

rnn.bias_ih_l0 f4 [256]
0.02712966 0.09028327 -0.002148706 0.15354654 0.067875855 -0.009949944 0.0850527 0.083197884
0.10901016 0.0009764294 0.07628582 0.31680366 0.14078225 0.11933622 0.05162192 -0.00081282156
0.24202771 0.12227116 0.054107483 0.046418093 0.11337528 0.12098158 0.030690797 -0.090419255
-0.15778942 -0.066547655 -0.060431 0.031472344 0.0036585175 0.10875095 0.14836402 0.19899128
-0.04746307 0.030310825 0.35370597 0.05678062 0.14133431 -0.0028302239 0.088248685 -0.07760687
0.050965976 0.17437229 0.050395098 0.104331866 0.05010277 -0.02729494 0.52593863 -0.08864882
-0.097967215 -0.11788181 -0.10228558 -0.034571096 0.02540481 0.22370346 -0.04495508 0.27037567
0.13542251 -0.11268375 0.013451536 0.30059558 0.09636803 0.08570181 0.12172579 0.099068984
0.09644827 -0.21877323 0.105794616 0.23673655 0.08896534 0.07427258 0.08400909 -0.11819461
-0.15542884 -0.07537991 -0.041328695 -0.2002376 0.03949956 0.03895351 0.114773594 -0.08124035
-0.17214543 0.0033112913 -0.07674099 -0.061640397 -0.095895015 -0.0065368745 0.033511262 -0.044727568
0.0014520228 0.07691457 -0.060290962 0.10396017 -0.06857994 -0.015972769 -0.0586307 -0.16633292
-0.030788084 -0.018385073 -0.04290214 -0.0856636 -0.06507766 -0.022761889 0.0927227 -0.07676164
-0.01856189 -0.12360131 0.032030083 -0.05452947 -0.015929345 0.14578545 -0.35809606 -0.1515657
-0.052820694 0.06406401 -0.03003291 -0.11476974 -0.14413588 -0.1439123 -0.16867025 -0.18337975
0.14326146 -0.074808635 -0.09974243 0.045598168 -0.028041948 0.05757137 0.07433382 -0.02248289
-0.04557117 0.079923645 0.049762167 -0.053166073 0.05628322 0.03143695 0.030736167 -0.06385546
-0.064942524 0.06065408 0.06657936 -0.024642572 -0.02598617 0.017696481 0.09167766 0.08709421
-0.03912969 0.018607458 -0.061722044 -0.073167846 0.044759884 -0.07008722 -0.012119129 0.011914507
0.018068993 0.04859347 -0.027800055 0.089402184 0.039898373 0.053339604 0.009901429 -0.025629867
0.054229327 0.03406892 -0.08521874 0.08787685 -0.06176124 -0.032988917 -0.012623375 -0.118244134
-0.078423254 0.04171449 0.06142893 -0.039406423 0.026955554 -0.02805044 0.055404913 0.052849982
0.053055815 0.073610984 -0.085363574 0.015234206 -0.026849043 -0.04732947 -0.059139594 -0.02402145
0.041745737 -0.029244618 0.009913869 0.11867852 0.086385354 -0.029259156 0.021844845 -0.00518972
0.07325025 0.1952445 -0.009259807 0.17028233 0.06018492 0.0077491994 -0.06204125 0.008978339
0.06649195 -0.08657994 0.078624725 0.25747734 -0.058890723 0.029492537 -0.06796566 -0.0047314125
0.12461926 0.0020339545 -0.07440865 0.047629148 -0.061925124 0.18357699 -0.05015632 -0.054280378
-0.16273692 0.07082823 -0.012540993 0.12617989 0.109165594 0.08944186 0.03636405 0.19529806
0.15302965 -0.003929527 0.19620222 0.074786365 0.07372254 -0.075145066 0.08210684 0.100376375
0.075977 0.09187827 -0.042166173 0.07615756 0.073901616 0.084400065 0.39770606 -0.037103288
0.072761804 -0.028380003 -0.13760929 0.08023729 -0.019603273 0.21695518 0.018926736 0.42788053
0.028121872 -0.043616828 -0.056611963 0.11536193 0.12973796 0.2146705 0.112327605 0.090865865
00000000: 053f de3c 6fe6 b83d 4ed1 0cbb 4e3b 1d3e
00000010: 7f02 8b3d 1705 23bc 1c30 ae3d a763 aa3d
00000020: b840 df3d 11f7 7f3a bd3b 9c3d 1734 a23e
00000030: 3929 103e 8c66 f43d 8271 533d 8813 55ba
00000040: 1dd6 773e 4d69 fa3d cf9f 5d3d e620 3e3d
00000050: 4c31 e83d 31c5 f73d 446b fb3c bb2d b9bd
00000060: 8d93 21be 234a 88bd 7f86 77bd 25e9 003d
00000070: bdc3 6f3b d1b8 de3d bdec 173e 5fc4 4b3e
00000080: a368 42bd 684e f83c f318 b53e cc92 683d
00000090: f1b9 103e 477b 39bb babb b43d 5af0 9ebd
000000a0: b3c1 503d a68e 323e 176b 4e3d f2ab d53d
000000b0: 9038 4d3d a399 dfbc eaa3 063f 838d b5bd
000000c0: 09a3 c8bd 056c f1bd 1a7b d1bd 6c9a 0dbd
000000d0: c01d d03c 8512 653e d122 38bd ae6e 8a3e
000000e0: 33ac 0a3e bdc6 e6bd d563 5c3c aae7 993e
000000f0: 9a5c c53d 6e84 af3d 5f4b f93d aee4 ca3d
00000100: ac86 c53d 1706 60be d9aa d83d 116b 723e
00000110: 7633 b63d 391c 983d f50c ac3d 0410 f2bd
00000120: bd28 1fbe c860 9abd 4748 29bd 160b 4dbe
00000130: 4aca 213d b78d 1f3d 6b0e eb3d 5761 a6bd
00000140: e446 30be 4002 593b 612a 9dbd a47a 7cbd
00000150: 9b64 c4bd 4733 d6bb 1b43 093d 4134 37bd
00000160: cd51 be3a 6385 9d3d a8f3 76bd 12e9 d43d
00000170: a473 8cbd 53d9 82bc bf26 70bd 2d53 2abe
00000180: 4b37 fcbc 4b9c 96bc 28ba 2fbd 6670 afbd
00000190: 7047 85bd 2477 babc 66e5 bd3d 3535 9dbd
000001a0: 1b0f 98bc af22 fdbd fa31 033d 4b5a 5fbd
000001b0: 427e 82bc c848 153e 5e58 b7be 0a34 1bbe
000001c0: 835a 58bd fe33 833d 9407 f6bc 660c ebbd
000001d0: 5b98 13be bf5d 13be e5b7 2cbe e7c7 3bbe
000001e0: 22b3 123e 4535 99bd c245 ccbd 25c5 3a3d
000001f0: 3ab8 e5bc f5cf 6b3d 543c 983d 0a2e b8bc
00000200: d6a8 3abd 02af a33d 6ad3 4b3d abc4 59bd
00000210: 3c89 663d 08c4 003d 6aca fb3c a7c6 82bd
00000220: 9600 85bd 6a70 783d c25a 883d 38df c9bc
00000230: f3e0 d4bc 36f8 903c 7fc1 bb3d 735e b23d
00000240: 7446 20bd ab6e 983c 41d0 7cbd 06d9 95bd
00000250: 2456 373d e389 8fbd 508f 46bc 1035 433c
00000260: 6d05 943c f209 473d f1bc e3bc 7e18 b73d
00000270: 7a6c 233d a17a 5a3d 9a39 223c baf5 d1bc
00000280: 921f 5e3d da8b 0b3d 2a87 aebd c7f8 b33d
00000290: 5bf9 7cbd 631f 07bd 46d2 4ebc fb29 f2bd
000002a0: 5f9c a0bd d0dc 2a3d e79c 7b3d a168 21bd
000002b0: e5d1 dc3c 09ca e5bc 43f0 623d 3979 583d
000002c0: 0e51 593d 5bc1 963d 19d3 aebd e498 793c
000002d0: 86f2 dbbc 8cdc 41bd 5c3c 72bd a2c8 c4bc
000002e0: 94fd 2a3d 6992 efbc c86d 223c b90d f33d
000002f0: ceea b03d e6b0 efbc f6f3 b23c 870e aabb
00000300: 3a04 963d 2dee 473e 72b6 17bc 7e5e 2e3e
00000310: 7684 763d ffec fd3b f71e 7ebd e219 133c
00000320: ee2c 883d d350 b1bd 0006 a13d 12d4 833e
00000330: 6637 71bd 559a f13c 9431 8bbd f709 9bbb
00000340: 6238 ff3d 184c 053b 9063 98bd c816 433d
00000350: 33a5 7dbd 9bfb 3b3e b770 4dbd 1a55 5ebd
00000360: 82a4 26be 640e 913d bd78 4dbc 4d35 013e
00000370: 3692 df3d 4b2d b73d 78f2 143d 37fc 473e
00000380: ceb3 1c3e 43c3 80bb 3ce9 483e 9829 993d
00000390: d8fb 963d a8e5 99bd a227 a83d 2192 cd3d
000003a0: d499 9b3d ad2a bc3d 70b6 2cbd 7ff8 9b3d
000003b0: bb59 973d f1d9 ac3d 21a0 cb3e 9ef9 17bd
000003c0: 2404 953d 2e7d e8bc 73e9 0cbe 7353 a43d
000003d0: 0b97 a0bc 8029 5e3e 3e0c 9b3c 2813 db3e
000003e0: d75f e63c 8fa7 32bd f2e1 67bd e042 ec3d
000003f0: 07da 043e 95d2 5b3e 040c e63d e217 ba3d

rnn.bias_hh_l0 f4 [256]
-0.099525094 0.076381356 -0.03297286 0.12790672 0.009311842 -0.08420991 0.019970598 0.0027988753
0.1462093 0.07069531 0.013538095 0.47300243 0.10716526 0.12951434 -0.0040130215 -0.03071093
0.21311821 0.07219745 -0.08657386 -0.018100081 0.044916715 0.14931948 0.02040665 -0.015224529
-0.010492378 0.010271927 -0.020717006 0.1318903 -0.07501509 0.116729416 0.15923765 0.3946636
0.13120317 -0.01917829 0.25957444 0.10507191 -0.040728692 -0.09002462 -0.04284248 0.000984513
0.043182176 0.20572169 -0.12642889 0.15262757 0.12012244 -0.01747884 0.47955543 -0.026622998
0.10040185 -0.07214969 -0.105848074 -0.06438479 -0.071152024 0.22445138 -0.0646274 0.37154505
0.15801059 0.03058394 -0.042931363 0.17636956 0.12616037 0.22846681 0.050777882 0.21543004
-0.0029849748 -0.052561972 -0.12110802 0.15297782 0.038885675 0.05172426 -0.10382465 -0.13155706
-0.053094137 0.0010595344 0.035462204 -0.14606622 -0.02708627 0.1561519 -0.029352019 -0.06252029
-0.09063109 -0.1774828 -0.009206871 0.078809656 0.029624762 -0.118136786 0.04451183 0.15867405
-0.13380888 0.014633463 0.0607529 0.055419367 -0.082467586 -0.10645551 0.013877059 -0.051812693
0.120738424 0.11297946 -0.11438531 -0.021062281 -0.10743488 -0.14234234 -0.09247557 -0.011611705
-0.01386693 -0.007582727 -0.15359554 -0.05665576 0.054574877 -0.049633786 -0.34015816 0.052944414
0.039599277 0.03591973 -0.076669306 -0.04187776 -0.02338723 0.030527819 -0.032870047 -0.24071468
0.03530526 -0.17463605 0.017798461 0.053960185 -0.0063104704 0.07516007 0.06975046 -0.0002802729
0.0062381905 -0.004167784 0.012257319 -0.047255497 -0.06952771 0.084293246 -0.06299188 0.077518776
-0.0070000594 -0.076975614 0.09064679 -0.094310254 0.0672014 0.029287597 -0.092196025 -0.06854234
0.007131979 -0.022249764 0.060095258 0.021948172 0.086112276 0.017097464 -0.020483676 0.00030235288
0.06410792 -0.064445086 0.13115163 0.105827965 -0.08267774 -0.06796061 -0.044921875 -0.006459644
0.0073652533 0.014983075 0.018831288 0.083062336 -0.023055056 -0.004541406 0.07458504 -0.026735086
0.06448514 -0.061173454 -0.043313507 0.10590905 0.037882816 -0.080086276 -0.033706523 0.059385955
-0.06624113 -0.13121325 -0.022549989 0.0049536615 -0.0009448686 0.044980172 -0.04789113 0.08001824
-0.074701965 -0.02159734 0.034481008 -0.013186371 0.056270782 -0.1219105 0.081558004 -0.08772006
0.05789915 0.19914024 -0.14080241 0.07708426 -0.06525399 0.04426993 0.015986675 -0.0011988998
0.12450571 0.10283508 -0.03352911 0.33838156 -0.06799062 0.03427032 -0.025103593 0.10026204
0.2411702 0.16365959 -0.093864456 0.13729155 0.13156897 -0.05154903 -0.05825681 0.03859981
-0.0385789 0.049930457 -0.014216373 0.18244165 -0.09646617 0.02753257 0.10488752 0.23047632
0.15986903 0.111129805 0.42533153 0.03563149 -0.07916078 -0.056577414 -0.086323276 0.10859888
0.006125163 0.18892014 -0.050631884 0.1844456 0.057470895 0.17671186 0.48544618 -0.07489811
0.025890568 0.055503145 -0.044664025 -0.056615785 0.055234384 0.05068329 -0.0084752785 0.38922185
0.0036995194 -0.09306989 0.11309705 0.12898286 0.10755779 0.04641764 -0.025086723 0.07667039
00000000: d0d3 cbbd d46d 9c3d 8d0e 07bd fbf9 023e
00000010: b290 183c 3f76 acbd 6199 a33c 566d 373b
00000020: e4b7 153e b4c8 903d e3ce 5d3c 602d f23e
00000030: 7679 db3d 689f 043e aa7f 83bb 7d95 fbbc
00000040: a93b 5a3e 42dc 933d a34d b1bd 9f46 94bc
00000050: 97fa 373d 35e7 183e d92b a73c 4e70 79bc
00000060: 39e8 2bbc 964b 283c b6b6 a9bc 400e 073e
00000070: 83a1 99bd d50f ef3d 320f 233e 5911 ca3e
00000080: 205a 063e ca1b 9dbc f1e6 843e f12f d73d
00000090: 21d3 26bd d45e b8bd 997b 2fbd c60a 813a
000000a0: cbdf 303d b5a8 523e 9376 01be 674a 1c3e
000000b0: c102 f63d c92f 8fbc 4a88 f53e 7918 dabc
000000c0: 7c9f cd3d 37c3 93bd e0c6 d8bd 2cdc 83bd
000000d0: 27b8 91bd 95d6 653e 5f5b 84bd 273b be3e
000000e0: 87cd 213e 2c8b fa3c ccd8 2fbd 399a 343e
000000f0: 2f30 013e 34f3 693e 78fc 4f3d b199 5c3e
00000100: 919f 43bb 394b 57bd 7b07 f8bd 38a6 1c3e
00000110: 9646 1f3d d1dc 533d 05a2 d4bd e5b6 06be
00000120: 3d79 59bd 13e0 8a3a d140 113d 6292 15be
00000130: 06e4 ddbc 49e6 1f3e a573 f0bc a30a 80bd
00000140: cb9c b9bd 0dbe 35be 6ad8 16bc f566 a13d
00000150: a1af f23c b3f1 f1bd 0952 363d 737b 223e
00000160: 3205 09be 31c1 6f3c 08d8 783d 6bff 623d
00000170: c4e4 a8bd 5905 dabd 9b5c 633c 8c39 54bd
00000180: b545 f73d c661 e73d d842 eabd ce8a acbc
00000190: d206 dcbd 31c2 11be d563 bdbd 053f 3ebc
000001a0: 1f32 63bc 8678 f8bb 2648 1dbe df0f 68bd
000001b0: e889 5f3d cc4c 4bbd 3629 aebe 3edc 583d
000001c0: da32 223d 9120 133d cc04 9dbd 0488 2bbd
000001d0: 9396 bfbc 7a15 fa3c bea2 06bd e97d 76be
000001e0: 409c 103d cbd3 32be 14ce 913c 5b05 5d3d
000001f0: 10c8 cebb 86ed 993d 54d9 8e3d 98f1 92b9
00000200: bc69 cc3b e891 88bb ecd2 483c fb8e 41bd
00000210: 8b64 8ebd f0a1 ac3d e301 81bd 2ac2 9e3d
00000220: c160 e5bb 64a5 9dbd 06a5 b93d bc25 c1bd
00000230: e3a0 893d 8bec ef3c 45d1 bcbd ed5f 8cbd
00000240: 60b3 e93b 2345 b6bc 7226 763d a7cc b33c
00000250: a25b b03d fb0f 8c3c 62cd a7bc 1e85 9e39
00000260: 034b 833d c9fb 83bd 9d4c 063e 55bc d83d
00000270: f252 a9bd ef2e 8bbd 0000 38bd 6cab d3bb
00000280: 3958 f13b 927b 753c 1344 9a3c 961c aa3d
00000290: f5dd bcbc 13d0 94bb 0bc0 983d 8a03 dbbc
000002a0: c910 843d 0491 7abd 8169 31bd d8e6 d83d
000002b0: 032b 1b3d 4604 a4bd da0f 0abd b03e 733d
000002c0: 6ea9 87bd c45c 06be c1ba b8bc 5352 a23b
000002d0: 0fb1 77ba 213d 383d 7d29 44bd 9ae0 a33d
000002e0: 58fd 98bd e8ec b0bc f53b 0d3d a60b 58bc
000002f0: 317c 663d 36ac f9bd e207 a73d 93a6 b3bd
00000300: a927 6d3d 6beb 4b3e 822e 10be 5ade 9d3d
00000310: e2a3 85bd 6354 353d 7df6 823c 6724 9dba
00000320: dafc fe3d 339b d23d d255 09bd 5940 ad3e
00000330: ab3e 8bbd 095f 0c3d 0da6 cdbc 2f56 cd3d
00000340: 52f5 763e 6196 273e 023c c0bd 2896 0c3e
00000350: 04ba 063e 1325 53bd b19e 6ebd d61a 1e3d
00000360: e904 1ebd e183 4c3d caeb 68bc fcd1 3a3e
00000370: 0e90 c5bd fc8b e13c 45cf d63d fc01 6c3e
00000380: b5b4 233e 0698 e33d 0ec5 d93e 53f2 113d
00000390: 0c1f a2bd b8bd 67bd 42ca b0bd 1769 de3d
000003a0: 97b5 c83b 4874 413e 6163 4fbd 4fdf 3c3e
000003b0: 9a66 6b3d f4f3 343e 678c f83e 2e64 99bd
000003c0: 7518 d43c 4457 633d a0f1 36bd f4e5 67bd
000003d0: 733d 623d 4899 4f3d e5db 0abc 1648 c73e
000003e0: a373 723b 6d9b bebd 6d9f e73d 1514 043e
000003f0: 4247 dc3d 6c20 3e3d ac82 cdbc 5e05 9d3d

rnn.weight_ih_l1 f4 [256, 64]
0.036459096 -0.026845356 0.06810112 -0.019905131 -0.09869401 -0.011061921 -0.006286705 -0.11492358
0.13046782 -0.15578242 -0.0087540215 0.21132785 0.024452757 -0.182448 0.0044672177 -0.14477244
0.07926735 0.044319972 0.21264516 0.028881025 -0.019176414 0.2070208 -0.065208636 -0.14038122
0.06921277 0.084783345 0.005942225 -0.087906025 0.1282885 -0.13805373 -0.032593887 -0.20076902
-0.1296172 0.024373861 -0.16716382 -0.16933945 0.03597736 -0.069754645 -0.01404599 -0.08495341
-0.03545355 -0.09793465 -0.03203488 0.021410901 -0.13255765 0.119228885 -0.09833279 0.009244819
-0.12077264 0.08507998 0.070567384 0.0143544525 0.013396339 -0.14735623 -0.02669196 -0.17693649
0.084779255 -0.028916085 0.14000408 -0.025905037 0.07539093 -0.10742496 0.0032555573 -0.025762072
-0.11882204 0.02420799 -0.23506698 -0.26642585 -0.004882872 -0.09222583 -0.037520103 0.23744193
-0.12810543 0.18186381 -0.40904406 -0.08812875 -0.13694072 0.22903481 -0.13145019 0.04953304
0.08981912 0.23687525 0.28716132 -0.27325794 -0.15205668 -0.18425079 0.009820736 0.27715418
-0.11333611 0.07664397 3.5192694e-05 -0.09839826 -0.12244495 0.15797214 0.11072228 -0.18801244
0.14362204 0.11251679 -0.035974786 0.22790577 0.039431106 -0.015910072 -0.024059866 0.022484042
0.25005496 0.17815997 -0.17065369 0.09622099 0.13086823 0.08302342 0.042368885 -0.015889848
0.16503684 -0.11686265 -0.20680833 -0.16181903 0.17674614 0.18495692 -0.12582915 -0.011244133
0.16297942 -0.22168112 0.3289042 -0.0030252917 0.06738024 -0.21678239 -0.28725615 -0.2685102
-0.111504935 0.14373259 -0.14356208 -0.14698415 -0.08702596 -0.116545364 -0.00035205393 0.019123424
-0.005944069 0.018824719 0.016863296 0.1790065 -0.08107431 0.061824456 -0.16647144 -0.11069645
0.13697813 -0.009924959 0.14791262 -0.16796152 0.0656263 -0.1369806 -0.006508421 0.045406442
0.046398353 -0.000487145 -0.03993433 0.13330556 -0.0921742 0.014547319 -0.029658776 -0.05690853
-0.039055835 0.18240596 -0.0328491 0.022200823 -0.039269935 0.0077181985 0.05403574 -0.1361369
0.22816385 0.13440149 -0.042771097 0.0017279914 -0.028560078 -0.0004826261 0.07741437 0.028345536
0.08786054 -0.062667064 -0.16273989 -0.03994204 -0.017485635 0.026526501 -0.18242751 -0.05423828
0.03102428 -0.10912541 -0.08721058 -0.105104536 0.09057377 -0.12843361 -0.06604321 -0.13845012
-0.08838407 -0.0064978315 -0.036200717 0.02074632 -0.018913893 0.07995336 0.052085657 -0.1390958
0.008845605 0.022691637 -0.019376474 -0.15344605 -0.02485404 -0.02822155 0.0029642745 -0.050823335
0.028129866 0.0048157717 0.046011556 -0.06361978 -0.09227612 -0.033925585 0.011117281 -0.12577753
-0.05389381 -0.120004445 -0.076295175 0.032910597 -0.09203943 0.07609614 -0.013245935 0.09720437
0.14296198 0.13310379 0.015914667 0.1015123 -0.10761397 0.07995599 -0.047147285 -0.08111661
-0.08735022 0.021925513 0.056511678 -0.037820064 0.080146715 0.07473232 -0.05136378 0.04088292
0.018172959 -0.07132046 -0.1102944 0.025877263 0.035422493 0.057392787 -0.08043629 0.06520877
-0.07893145 -0.123757735 -0.080772154 0.043130755 0.08551549 0.19097029 0.14130034 0.10388043
00000000: 2256 153d cbea dbbc 9a78 8b3d 1610 a3bc
00000010: 1620 cabd 0f3d 35bc b400 cebb 0e5d ebbd
00000020: 5b99 053e 6d85 1fbe 076d 0fbc 5466 583e
00000030: 2651 c83c a6d3 3abe bd61 923b 3a3f 14be
00000040: ec56 a23d dc88 353d a7bf 593e e697 ec3c
00000050: db17 9dbc 43fd 533e 1b8c 85bd 18c0 0fbe
00000060: 6dbf 8d3d e4a2 ad3d ffb6 c23b 1308 b4bd
00000070: 0f5e 033e f55d 0dbe 2b81 05bd 6596 4dbe
00000080: 5fba 04be b1ab c73c fe2c 2bbe 5267 2dbe
00000090: ff5c 133d 86db 8ebd 2721 66bc 0efc adbd
000000a0: be37 11bd f691 c8bd 0237 03bd ea65 af3c
000000b0: 31bd 07be 462e f43d b462 c9bd 9577 173c
000000c0: a557 f7bd 6a3e ae3d a285 903d f02e 6b3c
000000d0: 517c 5b3c 8de4 16be 19a9 dabc d72e 35be
000000e0: bfa0 ad3d 6de1 ecbc 3b5d 0f3e cd36 d4bc
000000f0: 8f66 9a3d 9e01 dcbd 305b 553b fb0a d3bc
00000100: f858 f3bd d64f c63c 66b5 70be f868 88be
00000110: 8000 a0bb e5e0 bcbd aeae 19bd fa23 733e
00000120: 122e 03be 823a 3a3e 396e d1be d97c b4bd
00000130: 303a 0cbe 1a88 6a3e e19a 06be 28e3 4a3d
00000140: 16f3 b73d 6d8f 723e cf06 933e 77e8 8bbe
00000150: bfb4 1bbe 3dac 3cbe 27e7 203c 27e7 8d3e
00000160: c31c e8bd 84f7 9c3d de9b 1338 0785 c9bd
00000170: 6bc4 fabd 73c3 213e 5dc2 e23d 5586 40be
00000180: a811 133e 346f e63d 4c5a 13bd 2160 693e
00000190: 8382 213d d755 82bc 3219 c5bc 7430 b83c
000001a0: 3407 803e 916f 363e d7bf 2ebe 830f c53d
000001b0: 5202 063e 2f08 aa3d ff8a 2d3d 6d2b 82bc
000001c0: 6bff 283e af55 efbd 90c5 53be e3b3 25be
000001d0: f1fc 343e 5965 3d3e 5bd9 00be 5039 38bc
000001e0: 14e4 263e 6000 63be 2266 a83e f943 46bb
000001f0: a7fe 893d 34fc 5dbe 3d13 93be 2b7a 89be
00000200: b35c e4bd a32e 133e f001 13be 0383 16be
00000210: ab3a b2bd 56af eebd e193 b8b9 baa8 9c3c
00000220: 77c6 c2bb 4c36 9a3c e524 8a3c 7b4d 373e
00000230: 4a0a a6bd a43b 7d3d 7d77 2abe d2b4 e2bd
00000240: ff43 0c3e 4c9c 22bc 6876 173e 1bfe 2bbe
00000250: 1567 863d a444 0cbe 9844 d5bb 1bfc 393d
00000260: 330c 3e3d 7f67 ffb9 2e92 23bd 4181 083e
00000270: d4c5 bcbd e157 6e3c f6f6 f2bc eb18 69bd
00000280: 03f9 1fbd a1c8 3a3e c78c 06bd 80de b53c
00000290: 83d9 20bd f1e8 fc3b 9554 5d3d 7967 0bbe
000002a0: c9a3 693e 8ba0 093e bf30 2fbd c57d e23a
000002b0: d3f6 e9bc fb08 fdb9 6d8b 9e3d e634 e83c
000002c0: 3af0 b33d 9757 80bd 49a5 26be 449a 23bd
000002d0: 093e 8fbc 1b4e d93c 47ce 3abe f528 5ebd
000002e0: a126 fe3c 257d dfbd 769b b2bd 0c41 d7bd
000002f0: be7e b93d 1a84 03be aa41 87bd dec5 0dbe
00000300: b502 b5bd c3eb d4bb 3447 14bd 30f4 a93c
00000310: 4ff1 9abc 96be a33d c557 553d 216f 0ebe
00000320: 28ed 103c d0e3 b93c 69bb 9ebc f620 1dbe
00000330: b39a cbbc e130 e7bc 4644 423b 212c 50bd
00000340: 9b70 e63c 9fcd 9d3b 9d76 3c3d 164b 82bd
00000350: 43fb bcbd 8ef5 0abd 4225 363c d3cb 00be
00000360: c1bf 5cbd e4c4 f5bd a540 9cbd 43cd 063d
00000370: 2b7f bcbd 4bd8 9b3d 7a05 59bc 1613 c73d
00000380: a064 123e 5c4c 083e 7a5f 823c aee5 cf3d
00000390: b764 dcbd f7bf a33d 831d 41bd 7720 a6bd
000003a0: ace4 b2bd 229d b33c ca78 673d 36e9 1abd
000003b0: f623 a43d 420d 993d d462 52bd d974 273d
000003c0: 75df 943c 7610 92bd 08e2 e1bd 8efc d33c
000003d0: 2d17 113d b314 6b3d c8bb a4bd 2d8c 853d
000003e0: d0a6 a1bd b274 fdbd df6b a5bd e0a9 303d
000003f0: bf22 af3d b78d 433e 09b1 103e 43bf d43d

rnn.weight_hh_l1 f4 [256, 64]
-0.043938488 0.06831466 0.11609798 -0.12236682 0.0023469948 -0.07631046 -0.113490626 0.0412328
0.06400609 -0.13319565 0.016323082 -0.100196555 0.044600945 -0.049632635 0.080134496 0.03201295
0.033778433 0.09810566 0.16569568 -0.051070765 -0.00083578913 -0.03394365 -0.03799471 0.054647896
-0.13046727 -0.031517327 -0.09674656 0.012445286 0.0058214185 0.03584077 -0.056663983 -0.11317898
-0.04337297 -0.0029041055 -0.0061799823 -0.040033814 0.035061125 -0.039281595 -0.12475403 0.0011350347
0.08007093 0.05440327 0.04286798 -0.09159405 -0.12523541 0.012366142 -0.088594 0.0748704
0.055302333 0.076980636 -0.08820908 -0.044449925 -0.10529518 -0.08074541 -0.02792215 -0.0017033797
0.053293496 0.024762664 -0.08522607 -0.07782838 0.075886406 -0.038232718 -0.048306603 0.1515471
-0.042090964 0.19367856 0.28429738 -0.27859148 -0.23672539 -0.33923483 0.017370094 0.070629105
0.12985453 -0.07423751 -0.07129744 -0.082748726 0.035168853 -0.19117548 -0.2221679 0.06958312
-0.0024782491 -0.19106503 0.44257432 0.27128565 0.10974619 -0.09901752 0.3988272 -0.21019137
-0.16107428 -0.12980533 -0.23720053 -0.11374163 -0.101092964 -0.014838585 -0.039011657 -0.21341887
0.06915765 0.22042657 0.14879572 -0.20140402 0.19722979 0.05918036 0.14256032 0.15912125
0.07013641 0.060526114 -0.21398938 -0.030598857 0.07783049 -0.10092845 0.20731202 0.1781043
0.19884375 0.012409209 0.14952807 0.15910669 0.25713548 -0.028852994 0.15200597 -0.23873976
-0.3316189 -0.18072939 -0.17589512 0.017691229 -0.021016674 -0.31038588 -0.16956227 0.22818619
-0.16291052 -0.10758074 -0.08047993 0.023710262 0.0030498568 -0.45674837 -0.057788346 0.08161551
-0.042317737 0.079385825 0.05314646 0.054742504 0.087245904 -0.32860214 -0.037739277 -0.029530307
-0.1218105 -0.03624029 0.05340653 0.0008016643 -0.026272478 -0.073182195 0.027352294 -0.0037106127
0.085197896 -0.110699974 -0.05510786 0.06681682 -0.07379189 0.14051938 0.09332389 0.022447573
0.037839483 0.10689537 -0.06549668 -0.09631861 0.07996036 0.114417896 0.0347334 0.1483746
0.04628594 0.01811674 0.04439281 0.06894485 -0.13451065 0.02806092 0.06420597 -0.0061224625
0.07896589 0.069091894 0.15156248 -0.153802 -0.022501914 0.06641297 0.015974043 0.09264978
0.08395889 0.091488324 -0.11785405 -0.029382406 -0.006559968 -0.16697721 -0.012012095 2.0083133e-05
0.09814536 0.25005305 0.08425592 -0.15891089 -0.0061309026 -0.054155443 -0.080431715 0.0995915
0.109523915 0.055225097 -0.11534893 0.07980207 -0.044296134 -0.050596874 -0.058927465 0.09783059
-0.0035806566 -0.07444057 0.12551293 -0.016511861 0.050174564 0.018240308 0.08707496 -0.1315743
0.03974994 0.059189267 -0.08359093 -0.016279016 0.027625347 0.023258269 -0.089045495 -0.19556594
0.025021289 0.15958084 0.054468382 0.0433716 0.034469735 0.11509494 0.036691964 -0.080522016
-0.055531237 0.10599781 -0.060386937 0.060245506 -0.030397777 -0.05548933 -0.0077149286 -0.011437075
-0.072927415 0.0879129 0.08445302 -0.034683328 0.1171321 -0.07358838 0.1443514 -0.08587312
-0.07010229 -0.033106703 0.08784814 0.13143285 0.0016771518 -0.15398838 0.072440065 0.042738546
00000000: d8f8 33bd 8ee8 8b3d c7c4 ed3d 759b fabd
00000010: 0ad0 193b a948 9cbd c66d e8bd b9e3 283d
00000020: a015 833d 7164 08be fcb7 853c da33 cdbd
00000030: 7baf 363d 974b 4bbd 8e1d a43d 0320 033d
00000040: 415b 0a3d 9feb c83d 21ac 293e 942f 51bd
00000050: dc18 5bba 7f08 0bbd 57a0 1bbd 79d6 5f3d
00000060: 3699 05be 5018 01bd 0f23 c6bd 50e7 4b3c
00000070: 99c1 be3b c5cd 123d 7e18 68bd 62ca e7bd
00000080: dba7 31bd ce52 3ebb 7381 cabb 7ffa 23bd
00000090: 419c 0f3d bde5 20bd 0a7f ffbd 72c5 943a
000000a0: 3afc a33d f7d5 5e3d 5696 2f3d a995 bbbd
000000b0: b63d 00be 5c9b 4a3c c570 b5bd a755 993d
000000c0: b384 623d 06a8 9d3d f6a6 b4bd 2011 36bd
000000d0: 00a5 d7bd d95d a5bd febc e4bc f043 dfba
000000e0: 484a 5a3d 12db ca3c 018b aebd 7c64 9fbd
000000f0: 556a 9b3d e999 1cbd 25dd 45bd 2a2f 1b3e
00000100: 9367 2cbd ac53 463e 6d8f 913e 8ba3 8ebe
00000110: 2468 72be 30b0 adbe ba4b 8e3c fea5 903d
00000120: 96f8 043e d609 98bd 6404 92bd 2a78 a9bd
00000130: 370d 103d 81c3 43be fb7f 63be 9881 8e3d
00000140: 1f6a 22bb 8da6 43be 1a99 e23e f4e5 8a3e
00000150: 9cc2 e03d b3c9 cabd 1433 cc3e 683c 57be
00000160: a8f0 24be b0eb 04be b2e4 72be 5ff1 e8bd
00000170: d409 cfbd 891d 73bc b0ca 1fbd 7a8a 5abe
00000180: 87a2 8d3d 81b7 613e e85d 183e db3c 4ebe
00000190: 9bf6 493e 1b67 723d 55fb 113e aef0 223e
000001a0: aea3 8f3d 3bea 773d 0820 5bbe 74aa fabc
000001b0: 9865 9f3d 93b3 cebd 9a49 543e f960 363e
000001c0: b29d 4b3e ff4f 4b3c e31d 193e ddec 223e
000001d0: 43a7 833e 1d5d ecbc 74a7 1b3e 3278 74be
000001e0: f4c9 a9be 2011 39be da1d 34be 32ed 903c
000001f0: 292b acbc e6ea 9ebe bba1 2dbe a4a9 693e
00000200: 04d2 26be 4a53 dcbd a9d2 a4bd 063c c23c
00000210: 1be0 473b ecda e9be 79b3 6cbd 0826 a73d
00000220: 5d55 2dbd 0995 a23d 1ab0 593d ad39 603d
00000230: fbad b23d 8a3e a8be 8094 1abd 8be9 f1bc
00000240: c977 f9bd b370 14bd cec0 5a3d c826 523a
00000250: 6139 d7bc 8ce0 95bd eb11 e03c c02d 73bb
00000260: 3c7c ae3d abb6 e2bd c8b8 61bd 42d7 883d
00000270: 3420 97bd 50e4 0f3e 9820 bf3d f9e3 b73c
00000280: 93fd 1a3d f6eb da3d 2023 86bd b142 c5bd
00000290: 42c2 a33d ee53 ea3d 9c44 0e3d 83ef 173e
000002a0: 5396 3d3d 8f69 943c 3cd5 353d f532 8d3d
000002b0: 29bd 09be 04e0 e53c 6b7e 833d f09e c8bb
000002c0: deb8 a13d 0d80 8d3d 3233 1b3e 467e 1dbe
000002d0: ef55 b8bc 8603 883d ffdb 823c 2bbf bd3d
000002e0: a3f2 ab3d 3b5e bb3d 775d f1bd 5fb3 f0bc
000002f0: 00f5 d6bb 13fc 2abe 61ce 44bc 3378 a837
00000300: 6f00 c93d f406 803e 5e8e ac3d 89b9 22be
00000310: bde5 c8bb 19d2 5dbd 62b9 a4bd a1f6 cb3d
00000320: 134e e03d b633 623d 0f3c ecbd 456f a33d
00000330: dd6f 35bd ab3e 4fbd ed5d 71bd 685b c83d
00000340: 73a9 6abb 4c74 98bd 7686 003e e243 87bc
00000350: d883 4d3d b36c 953c 5b54 b23d 6abb 06be
00000360: d5d0 223d 7270 723d b931 abbd 925b 85bc
00000370: 8d4e e23c 2088 be3c 7c5d b6bd 7042 48be
00000380: 72f9 cc3c 2969 233e 3d1a 5f3d 6ba6 313d
00000390: 2330 0d3d e5b6 eb3d 504a 163d bae8 a4bd
000003a0: b974 63bd 6115 d93d 4b58 77bd fec3 763d
000003b0: c204 f9bc c848 63bd 83cd fcbb 9262 3bbc
000003c0: f85a 95bd ae0b b43d b4f5 ac3d 1b10 0ebd
000003d0: f4e2 ef3d 81b5 96bd dad0 133e 3fde afbd
000003e0: ca91 8fbd e59a 07bd bae9 b33d 5596 063e
000003f0: e0d3 db3a 21af 1dbe 755b 943d 9d0e 2f3d

rnn.bias_ih_l1 f4 [256]
0.096502185 -0.0014496347 -0.07047951 -0.103485346 0.0892999 0.10287878 0.015576558 0.07301802
0.019845739 -0.13444944 -0.06706249 -0.054105278 0.06520996 0.072368614 0.10237874 0.22858149
-0.085119374 0.0727185 -0.110450074 0.08629486 -0.13436203 0.15104467 -0.09423743 -0.1467173
0.07029156 -0.10970228 0.07054631 -0.024755439 0.049187526 0.022651397 0.019713053 -0.11399975
0.014149239 0.15854682 0.08046798 0.11850552 0.0030123675 0.046068434 0.04802237 -0.035375547
0.08380028 -0.08638649 -0.013388477 -0.10581012 -0.09697752 -0.096286826 0.025227856 0.120755896
0.094759405 -0.100716084 0.06654751 0.10799487 0.07476885 0.05533463 -0.12760006 -0.030649485
0.006074913 0.34757078 -0.055326622 -0.045882527 -0.0028711697 -0.15797968 0.08188338 -0.07491612
-0.034535814 0.0778429 -0.02629892 -0.01385466 -0.06527846 -0.07429158 0.026082346 0.06436681
0.009672821 -0.060984664 0.024751468 0.03436679 -0.030428557 -0.14140889 0.108447075 -0.17835426
-0.023862824 -0.04965874 -0.10281363 0.11609703 0.011066883 -0.037678305 -0.08790993 0.0071558002
-0.0016014212 0.0248759 -0.297988 -0.16800115 0.056355458 -0.09669006 0.05287324 0.035025425
0.027030742 0.10711575 -0.1352315 0.042447854 -0.13135171 -0.014280883 -0.07923004 -0.06456066
-0.050261144 -0.11414023 -0.0469339 -0.084945634 -0.08116814 0.11022652 0.049006753 0.0030169806
0.0749942 -0.07361051 -0.049025364 0.085002005 0.0010709701 0.07929578 -0.14619948 -0.06935322
0.13834487 0.012414899 -0.13731739 -0.064741895 -0.030857537 -0.060446803 0.0721627 -0.03028132
-0.044952083 -0.004938701 -0.11435657 -0.02279018 0.072694205 -0.039170705 0.065206386 -0.029460592
-0.15033785 0.020299785 0.029450612 -0.06060574 -0.0700801 0.014771228 0.053069297 0.057677764
0.07538662 0.027754365 0.12543955 0.002997181 -0.12842008 0.07452258 -0.00030754454 -0.01857525
0.043842208 0.11489854 -0.0565786 0.055864498 0.07536976 -0.1295719 0.065455414 0.08818038
-0.11347278 -0.028490957 -0.054655116 -0.10777186 -0.07075959 0.08733711 -0.047983725 -0.12767018
-0.09511124 -0.043901667 0.15404525 -0.046921402 -0.0039067613 0.151597 -0.150162 -0.1143282
0.01758855 -0.08493777 -0.020326696 0.024332238 -0.08346609 0.12776001 -0.042662952 0.03097934
0.12041397 -0.079115905 0.06434557 -0.0011124612 0.008739565 0.029374523 0.019281356 -0.06835622
-0.0055271797 0.003273395 0.03625738 -0.12461608 0.09913408 -0.07596779 -0.044636037 -0.084040985
0.017560925 -0.04812959 -0.10178028 0.034689385 -0.10510887 0.046026066 -0.10319665 0.03352597
-0.15944111 -0.118195705 -0.0486397 -0.001020376 0.0006218941 0.07802584 0.0077670882 -0.13649485
0.0077698063 0.0921963 0.06762679 -0.16067721 -0.066860616 -0.091651864 0.089719504 -0.04488506
-0.0045233085 0.14723708 -0.0702202 0.008813128 -0.058344644 -0.0945974 -0.041751526 -0.084256575
-0.017771238 0.1185251 -0.015115286 -0.039885487 -0.0017544463 -0.0024391385 0.07519439 0.019783229
-0.01719674 -0.07746497 -0.0021296977 0.079973176 0.11454734 -0.07321067 -0.14988835 3.641454e-05
-0.046006385 0.4020597 -0.07347174 -0.015055155 0.018275538 -0.040829957 0.0742495 0.0013196623
00000000: f0a2 c53d ab01 beba 9057 90bd 20f0 d3bd
00000010: dee2 b63d 1cb2 d23d d234 7f3c 798a 953d
00000020: 8893 a23c 1dad 09be 0f58 89bd 7f9d 5dbd
00000030: cd8c 853d ff35 943d f2ab d13d 4411 6a3e
00000040: 1153 aebd 70ed 943d a633 e2bd 5cbb b03d
00000050: 3396 09be 74ab 1a3e 8eff c0bd 0f3d 16be
00000060: 05f5 8f3d 97ab e0bd 957a 903d ebcb cabc
00000070: dc78 493d 6c8f b93c 457d a13c b378 e9bd
00000080: 36d2 673c 195a 223e 65cc a43d 06b3 f23d
00000090: 246b 453b 41b2 3c3d 1bb3 443d f3e5 10bd
000000a0: 7b9f ab3d 66eb b0bd 585b 5bbc fab2 d8bd
000000b0: 269c c6bd 0732 c5bd a6aa ce3c de4e f73d
000000c0: 3811 c23d 3c44 cebd 104a 883d 6a2c dd3d
000000d0: 6920 993d 91a6 623d 97a9 02be a114 fbbc
000000e0: 1010 c73b ccf4 b13e 2b9e 62bd 51ef 3bbd
000000f0: 3c2a 3cbb 6dc5 21be 79b2 a73d 9f6d 99bd
00000100: 6d75 0dbd 196c 9f3d d570 d7bc a8fe 62bc
00000110: b7b0 85bd 2f26 98bd a5aa d53c bfd2 833d
00000120: c07a 1e3c 0ecb 79bd 97c3 ca3c 31c4 0c3d
00000130: 4f45 f9bc 7ecd 10be 8019 de3d 80a2 36be
00000140: f87b c3bc f766 4bbd f48f d2bd 48c4 ed3d
00000150: df51 353c 9154 1abd 1f0a b4bd 347b ea3b
00000160: c7e6 d1ba 8bc8 cb3c e291 98be 7e08 2cbe
00000170: fbd4 663d 7005 c6bd 9c91 583d d276 0f3d
00000180: 936f dd3c 815f db3d 207a 0abe cddd 2d3d
00000190: 1081 06be 5dfa 69bc 5c43 a2bd 6138 84bd
000001a0: a1de 4dbd 5ac2 e9bd c33d 40bd faf7 adbd
000001b0: 7b3b a6bd 71be e13d 4ebb 483d 89b8 453b
000001c0: 8f96 993d 1bc1 96bd d2ce 48bd 8815 ae3d
000001d0: cb5f 8c3a d365 a23d 51b5 15be 1009 8ebd
000001e0: 47aa 0d3e dc67 4b3c ee9c 0cbe 6697 84bd
000001f0: f2c8 fcbc 1197 77bd 0aca 933d 8810 f8bc
00000200: ad1f 38bd d4d4 a1bb c733 eabd 79b2 babc
00000210: b3e0 943d 7671 20bd ed8a 853d 5757 f1bc
00000220: 2af2 19be bc4b a63c 6942 f13c b93d 78bd
00000230: 2886 8fbd 0503 723c 315f 593d 853f 6c3d
00000240: 4d64 9a3d 1f5d e33c 3a73 003e 5a6c 443b
00000250: 8e80 03be 4b9f 983d ee3d a1b9 1f2b 98bc
00000260: e393 333d ed4f eb3d f6be 67bd 2cd2 643d
00000270: 765b 9a3d 7fae 04be 7d0d 863d ea97 b43d
00000280: 6b64 e8bd de65 e9bc 0bde 5fbd 7eb7 dcbd
00000290: 67ea 90bd ccdd b23d 958a 44bd f9bb 02be
000002a0: afc9 c2bd 3cd2 33bd 0abe 1d3e a830 40bd
000002b0: 4a04 80bb 3e3c 1b3e 11c4 19be e724 eabd
000002c0: dd15 903c dbf3 adbd 2c84 a6bc 6754 c73c
000002d0: 45f0 aabd 85d3 023e 59bf 2ebd 63c8 fd3c
000002e0: 999b f63d 8507 a2bd 9cc7 833d 01d0 91ba
000002f0: 6430 0f3c d7a2 f03c eff3 9d3c 59fe 8bbd
00000300: 581d b5bb 7486 563b 9e82 143d b736 ffbd
00000310: cf06 cb3d 0095 9bbd 47d4 36bd ae1d acbd
00000320: eedb 8f3c 8823 45bd 2e72 d0bd 7516 0e3d
00000330: 5243 d7bd d485 3c3d c458 d3bd 8752 093d
00000340: 8844 23be 9710 f2bd 6c3a 47bd 23be 85ba
00000350: 9b06 233a 03cc 9f3d 0f83 fe3b 4ec5 0bbe
00000360: dc99 fe3b 6ad1 bc3d ea7f 8a3d 9188 24be
00000370: 38ee 88bd f9b3 bbbd dcbe b73d 66d9 37bd
00000380: 4338 94bb 51c5 163e 9ccf 8fbd f064 103c
00000390: cbfa 6ebd 48bc c1bd a603 2bbd b68e acbd
000003a0: fd94 91bc 4abd f23d 1ba6 77bc f75e 23bd
000003b0: 73f5 e5ba f4d9 1fbb 84ff 993d 7010 a23c
000003c0: 2de0 8cbc f4a5 9ebd 6692 0bbb fac8 a33d
000003d0: cc97 ea3d 7aef 95bd 557c 19be d1bb 1838
000003e0: 3171 3cbd c5da cd3e 5a78 96bd e6a9 76bc
000003f0: 95b6 953c 503d 27bd 1f10 983d 85f8 ac3a

rnn.bias_hh_l1 f4 [256]
-0.035925407 -0.09947744 -0.10179027 -0.13681266 0.0015449 0.074132636 -0.14020516 -0.08102748
0.085766606 -0.006639993 -0.09936174 0.04106102 -0.048201945 0.048964188 0.079207875 0.16954172
0.047121182 0.03421939 0.049607642 -0.043396525 -0.03406547 0.09358831 -0.0475082 0.018048435
0.0025476837 -0.10672693 0.11627606 -0.06843135 -0.083989054 -0.055679895 -0.08790756 -0.08481343
0.076416515 -0.04399465 -0.083254226 0.062010814 -0.0006630877 -0.00048688427 -0.031761106 0.014392297
-0.0489367 -0.032138705 -0.08572603 0.080550335 -0.0038980034 0.06948904 0.06431658 -0.041854106
0.057900425 -0.06806311 -0.07959777 -0.05219654 0.033028662 0.026797125 -0.10375296 0.02192613
-0.09237587 0.40558648 0.030967508 -0.017879514 -0.015055218 -0.16375795 0.014605779 -0.05921812
0.0057319864 0.0706081 0.05813736 0.029820468 -0.023666129 -0.07870369 -0.01627538 0.083478644
-0.045333426 -0.052391835 -0.029037507 0.017386286 0.02090772 -0.29249611 -0.028184963 -0.19942807
-0.14875196 0.02212142 -0.14214611 -0.0003962631 -0.06631293 -0.16519752 0.06344692 -0.085991286
-0.09110203 0.041294288 -0.3542063 -0.017150743 -0.06809259 0.009180501 0.09154126 0.06055894
-0.0051193875 -0.09650479 -0.06559454 0.11599006 -0.15082538 -0.016376054 -0.12748115 0.06291696
-0.031067256 -0.046183996 -0.055134878 0.019581128 -0.0006982167 0.028829796 0.044013355 0.05197421
0.04153383 -0.13093518 0.12782039 0.08686874 -0.021121575 -0.076246165 -0.21857047 0.049274877
-0.055344205 -0.010016254 -0.064604625 0.02189964 -0.12639229 0.031303685 0.08444326 0.02659207
0.15060242 0.030187521 0.08466318 0.12111361 0.06766722 0.10404926 -0.053461317 -0.14138922
-0.06138728 0.09954253 0.11937638 0.04030786 -0.09805795 0.009282484 0.097247146 0.0013115564
0.046412986 0.12184523 0.101046026 -0.06403279 0.07372135 -0.027087297 -0.030845247 0.034612235
0.04003771 0.019277612 0.04159644 0.048790507 0.10084475 -0.15043107 0.00089398754 -0.0007197836
-0.1090665 -0.14323916 -0.030216604 0.10439511 0.09462584 0.03826216 0.045939095 0.048530113
-0.1172821 -0.060035132 -0.0010435331 0.07243496 -0.037876125 -0.026309306 -0.045500256 -0.14136285
-0.16494794 -0.011184936 -0.1353753 -0.08151576 0.000904796 0.117319696 0.004283054 0.045697015
0.12382256 0.033950195 -0.09576757 -0.025326207 -0.12752306 -0.05358476 0.0025104776 -0.087312005
0.04170357 0.0058482154 0.06253593 -0.008405524 0.006172092 0.051852547 -0.12032843 0.021226857
-0.08516879 -0.113294825 0.09534587 0.013164193 -0.06448769 0.010594372 0.092366986 0.18872316
-0.10711944 -0.030797707 -0.099567264 -0.041887812 -0.08083419 0.10173028 0.0004977886 0.03680496
0.049709953 -0.110938184 0.12356049 -0.04990046 -0.07150964 -0.061293013 -0.03569611 0.02329881
0.07639696 -0.009038215 -0.14420488 -0.009728971 -0.0023902059 -0.011268285 0.011308899 0.058626007
-0.010391331 -0.08665691 0.058145463 0.050611224 0.066353954 -0.060625754 -0.026180325 -0.028609699
0.046967484 -0.11270832 0.04569722 0.010473365 -0.017548772 0.02498781 -0.06341274 0.06267373
0.10838478 0.20656313 0.0020672402 0.058203045 0.07157254 -0.22012992 0.13913658 -0.05176791
00000000: 8526 13bd d4ba cbbd 6b77 d0bd 9e18 0cbe
00000010: 3e7e ca3a dad2 973d f191 0fbe bcf1 a5bd
00000020: 67a6 af3d 4c94 d9bb 2b7e cbbd 9a2f 283d
00000030: 676f 45bd ac8e 483d bd37 a23d 589c 2d3e
00000040: 2402 413d a229 0c3d 6231 4b3d 8ec0 31bd
00000050: 3c88 0bbd 3aab bf3d f597 42bd 50da 933c
00000060: 0af7 263b a693 dabd 2522 ee3d bc25 8cbd
00000070: 7402 acbd 9a10 64bd e108 b4bd aab2 adbd
00000080: 4380 9c3d bc33 34bd 3181 aabd 0dff 7d3d
00000090: 10d3 2dba 8044 ffb9 ef17 02bd abcd 6b3c
000000a0: d971 48bd e0a3 03bd 2191 afbd 93f7 a43d
000000b0: a575 7fbb 4550 8e3d 69b8 833d 366f 2bbd
000000c0: ff28 6d3d ac64 8bbd 2804 a3bd 0acc 55bd
000000d0: 1049 073d a585 db3c 6f7c d4bd 6d9e b33c
000000e0: 8f2f bdbd 08a9 cf3e 92af fd3c 0f78 92bc
000000f0: 29aa 76bc 2ab0 27be 144d 6f3c b38e 72bd
00000100: 63d3 bb3b fb9a 903d 7121 6e3d 0e4a f43c
00000110: 78df c1bc 662f a1bd f253 85bc daf6 aa3d
00000120: 8baf 39bd d298 56bd 11e0 edbc af6d 8e3c
00000130: ab46 ab3c 0dc2 95be 27e4 e6bc df36 4cbe
00000140: 6f52 18be fb37 b53c c08e 11be 88c1 cfb9
00000150: 13cf 87bd 8a29 29be 75f0 813d 331c b0bd
00000160: b393 babd 3324 293d 875a b5be b77f 8cbc
00000170: 2174 8bbd d069 163c fc79 bb3d a70c 783d
00000180: 89c0 a7bb 4ea4 c5bd 6e56 86bd 328c ed3d
00000190: f871 1abe 1327 86bc 6b8a 02be 9bda 803d
000001a0: c280 febc 6e2b 3dbd 1cd5 61bd 9a68 a03c
000001b0: 8808 37ba 772c ec3c 5947 343d e9e2 543d
000001c0: 611f 2a3d df13 06be 59e3 023e 3de8 b13d
000001d0: 2707 adbc f326 9cbd f0d0 5fbe 74d4 493d
000001e0: 9bb0 62bd 371b 24bc 6e4f 84bd e066 b33c
000001f0: fb6c 01be 4b38 003d 97f0 ac3d 9dd7 d93c
00000200: 8537 1a3e d24b f73c e463 ad3d 6a0a f83d
00000210: 1d95 8a3d c717 d53d 41fa 5abd 56c8 10be
00000220: 3a71 7bbd f4dc cb3d 9b7b f43d db19 253d
00000230: 9bd2 c8bd 8f15 183c 8329 c73d 88e8 ab3a
00000240: 8b1b 3e3d fe89 f93d 38f1 ce3d a023 83bd
00000250: 38fb 963d 2ee6 ddbc 2caf fcbc 8fc5 0d3d
00000260: 95fe 233d 15ec 9d3c 0761 2a3d 8ed8 473d
00000270: b187 ce3d 9a0a 1abe 7d5a 6a3a dcaf 3cba
00000280: 425e dfbd 49ad 12be d088 f7bc 1acd d53d
00000290: 31cb c13d c8b8 1c3d a22a 3c3d 83c7 463d
000002a0: 9931 f0bd 66e7 75bd 29c7 88ba c858 943d
000002b0: ff23 1bbd 9d86 d7bc 7a5e 3abd 6cc1 10be
000002c0: 1de8 28be 0641 37bc d39f 0abe bcf1 a6bd
000002d0: d52f 6d3a 4f45 f03d dc58 8c3b cb2c 3b3d
000002e0: af96 fd3d 5c0f 0b3d ca21 c4bd e878 cfbc
000002f0: 6895 02be b17b 5bbd d386 243b a3d0 b2bd
00000300: 5dd1 2a3d 63a2 bf3b d612 803d 53b7 09bc
00000310: 433f ca3b 5663 543d c06e f6bd f2e3 ad3c
00000320: f96c aebd 1e07 e8bd b244 c33d a1ae 573c
00000330: 1f12 84bd 0494 2d3c e72a bd3d a540 413e
00000340: 7061 dbbd 794b fcbc ece9 cbbd 8e92 2bbd
00000350: 658c a5bd f757 d03d 077e 023a ccc0 163d
00000360: aa9c 4b3d 8f33 e3bd 480d fd3d 6d64 4cbd
00000370: a573 92bd 620e 7bbd 1636 12bd 25dd be3c
00000380: 0276 9c3d 0515 14bc 72aa 13be 4366 1fbc
00000390: 00a5 1cbb 9d9e 38bc f648 393c d321 703d
000003a0: 6740 2abc 2e79 b1bd f029 6e3d b74d 4f3d
000003b0: 95e4 873d b652 78bd 1f78 d6bc e35e eabc
000003c0: fa60 403d 9fd3 e6bd 022d 3b3d 7a98 2b3c
000003d0: 71c2 8fbc 3cb3 cc3c 8ade 81bd 165b 803d
000003e0: d7f8 dd3d 4985 533e 897a 073b 5166 6e3d
000003f0: a094 923d bd69 61be d279 0e3e 970a 54bd
