darts_logs/LSTM_emissions/checkpoints/last-epoch=2.ckpt (torch, 657591 bytes, 31 tensors)

rnn.weight_ih_l0 f4 [256, 8]
0.09775867 -0.042378787 -0.07519671 -0.07662148 0.038274437 0.1790665 0.06551072 0.13897184
0.0058704135 0.10133136 0.08953458 -0.06240076 -0.051462043 -0.00696744 0.010919369 0.07001175
0.17965859 0.0110620605 -0.124815494 -0.0025262418 -0.016268706 0.016001118 -0.119562574 0.021410426
-0.047386352 -0.12103907 -0.060445003 -0.091552265 -0.050287075 -0.045049276 -0.13351713 0.0010420176
0.03043582 -0.047764454 -0.07617854 -0.020129442 -0.11586259 0.069225416 0.07681281 0.016095033
0.046248775 -0.0807098 0.016800152 0.05460634 -0.12231389 -0.0053718626 0.076196685 0.1257486
0.104583405 0.060448587 -0.031380113 -0.002820692 0.14418286 0.12052024 -0.011093423 0.028219154
0.0039375103 0.086021 0.09216761 -0.00468832 0.080370724 -0.071584255 0.09646442 0.1694829
-0.032457784 0.14810704 0.10430596 0.012971014 -0.009113693 -0.1724938 0.13374327 0.12836729
0.12008329 -0.07796542 -0.11864917 -0.016736703 0.05350013 -0.034000654 -0.0041968804 0.10457183
0.06838998 -0.035352305 -0.08212326 0.053987816 -0.0103532355 0.04387815 -0.066706546 -0.07906717
0.14837578 0.1316238 0.11522295 -0.085742705 -0.0338622 0.20490591 -0.059503432 0.016249493
0.07441985 0.09483654 0.12803988 0.0005462185 -0.020262953 0.004233534 -0.094493575 -0.033409275
-0.01049331 0.027579263 -0.05278835 0.115703896 0.0791595 0.006168142 0.037223678 -0.06996086
0.14659204 -0.06408497 0.012996196 0.064274654 -0.11307159 0.11498358 0.062596954 0.026943568
0.1174821 -0.08334253 -0.020532757 -0.03414887 -0.16481352 -0.17834015 0.03521475 0.015476638
0.11333378 -0.039507713 0.10509973 0.06566364 -0.020046303 0.049866807 0.09752844 0.12231072
-0.0057950676 0.09728723 -0.008390931 0.052618217 -0.12894186 0.09482102 0.0646046 -0.050132237
-0.024217352 -0.14649592 0.042172685 0.070815355 -0.09007014 0.0627663 0.0774395 -0.11168848
0.1025659 0.081260666 0.12980373 -0.10188147 0.1252827 0.09753656 -0.075532824 0.14638796
0.23006241 -0.020522587 0.10065384 -0.093622535 -0.025350455 0.16235001 0.047846623 -0.06668172
0.23985606 0.11916298 -0.0047319285 0.07110021 -0.13517042 0.064359 0.13351497 -0.070158206
0.21745723 -0.07953577 -0.09515554 -0.123866685 0.039345317 -0.06748221 -0.070534825 0.06344583
0.23253994 0.09120672 -0.013282294 -0.1304602 -0.13356227 0.016204474 0.079906896 0.06882543
0.03406078 0.015405149 0.17295542 0.016509132 0.12226163 0.16476272 0.13023303 0.10451868
0.16331153 -0.11048148 -0.035030473 0.032034438 -0.037393216 0.12414811 0.07651589 0.111768775
0.0031744125 -0.07084858 -0.07867777 -0.11112928 -0.09946252 -0.066186786 0.09120924 0.043802302
0.024975067 -0.008701051 0.025219342 0.04693875 -0.12858799 0.035556078 -0.022325065 0.116506994
0.09393214 0.11549741 -0.058524158 0.041202202 -0.057888445 0.095095895 0.05855818 0.09212475
0.019358106 0.06119759 0.064304434 -0.112416126 -0.060347855 -0.017049802 0.054371927 -0.072694995
0.081846625 -0.04501544 -0.07235069 -0.059407305 -0.13245185 -0.056564946 0.09453947 -0.13170089
0.18806708 -0.026866045 0.016947472 -0.1350176 0.012517004 0.15610981 -0.005507873 0.11865277
00000000: b335 c83d 6195 2dbd bc00 9abd b9eb 9cbd
00000010: a8c5 1c3d 355d 373e 7c2a 863d a24e 0e3e
00000020: 995c c03b d186 cf3d e85d b73d f097 7fbd
00000030: ddc9 52bd 1f4f e4bb 27e7 323c 5262 8f3d
00000040: 6cf8 373e a53d 353c 449f ffbd 4e8f 25bb
00000050: f345 85bc c714 833c 39dd f4bd eb64 af3c
00000060: 3118 42bd 55e3 f7bd 2e95 77bd c17f bbbd
00000070: d2f9 4dbd 9785 38bd b7b8 08be 4f94 883a
00000080: 8a54 f93c a9a4 43bd 7f03 9cbd 80e6 a4bc
00000090: 5e49 edbd 0ec6 8d3d 0950 9d3d bbd9 833c
000000a0: 5b6f 3d3d 2e4b a5bd 79a0 893c e6aa 5f3d
000000b0: b47f fabd 7306 b0bb 020d 9c3d 3ec4 003e
000000c0: d32f d63d f098 773d 6f88 00bd 5cdb 38bb
000000d0: aca4 133e 51d3 f63d 30c1 35bc db2b e73c
000000e0: 3b06 813b c72b b03d 5fc2 bc3d 7ba0 99bb
000000f0: 6899 a43d c49a 92bd 238f c53d ed8c 2d3e
00000100: 74f2 04bd 5fa9 173e 5d9e d53d 6084 543c
00000110: 9951 15bc 37a2 30be fff3 083e b772 033e
00000120: 3aee f53d 56ac 9fbd 56fe f2bd 691b 89bc
00000130: f422 5b3d 4544 0bbd fc85 89bb c129 d63d
00000140: 0c10 8c3d 94cd 10bd 3d30 a8bd 5422 5d3d
00000150: 9ea0 29bc 93b9 333d 719d 88bd f8ed a1bd
00000160: d2ef 173e 64c8 063e 03fa eb3d df99 afbd
00000170: 17b3 0abd dbd2 513e dfb9 73bd a81d 853c
00000180: 6f69 983d a939 c23d e31c 033e 1a30 0f3a
00000190: 7efe a5bc 75b9 8a3b d985 c1bd 2ad8 08bd
000001a0: 22ec 2bbc e8ed e13c 9938 58bd 2af6 ec3d
000001b0: 601e a23d 201e ca3b db77 183d a447 8fbd
000001c0: 391c 163e fb3e 83bd ffed 543c 6ea2 833d
000001d0: 1492 e7bd 837c eb3d d532 803d c2b8 dc3c
000001e0: 759a f03d 7daf aabd 5034 a8bc afdf 0bbd
000001f0: e0c4 28be cd9e 36be 573d 103d ba91 7d3c
00000200: 8a1b e83d d7d2 21bd 873e d73d a97a 863d
00000210: 2538 a4bc 2341 4c3d febc c73d 0b7e fa3d
00000220: 8de4 bdbb 873e c73d 1e7a 09bc 3386 573d
00000230: 5609 04be 8631 c23d 6b4f 843d 7657 4dbd
00000240: 7863 c6bc 0703 16be 44bd 2c3d a407 913d
00000250: b276 b8bd 9e8b 803d 9a98 9e3d eebc e4bd
00000260: 120e d23d fe6b a63d 45eb 043e 3ba7 d0bd
00000270: 1c4a 003e 3fc1 c73d f4b0 9abd bae6 153e
00000280: 7b95 6b3e fc1e a8bc 9a23 ce3d 2cbd bfbd
00000290: c2ab cfbc 153f 263e d2fa 433d 6d90 88bd
000002a0: d49c 753e b80b f43d 4b0e 9bbb fd9c 913d
000002b0: 1d6a 0abe a7ce 833d 26b8 083e 1baf 8fbd
000002c0: 1cad 5e3e a6e3 a2bd e8e0 c2bd d1ad fdbd
000002d0: 8e28 213d 1d34 8abd 9074 90bd e3ef 813d
000002e0: f31e 6e3e 97ca ba3d fb9d 59bc 5c97 05be
000002f0: 8cc4 08be 3fbf 843c 3aa6 a33d 59f4 8c3d
00000300: 5183 0b3d e165 7c3c 3a1b 313e 293e 873c
00000310: 4e64 fa3d 8fb7 283e cf5b 053e e40d d63d
00000320: 233b 273e 1d44 e2bd 1d7c 0fbd 8b36 033d
00000330: a129 19bd 5d41 fe3d 5db4 9c3d 07e7 e43d
00000340: ce09 503b 0f19 91bd d021 a1bd bf97 e3bd
00000350: 01b3 cbbd f08c 87bd e9cb ba3d 0b6a 333d
00000360: 8398 cc3c da8e 0ebc cb98 ce3c d942 403d
00000370: 92ac 03be 40a3 113d 0ee3 b6bc 389b ee3d
00000380: 7e5f c03d e889 ec3d 07b7 6fbd a4c3 283d
00000390: 6f1c 6dbd a3c1 c23d b4da 6f3d e7ab bc3d
000003a0: e494 9e3c 53aa 7a3d 0bb2 833d 6d3a e6bd
000003b0: 502f 77bd 07ac 8bbc 19b5 5e3d 1de1 94bd
000003c0: 349f a73d 1c62 38bd 992c 94bd 1355 73bd
000003d0: 75a1 07be a5b0 67bd e99d c13d 99dc 06be
000003e0: a894 403e 2e16 dcbc 6dd5 8a3c 0e42 0abe
000003f0: 1f14 4d3c 40db 1f3e 637b b4bb 3900 f33d

rnn.weight_hh_l0 f4 [256, 64]
-0.0007405933 0.0041632685 -0.047505833 0.10435912 0.06795705 -0.046911605 0.09501898 -0.141191
-0.120929204 0.07936758 -0.08221222 -0.13401578 -0.13203332 0.004474857 -0.025048988 -0.0057435706
0.029038094 0.048922647 0.09200728 0.17024924 -0.08174597 0.11780014 0.08104369 0.07743112
-0.09922015 0.008042412 0.063297115 0.05474234 -0.03441942 -0.052787457 0.1630285 0.07199465
0.05554515 0.0989939 -0.030739669 -0.041365594 -0.013894893 0.0029461978 0.06421298 -0.0792194
-0.0017522485 0.1225762 -0.021241419 0.05674711 -0.09917589 -0.11996865 0.10082838 -0.052722488
0.09137157 0.047941446 -0.08476292 0.1271819 -0.043092236 0.027370716 -0.10408589 0.15653752
-0.11295342 -0.1219537 -0.061507534 0.14960992 -0.15539967 -0.120459065 0.06570215 -0.009385918
-0.0032889275 0.041669264 0.054179933 0.060568426 0.08517086 -0.05347004 -0.0066942037 -0.08219836
0.076063596 -0.035413213 -0.005598999 0.028870858 -0.11333279 -0.016397206 0.004491768 0.14523622
0.00975932 -0.10032533 -0.011757846 -0.06642775 0.12886319 -0.056828953 -0.03778984 0.037452456
0.06661238 -0.06769096 0.016717242 -0.10281819 0.07990192 0.0040850295 0.023608116 0.0051370915
-0.098811135 -0.017901096 -0.09065514 -0.05547402 0.004843039 0.1052388 -0.0467019 -0.060776617
-0.041112803 -0.0850804 -0.05680116 0.089195296 -0.04391831 -0.111690894 0.093944244 0.11249802
0.02551008 -0.09087754 -0.017227665 -0.075594425 -0.1053104 -0.022631906 -0.010773128 -0.072763816
-0.10513412 -0.00744643 0.08853808 0.081586726 -0.08575431 -0.07808738 -0.034991812 -0.02622404
-0.040117703 0.04561322 0.09867879 -0.01244298 0.13499856 -0.08384161 -0.21203841 -0.2494223
-0.23815316 -0.1995388 0.07172406 -0.13773324 0.027392626 -0.070830405 -0.019495549 0.14564887
0.18000431 -0.100881346 -0.13594697 0.07832314 0.07732271 0.10724116 -0.008204966 0.21409108
0.0627469 -0.1137803 0.00016195612 0.062025703 0.15553756 0.062541716 0.28495786 0.16950957
-0.0590089 0.15067953 0.24991386 -0.073915 0.110824786 -0.08610803 0.07486796 -0.15366511
0.31282213 0.047069803 0.021113273 -0.0708571 -0.15884821 -0.13205348 -0.14689378 0.014054638
0.05986558 -0.08154955 0.070444256 0.10979465 -0.008010383 0.10935564 -0.2208646 0.20694943
-0.23878041 -0.09665142 -0.060872022 0.15360375 -0.103309564 0.12257436 -0.048923947 -0.24095449
-0.088091075 0.012551937 -0.114209354 -0.0025682354 -0.14178751 0.023443634 0.06272246 -0.048376832
-0.009712997 0.1318278 0.017969523 0.049300004 -0.079545446 0.15630749 -0.071618006 -0.058101024
0.055534393 0.020928567 -0.044703092 -0.10936079 0.043315675 0.09260819 0.023761697 -0.070042156
-0.040850196 0.14741355 0.07861659 0.009100451 -0.10812373 -0.0041299346 -0.16179948 -0.025680289
-0.08293226 -0.035964627 -0.06045647 0.021275366 0.11333871 -0.10398306 -0.10001248 -0.0013661691
0.085518375 -0.11236012 0.09537476 0.06907528 -0.09103119 -0.0074424515 0.06775787 -0.051024426
0.036456633 0.079748355 0.00030978528 0.052792788 -0.017493153 0.0041001397 0.052780684 -0.06585091
0.1019699 -0.06954398 0.14838138 -0.04407715 0.08454723 -0.057183675 0.031698998 0.09993659
00000000: 6024 42ba 076c 883b 7a95 42bd 3cba d53d
00000010: 112d 8b3d 6226 40bd 5099 c23d 6094 10be
00000020: bba9 f7bd 788b a23d e15e a8bd 6f3b 09be
00000030: be33 07be d2a1 923b 8933 cdbc 9034 bcbb
00000040: 4ce1 ed3c 1d63 483d 506e bc3d d155 2e3e
00000050: 6e6a a7bd 3341 f13d 3cfa a53d 3594 9e3d
00000060: ef33 cbbd 52c4 033c eba1 813d 8139 603d
00000070: 61fb 0cbd a937 58bd f1f0 263e ee71 933d
00000080: 5083 633d 50bd ca3d c2d1 fbbc f86e 29bd
00000090: 68a7 63bc ff14 413b 1882 833d c83d a2bd
000000a0: b4ab e5ba 3b09 fb3d 7c02 aebc a86f 683d
000000b0: bb1c cbbd 20b2 f5bd 1c7f ce3d 89f3 57bd
000000c0: 0521 bb3d 405e 443d 2f98 adbd f93b 023e
000000d0: 7c81 30bd 8d38 e03c fc2a d5bd 5f4b 203e
000000e0: 1f54 e7bd ddc2 f9bd 53ef 7bbd 5833 193e
000000f0: 1721 1fbe 3eb3 f6bd d98e 863d 65c7 19bc
00000100: 0c8b 57bb 64ad 2a3d c7eb 5d3d 9916 783d
00000110: 0f6e ae3d 6703 5bbd 0d5b dbbb 9d57 a8bd
00000120: 3bc7 9b3d 720d 11bd cf77 b7bb 9482 ec3c
00000130: 061b e8bd 6f53 86bc ae2f 933b ceb8 143e
00000140: 8ee5 1f3c 5e77 cdbd fba3 40bc 460b 88bd
00000150: b6f4 033e 7ac5 68bd 85c9 1abd bf67 193d
00000160: 126c 883d 8fa1 8abd 99f2 883c 5892 d2bd
00000170: 9ea3 a33d b6db 853b cf65 c13c 0c55 a83b
00000180: 7e5d cabd 52a5 92bc 67a9 b9bd ba38 63bd
00000190: 5bb2 9e3b 7187 d73d 7e4a 3fbd e7f0 78bd
000001a0: e665 28bd a23e aebd 55a8 68bd 06ac b63d
000001b0: b0e3 33bd 32be e4bd d765 c03d 5d65 e63d
000001c0: 84fa d03c 011e babd 0821 8dbc 40d1 9abd
000001d0: fbac d7bd 8c66 b9bc c681 30bc 3205 95bd
000001e0: 8f50 d7bd 2f01 f4bb 7453 b53d f116 a73d
000001f0: f59f afbd 47ec 9fbd 9353 0fbd ccd3 d6bc
00000200: 7652 24bd eed4 3a3d 1b18 ca3d a4dd 4bbc
00000210: 103d 0a3e 26b5 abbd 9920 59be 8f68 7fbe
00000220: 6cde 73be e653 4cbe 10e4 923d f109 0dbe
00000230: 8066 e03c 880f 91bd 21b5 9fbc fa24 153e
00000240: 0d53 383e e19a cebd af35 0bbe e267 a03d
00000250: 5e5b 9e3d 41a1 db3d 1f6e 06bc b13a 5b3e
00000260: 7281 803d a505 e9bd c4d2 2939 aa0e 7e3d
00000270: 3d45 1f3e df15 803d ffe5 913e eb93 2d3e
00000280: 51b3 71bd bc4b 1a3e 6be9 7f3e bf60 97bd
00000290: 1bf8 e23d 6859 b0bd 5f54 993d 635a 1dbe
000002a0: 392a a03e 44cc 403d bef5 ac3c 871d 91bd
000002b0: 1ba9 22be 0739 07be 536b 16be 6d45 663c
000002c0: 9c35 753d 7303 a7bd 1445 903d 04dc e03d
000002d0: fb3d 03bc daf5 df3d 542a 62be 8dea 533e
000002e0: da82 74be 2ef1 c5bd f154 79bd 4d4a 1d3e
000002f0: f793 d3bd 4408 fb3d 7a64 48bd c6bc 76be
00000300: 1869 b4bd a4a6 4d3c 98e6 e9bd d74f 28bb
00000310: bf30 11be dd0c c03c a274 803d c926 46bd
00000320: 4323 1fbc defd 063e d234 933c cdee 493d
00000330: b9e8 a2bd 120f 203e 76ac 92bd 57fb 6dbd
00000340: 0878 633d 6372 ab3c 971a 37bd 8df8 dfbd
00000350: c76b 313d 5da9 bd3d e4a7 c23c 4372 8fbd
00000360: 8952 27bd 94f3 163e bc01 a13d 0f1a 153c
00000370: f96f ddbd 6754 87bb c3ae 25be 785f d2bc
00000380: 64d8 a9bd a54f 13bd 34a1 77bd ad49 ae3c
00000390: 201e e83d 12f5 d4bd 58d3 ccbd 0711 b3ba
000003a0: 4224 af3d 101d e6bd d853 c33d 5777 8d3d
000003b0: 8f6e babd cfdf f3bb a3c4 8a3d fdfe 50bd
000003c0: 8d53 153d 1b53 a33d ad6a a239 403d 583d
000003d0: cd4d 8fbc 775a 863b 8f30 583d d8dc 86bd
000003e0: 98d5 d03d 136d 8ebd 4af1 173e 3e8a 34bd
000003f0: 1927 ad3d 6e39 6abd cfd6 013d 8eab cc3d

rnn.bias_ih_l0 f4 [256]
-0.08452418 -0.056696877 0.01571647 0.038031936 -0.010557811 -0.049346298 0.07933161 -0.017020581
0.101471394 0.08610238 -0.0008334416 0.13832678 0.10533142 0.123418026 -0.040554117 -0.019164175
0.12625197 -0.0332173 -0.11520069 -0.050388396 0.00079435215 0.102207035 0.023331426 -0.013245875
0.09565729 0.02907958 0.015713947 0.027023245 -0.019643301 0.017380707 0.023459593 0.0967516
0.10398422 0.000109516215 -0.0026247015 -0.0061308155 0.03678142 -0.038884185 -0.07251023 -0.015772244
0.17678784 0.12490401 -0.080468506 0.05824557 0.15564089 -0.08707668 0.025196422 0.03788453
0.12874767 -0.060884945 -0.06275359 -0.029685592 -0.05797754 0.09686313 -0.09737123 0.09196153
0.068572484 0.052751955 -0.08385748 0.010274098 0.05812014 0.09950481 0.0113801425 0.16654918
-0.061990876 0.046106618 -0.094130084 -0.0010900302 0.049030825 0.0682035 -0.08347059 0.01679671
-0.013057883 0.053241223 -0.026798606 0.032657146 0.051557757 0.11449467 -0.060168184 0.09050913
0.03758553 -0.101192094 0.011253699 0.06509761 0.10914708 -0.05088454 0.080033794 0.12992077
-0.09017678 0.021687543 0.08838253 0.047868665 -0.026151141 -0.096901424 0.040703602 0.08633434
0.115610264 0.05653229 0.072361186 0.03479824 -0.14158612 -0.06917266 -0.091515034 -0.009695494
0.013232518 0.09912458 -0.107490696 0.08905126 0.012025416 -0.118132174 -0.056249816 0.08432746
0.12790729 0.05308728 -0.038618468 0.004724751 0.019144846 0.13212198 0.06654963 -0.062480398
-0.026061224 -0.103816 0.030665534 0.07590962 0.07620383 0.030090477 -0.0066827694 -0.044632822
0.07267516 0.022739094 0.051055346 -0.004546262 -0.072960064 0.11588687 -0.11216414 0.05206753
-0.038951892 -0.09719482 0.09081478 -0.059721965 0.09796742 0.067721225 -0.08689401 -0.050970357
0.050263632 -0.040411808 0.042863164 0.038182393 0.087155215 0.049513243 -0.03794181 -0.0179716
0.11299768 -0.07988898 0.10217146 0.058101095 -0.06780078 -0.06348149 -0.07901262 -0.08445305
0.014284221 0.060578506 -0.005930784 0.06318928 -0.011099091 -0.044624202 0.090453014 0.027533693
0.060729075 -0.084015295 0.011101903 0.11939965 0.011294647 -0.110042654 -0.052620023 0.09081654
-0.052207295 -0.10523957 0.038743153 0.05464512 -0.00041651257 0.0072054537 0.025137844 0.011575567
-0.10881236 0.035508025 0.023949143 -0.03428799 0.004558186 -0.10084225 0.13295156 -0.03151139
0.0655203 0.05197163 -0.08617633 -0.026483327 -0.09199107 0.07984458 0.0681974 -0.038922235
0.08232231 0.12236361 -0.043965988 -0.0006601244 -0.0673245 0.012031083 -0.061327163 0.11625917
0.15864953 0.055226944 -0.12055621 0.1329871 0.10468379 -0.09819734 -0.06731131 0.044038814
0.06986254 0.07566247 0.017766638 0.08623194 -0.039802164 -0.063316 -0.03611288 -0.05683889
0.1372945 0.1425479 0.15804948 -0.08168202 0.004861187 -0.005560982 -0.11590915 0.1062997
0.122938484 0.11616211 -0.017992517 0.106816225 0.082805134 0.119666375 0.030548299 -0.023638858
0.058439527 0.069364406 0.0043238797 -0.02042604 0.07409847 -0.07401905 -0.031898182 0.102444395
-0.08129246 -0.06635964 0.08619412 -0.027973844 0.045818813 -0.068083026 -0.07249921 0.03602188
00000000: 031b adbd fc3a 68bd d4bf 803c 60c7 1b3d
00000010: abfa 2cbc 581f 4abd 9c78 a23d bf6e 8bbc
00000020: 3cd0 cf3d 7256 b03d 527b 5aba 89a5 0d3e
00000030: 00b8 d73d 97c2 fc3d 131c 26bd 30fe 9cbc
00000040: 3248 013e dd0e 08bd 57ee ebbd 1064 4ebd
00000050: 123c 503a ec51 d13d 8c21 bf3c 3a05 59bc
00000060: f8e7 c33d 4d38 ee3c 89ba 803c da5f dd3c
00000070: fdea a0bc fc61 8e3c 552e c03c b425 c63d
00000080: aef5 d43d 12ac e538 2f03 2cbb 02e5 c8bb
00000090: 1da8 163d 0645 1fbd 3e80 94bd cb34 81bc
000000a0: df07 353e accd ff3d accc a4bd e892 6e3d
000000b0: 5360 1f3e 4255 b2bd ba68 ce3c cf2c 1b3d
000000c0: 6ed6 033e 7e62 79bd f484 80bd 332f f3bc
000000d0: db79 6dbd 2d60 c63d 916a c7bd 5456 bc3d
000000e0: bb6f 8c3d 6f12 583d 78bd abbd b154 283c
000000f0: 620f 6e3d 2ec9 cb3d c773 3a3c de8b 2a3e
00000100: 25ea 7dbd 4bda 3c3d 46c7 c0bd 58df 8eba
00000110: 8cd4 483d 47ae 8b3d a1f2 aabd 4199 893c
00000120: bbf0 55bc 7813 5a3d c088 dbbc 80c3 053d
00000130: 3a2e 533d 2e7c ea3d ea72 76bd da5c b93d
00000140: 49f3 193d cd3d cfbd 6f61 383c e551 853d
00000150: 8188 df3d 4f6c 50bd c2e8 a33d f309 053e
00000160: 9bae b8bd 13aa b13c e601 b53d ef11 443d
00000170: eb3a d6bc 4174 c6bd d2b8 263d 0fd0 b03d
00000180: 13c5 ec3d 678e 673d 1a32 943d 9988 0e3d
00000190: f4fb 10be 65aa 8dbd 3c6c bbbd d9d9 1ebc
000001a0: 34cd 583c d401 cb3d 1524 dcbd 8260 b63d
000001b0: 4006 453c 48ef f1bd 3566 66bd e0b3 ac3d
000001c0: 21fa 023e 0c72 593d 662e 1ebd 16d2 9a3b
000001d0: a7d5 9c3c fc4a 073e 2c4b 883d 72eb 7fbd
000001e0: 597e d5bc 7c9d d4bd 4936 fb3c 8176 9b3d
000001f0: c110 9c3d 4e80 f63c 22fb dabb e8d0 36bd
00000200: b7d6 943d 5647 ba3c 691f 513d cff8 94bb
00000210: 166c 95bd 1856 ed3d 50b6 e5bd c344 553d
00000220: 058c 1fbd 140e c7bd 19fd b93d 059f 74bd
00000230: 25a3 c83d 6db1 8a3d 7df5 b1bd 4bc6 50bd
00000240: 3de1 4d3d da86 25bd 4991 2f3d 2465 1c3d
00000250: 6f7e b23d 66ce 4a3d df68 1bbd 2d39 93bc
00000260: 546b e73d d59c a3bd 453f d13d 6afb 6d3d
00000270: 23db 8abd 9502 82bd 5ed1 a1bd b8f5 acbd
00000280: 5e08 6a3c 2b21 783d 0657 c2bb 6269 813d
00000290: f6d8 35bc dec7 36bd 6e3f b93d 578e e13c
000002a0: 0dbf 783d 3610 acbd c2e4 353c ce87 f43d
000002b0: 2f0d 393c 0b5e e1bd 1888 57bd 06fe b93d
000002c0: 51d7 55bd d887 d7bd 24b1 1e3d 90d3 5f3d
000002d0: 5f5f dab9 ba1b ec3b e1ed cd3c 72a7 3d3c
000002e0: 04d9 debd dd70 113d fe30 c43c 9071 0cbd
000002f0: d65c 953b 6286 cebd 7424 083e 1612 01bd
00000300: 822f 863d 34e0 543d 377d b0bd 90f3 d8bc
00000310: d065 bcbd 8e85 a33d 14ab 8b3d ec6c 1fbd
00000320: 9998 a83d c699 fa3d ae15 34bd 330c 2dba
00000330: 6de1 89bd 051e 453c 3132 7bbd 4a19 ee3d
00000340: 0675 223e a635 623d 2de6 f6bd c52d 083e
00000350: 7464 d63d b01b c9bd 83da 89bd 0b62 343d
00000360: 1714 8f3d edf4 9a3d 578b 913c 5f9a b03d
00000370: 9807 23bd d2ab 81bd 19eb 13bd e5cf 68bd
00000380: ee96 0c3e 14f8 113e b9d7 213e e748 a7bd
00000390: 984a 9f3b e638 b6bb c761 edbd a8b3 d93d
000003a0: 2cc7 fb3d 66e6 ed3d 0b65 93bc 77c2 da3d
000003b0: bd95 a93d a513 f53d 6d40 fa3c 47a6 c1bc
000003c0: 495e 6f3d ed0e 8e3d 55af 8d3b 8354 a7bc
000003d0: f0c0 973d 4d97 97bd aba7 02bd 5ece d13d
000003e0: a97c a6bd 90e7 87bd 8b86 b03d 6729 e5bc
000003f0: 82ac 3b3d 1d6f 8bbd 777a 94bd ae8b 133d

rnn.bias_hh_l0 f4 [256]
-0.032383993 -0.11537576 0.08331633 -0.05117233 -0.094053425 -0.006049862 0.021273008 0.022898998
0.1205189 -0.11083177 -0.054375805 0.14752662 -0.021728544 -0.104002215 -0.04625164 -0.08727738
0.08706496 0.118848346 0.06379888 0.13150729 0.037682284 0.11471748 -0.08005508 -0.09051465
0.11710151 0.016157899 -0.00755132 -0.10188969 0.15110873 -0.03245612 0.048804194 -0.12221801
-0.0049473345 0.069666654 0.02958074 -0.059030544 0.22813134 -0.031446777 -0.052982055 -0.10208881
0.014985406 0.00091020326 -0.029855117 -0.028424436 -0.03964175 -0.018418036 0.061754864 -0.0112310685
-0.06728494 0.084338866 0.120537676 0.0025203158 0.08557871 -0.089931436 -0.041160785 -0.0011193143
-0.043073807 -0.09598102 0.0939451 0.10090639 0.13802415 -0.03628655 0.015432345 -0.044735204
0.049115937 -0.06410027 0.009811714 -0.043214142 0.08215042 -0.05063616 -0.06600698 0.17922148
-0.09434771 0.06727377 -0.07000936 -0.06089641 0.030613845 -0.02636187 -0.11255042 0.11047011
0.004207606 0.054262858 0.02105659 0.16359693 -0.09487877 -0.01902604 -0.061063305 0.04081711
-0.021186426 -0.054603852 -0.061254513 -0.07793667 0.060126178 0.08725733 0.032267988 -0.10113194
-0.015555882 -0.0055460855 -0.052190814 0.053399883 -0.13730176 -0.06980675 -6.2155865e-05 0.10769987
-0.0617451 0.060371406 -0.08717104 0.027474755 -0.046901643 0.08793539 -0.049114373 -0.065577865
-0.0028741362 0.0019389224 -0.054479565 -0.06740854 0.07762891 0.106142856 0.14058436 0.13362716
-0.02190866 -0.121944025 0.08986761 -0.052668177 0.057853725 0.0765498 0.012995748 0.10792956
-0.08399313 0.076362744 -0.09910962 -0.09217341 0.055652525 -0.057912875 -0.020183438 0.028994298
0.009473413 0.0037183915 0.064854294 0.08503329 -0.06681619 -0.08855448 -0.08191467 -0.08152755
-0.05880308 -0.0019889239 0.07334245 -0.07104277 0.04411669 0.0035552753 0.029779313 0.047229685
0.042256568 -0.043828238 -0.03604867 0.019210408 -0.0808313 -0.016274879 -0.036742233 0.10191619
0.004871373 0.11617345 0.017958125 0.022496872 -0.060321096 0.017387861 0.008615163 -0.07750241
0.059629027 0.07477768 -0.02323163 0.0853091 -0.07852794 0.039845835 0.10816041 -0.019580415
0.03643876 -0.04611937 -0.107533224 -0.006222824 -0.0025650898 -0.1142193 -0.09648656 0.10960995
0.042882934 0.023108449 -0.08098441 0.046830207 0.07530625 -0.11856119 -0.0069075655 -0.051078513
0.005428457 -0.00018825979 -0.06771858 0.016937833 -0.05313984 0.10683426 0.064321525 -0.07498491
0.14099278 0.054258775 -0.08731332 -0.07125958 -0.0040440066 0.035431303 -0.019844826 -0.037740774
0.08578023 0.002665615 0.0682072 -0.031993087 -0.043301705 -0.011114551 0.13441724 -0.10613869
-0.00982683 -0.10181432 -0.035536095 0.035946246 -0.06493241 0.041223392 -0.061622154 0.0817792
0.15129419 0.13370116 0.03682214 0.110844515 -0.0029845587 0.08904247 -0.05484959 -0.056372758
0.005810977 0.045102876 0.08840638 0.0026389277 0.1841152 0.09776564 -0.041560367 0.067208245
0.059893787 -0.0339339 -0.105279975 0.05218295 0.09059544 0.12400412 -0.04714243 0.090383634
0.011580858 -0.09582228 -0.06525276 0.09276029 0.090963684 0.07507352 0.07672427 0.07660924
00000000: 14a5 04bd 204a ecbd c1a1 aa3d 149a 51bd
00000010: 159f c0bd ec3d c6bb bb44 ae3c ae96 bb3c
00000020: 9dd2 f63d c4fb e2bd 2ab9 5ebd 3811 173e
00000030: 0f00 b2bc 1dff d4bd 5c72 3dbd 7cbe b2bd
00000040: 1d4f b23d c366 f33d fda8 823d d9a9 063e
00000050: bd58 1a3d 00f1 ea3d ebf3 a3bd bf5f b9bd
00000060: ebd2 ef3d 925d 843c 1071 f7bb 8bab d0bd
00000070: 3fbc 1a3e b5f0 04bd e8e6 473d 704d fabd
00000080: 401d a2bb 64ad 8e3d 4f53 f23c 03ca 71bd
00000090: 439b 693e 56ce 00bd b603 59bd f013 d1bd
000000a0: 5985 753c b59a 6e3a b892 f4bc 5dda e8bc
000000b0: 635f 22bd 6ce1 96bc abf2 7c3d 8402 38bc
000000c0: b0cc 89bd dbb9 ac3d 75dc f63d e22b 253b
000000d0: e443 af3d f92d b8bd 3698 28bd f5b5 92ba
000000e0: 296e 30bd b291 c4bd 4a66 c03d 02a8 ce3d
000000f0: 3456 0d3e 35a1 14bd f2d7 7c3c 433c 37bd
00000100: cb2d 493d 0147 83bd 50c1 203c 5001 31bd
00000110: 7b3e a83d dd67 4fbd ab2e 87bd d685 373e
00000120: 5f39 c1bd d5c6 893d 1161 8fbd 846e 79bd
00000130: e3c9 fa3c d9f4 d7bc d680 e6bd 273e e23d
00000140: f5df 893b bb42 5e3d df7e ac3c f485 273e
00000150: cd4f c2bd 7fdc 9bbc 841d 7abd d82f 273d
00000160: 288f adbc 4aa8 5fbd 03e6 7abd 439d 9fbd
00000170: de46 763d f9b3 b23d 702b 043d 431e cfbd
00000180: 19de 7ebc f0bb b5bb 09c6 55bd d6b9 5a3d
00000190: d598 0cbe d7f6 8ebd ad59 82b8 c091 dc3d
000001a0: 6ee8 7cbd 0248 773d bb86 b2bd bd12 e13c
000001b0: f01b 40bd 7817 b43d 272c 49bd b04d 86bd
000001c0: 015c 3cbb 7123 fe3a f725 5fbd 7d0d 8abd
000001d0: e8fb 9e3d 6d61 d93d 59f5 0f3e 8fd5 083e
000001e0: ca79 b3bc cabd f9bd 820c b83d 96ba 57bd
000001f0: 07f8 6c3d 24c6 9c3d 1eec 543c 2c0a dd3d
00000200: 9704 acbd 1264 9c3d fcf9 cabd 6ac5 bcbd
00000210: e7f3 633d 0d36 6dbd bd57 a5bc 7385 ed3c
00000220: 6036 1b3c 42b0 733b 54d2 843d ef25 ae3d
00000230: edd6 88bd 0d5c b5bd e1c2 a7bd ebf7 a6bd
00000240: 80db 70bd 9b58 02bb 9134 963d df7e 91bd
00000250: b4b3 343d 9fff 683b bff3 f33c ea73 413d
00000260: 3915 2d3d 3d85 33bd c5a7 13bd 255f 9d3c
00000270: e18a a5bd e552 85bc 067f 16bd 6fb9 d03d
00000280: 0aa0 9f3b 59ec ed3d eb1c 933c 5c4b b83c
00000290: 4113 77bd fd70 8e3c 9d26 0d3c 95b9 9ebd
000002a0: 913d 743d 0a25 993d 4250 bebc 8ab6 ae3d
000002b0: 42d3 a0bd 6335 233d 3483 dd3d 1b67 a0bc
000002c0: cf40 153d aae7 3cbd 613a dcbd d5e8 cbbb
000002d0: 111b 28bb cfeb e9bd bf9a c5bd 2e7b e03d
000002e0: 04a6 2f3d ee4d bd3c 28db a5bd 08d1 3f3d
000002f0: 2a3a 9a3d 36d0 f2bd dc58 e2bb b437 51bd
00000300: 33e1 b13b 9a67 45b9 0ab0 8abd 36c1 8a3c
00000310: 29a9 59bd eccb da3d 01bb 833d b091 99bd
00000320: 6960 103e 733e 5e3d 53d1 b2bd 8bf0 91bd
00000330: 9683 84bb 6a20 113d 9e91 a2bc 1296 1abd
00000340: 8cad af3d 99b1 2e3b 37b0 8b3d 2f0b 03bd
00000350: 215d 31bd ce19 36bc aca4 093e 3e5f d9bd
00000360: b600 21bc 0784 d0bd 4c8e 11bd 5f3c 133d
00000370: 49fb 84bd dcd9 283d 8367 7cbd da7b a73d
00000380: ddec 1a3e f5e8 083e d0d2 163d 7302 e33d
00000390: 9698 43bb e65b b63d f7a9 60bd 1fe7 66bd
000003a0: 026a be3b cbbd 383d 670e b53d dcf1 2c3b
000003b0: b288 3c3e 5a39 c83d 343b 2abd 7aa4 893d
000003c0: 3053 753d 46fe 0abd 079d d7bd cabd 553d
000003d0: 1a8a b93d dff5 fd3d 6c18 41bd 0e1b b93d
000003e0: a4bd 3d3c 793e c4bd 3da3 85bd 1bf9 bd3d
000003f0: 2b4b ba3d 25c0 993d 9d21 9d3d 4ee5 9c3d

rnn.weight_ih_l1 f4 [256, 64]
0.024251478 -0.10293033 -0.0042714095 -0.051851943 0.025927031 0.10064267 0.09272342 0.031635854
-0.07546888 0.07270903 -0.014417629 0.14266463 0.107031815 -0.033588614 0.1024593 -0.13396047
-0.06357802 -0.031743146 0.046374634 -0.17124283 -0.10532801 -0.14964843 0.16257505 0.018594604
-0.010185796 0.1363308 0.074208416 -0.0092596235 0.045960106 0.067787744 0.078914784 -0.17556511
0.08754085 -0.083746545 -0.123147555 0.07334449 0.16842669 0.12530917 -0.092431255 0.1418454
-0.06269261 -0.12136875 0.012371357 -0.03691257 -0.054144736 0.14427665 -0.0023789185 -0.04628788
-0.06899433 0.14197539 -0.022418432 -0.06620937 0.066300206 0.007146514 0.010247082 -0.033793833
0.14873749 0.14706457 0.062113818 -0.004722888 0.080752045 -0.0069724154 0.10453182 0.1828236
-0.036064144 -0.006348879 -0.11933968 -0.06557194 -0.14825344 -0.018480679 -0.035329133 -0.0916009
-0.17045972 -0.08816473 -0.015208378 -0.043819536 0.069135904 0.041416086 0.06297182 0.08171697
-0.09915924 -0.031578302 -0.10488736 -0.01976655 0.017056232 0.054598745 0.008269117 0.06533929
0.039301064 0.0352405 0.06463781 0.08553749 0.005719512 0.13349423 0.07114485 0.05219913
0.01380736 -0.12645826 0.082074545 0.10694463 0.11853032 -0.088651486 -0.10655107 -0.012909248
0.033882204 -0.036952924 0.010070532 -0.014039939 -0.019247111 -0.040210612 -0.021297345 0.075643755
-0.080305174 0.07266306 0.13415836 -0.052137777 0.06767845 0.07225179 0.07845679 -0.07082801
-0.016888766 0.0243927 -0.014830761 0.042188913 0.01762418 0.06371132 0.057422116 0.04317759
-0.029560834 0.021895112 -0.18126962 0.015911525 -0.041732077 -0.041309044 0.11010892 0.011864246
0.014741233 0.02422332 -0.05629584 0.08150728 -0.05270635 -0.011872145 0.096021 0.006627745
-0.060539976 -0.023906624 -0.1107436 -0.01679695 -0.1109052 -0.012072597 -0.06167019 -0.01175244
0.06525195 0.13732076 0.02583859 -0.02848507 0.084373206 -0.09971987 -0.040342093 0.06697854
0.047718164 -0.038652666 0.08138757 0.03810966 0.119439326 -0.09999666 0.064793564 0.13702637
0.09239314 0.006613176 0.11802012 -0.057410598 0.14944826 0.08757341 -0.052560713 0.09724575
0.06484855 0.17376639 -0.002131065 -0.10259158 0.12050504 -0.12684351 -0.0016805037 -0.13196638
0.10955684 0.1416592 0.04700485 -0.109950826 -0.06896616 0.14845921 0.059191927 0.12579541
-0.14103626 0.11579582 -0.021318069 -0.13093817 0.0019138072 0.04267031 -0.004367848 -0.085735545
0.005319149 -0.15745871 0.14129223 -0.07772946 -0.08744574 -0.00747385 -0.08447999 0.07452459
0.07272135 -0.026366267 -0.097990766 0.19148119 0.045354757 0.0562212 0.005609669 -0.056262683
-0.037164133 -0.029084336 0.10488956 -0.041605994 -0.03125383 0.03492506 -0.04778627 -0.04569582
-0.009328418 0.14492063 0.18283898 0.066755705 -0.000666423 -0.053379834 -0.0052583828 -0.1593329
0.066083305 0.17318216 0.016229598 -0.027045907 -0.05564497 0.03485616 -0.0937743 -0.032417133
0.052888926 0.09785554 -0.060110804 0.0395993 -0.058519058 -0.019005423 -0.090753146 0.13690466
-0.082973205 0.061976545 -0.10984484 -0.028860977 -0.07454884 0.015635785 0.0313752 -0.16272256
00000000: 09ab c63c 23cd d2bd 2ef7 8bbb b462 54bd
00000010: ed64 d43c bf1d ce3d c7e5 bd3d 9994 013d
00000020: 6e8f 9abd 79e8 943d eb37 6cbc ad16 123e
00000030: 7f33 db3d 3794 09bd 2ed6 d13d ef2c 09be
00000040: 3135 82bd 1a05 02bd 54f3 3d3d 485a 2fbe
00000050: 36b6 d7bd 703d 19be 137a 263e b653 983c
00000060: 53e2 26bc 4d9a 0b3e 95fa 973d adb5 17bc
00000070: aa40 3c3d 4dd4 8a3d 139e a13d 57c7 33be
00000080: 9e48 b33d 4f83 abbd c934 fcbd a335 963d
00000090: 0c78 2c3e 0c51 003e 994c bdbd ec3f 113e
000000a0: fc64 80bd 2e90 f8bd 3bb1 4a3c a331 17bd
000000b0: dfc6 5dbd 42bd 133e a1e7 1bbb 5c98 3dbd
000000c0: e64c 8dbd ff61 113e dca6 b7bc c798 87bd
000000d0: 67c8 873d 4e2d ea3b 61e3 273c 676b 0abd
000000e0: a44e 183e 1898 163e 0f6b 7e3d 75c2 9abb
000000f0: 5461 a53d dc78 e4bb c714 d63d 1c36 3b3e
00000100: ffb7 13bd 420a d0bb 5d68 f4bd 954a 86bd
00000110: c0cf 17be cb64 97bc 48b5 10bd 4199 bbbd
00000120: fe8c 2ebe b68f b4bd 902c 79bc 1d7c 33bd
00000130: 2097 8d3d eaa3 293d 5ff7 803d 3a5b a73d
00000140: 0014 cbbd 4058 01bd 2fcf d6bd 76ed a1bc
00000150: 83b9 8b3c efa2 5f3d 317b 073c 9bd0 853d
00000160: 27fa 203d 5858 103d d460 843d 482e af3d
00000170: be6a bb3b b6b2 083e 64b4 913d c1ce 553d
00000180: 4438 623c 467e 01be b316 a83d c905 db3d
00000190: 06c0 f23d e98e b5bd 7337 dabd 4f81 53bc
000001a0: 11c8 0a3d f35b 17bd dffe 243c c607 66bc
000001b0: 1eac 9dbc e2b3 24bd c577 aebc 1deb 9a3d
000001c0: 0a77 a4bd 5fd0 943d cf60 093e 6c8e 55bd
000001d0: 009b 8a3d bff8 933d f4ad a03d 470e 91bd
000001e0: 4f5a 8abc 33d3 c73c b8fc 72bc 48ce 2c3d
000001f0: 9660 903c 157b 823d 7433 6b3d fcda 303d
00000200: 9029 f2bc 615d b33c be9e 39be e358 823c
00000210: 41ef 2abd ac33 29bd c980 e13d 4162 423c
00000220: 3685 713c fc6f c63c 7796 66bd 4aed a63d
00000230: 9de2 57bd 6383 42bc a8a6 c43d 8e2d d93b
00000240: c4f8 77bd d3d7 c3bc 8acd e2bd c299 89bc
00000250: 4422 e3bd 24cc 45bc e299 7cbd 4e8d 40bc
00000260: d0a2 853d d09d 0c3e 73ab d33c 8659 e9bc
00000270: dccb ac3d ee39 ccbd c03d 25bd 0b2c 893d
00000280: 1f74 433d 4252 1ebd 87ae a63d e018 1c3d
00000290: 9b9c f43d 0dcb ccbd 7db2 843d a450 0c3e
000002a0: 9d38 bd3d 57b3 d83b 88b4 f13d 6027 6bbd
000002b0: f708 193e b059 b33d e749 57bd c828 c73d
000002c0: 51cf 843d d1ef 313e 56a9 0bbb 891b d2bd
000002d0: 59cb f63d 44e3 01be 5944 dcba 3222 07be
000002e0: 565f e03d 1c0f 113e 2888 403d e62d e1bd
000002f0: 213e 8dbd b105 183e 3c73 723d 83d0 003e
00000300: cf6b 10be 5c26 ed3d 3ba3 aebc a814 06be
00000310: b7d8 fa3a 10c7 2e3d 2a20 8fbb 1e96 afbd
00000320: 414c ae3b db3c 21be e9ae 103e a030 9fbd
00000330: c116 b3bd 33e7 f4bb d803 adbd 59a0 983d
00000340: eeee 943d 12fe d7bc 62af c8bd a513 443e
00000350: e9c5 393d 3348 663d 50d1 b73b b373 66bd
00000360: 6b39 18bd 4642 eebc 56d0 d63d 0c6b 2abd
00000370: 0404 00bd 940d 0f3d 89bb 43bd 8a2b 3bbd
00000380: 39d6 18bc 1366 143e 243a 3b3e 37b7 883d
00000390: e4b2 2eba d0a4 5abd 834e acbb 2a28 23be
000003a0: af56 873d aa56 313e eff3 843c 618f ddbc
000003b0: fbeb 63bd 55c5 0e3d bd0c c0bd d4c7 04bd
000003c0: 0fa2 583d 7c68 c83d bf36 76bd e032 223d
000003d0: aeb1 6fbd 43b1 9bbc c9dc b9bd bc30 0c3e
000003e0: dbed a9bd 1edb 7d3d 55f6 e0bd db6d ecbc
000003f0: 10ad 98bd 9e16 803c 4883 003d bea0 26be

rnn.weight_hh_l1 f4 [256, 64]
-0.1031873 -0.08397917 -0.108664125 -0.11489122 -0.045917604 0.07662686 -0.04157417 -0.110278994
-0.056865882 0.050385736 0.060442574 0.04290949 0.016684942 0.13673542 -0.14463003 -0.14281058
0.05088309 -0.02119342 0.0023223336 0.13244276 0.051872194 0.0056212926 -0.00804726 0.16483906
-0.0019225132 0.07671553 -0.0013305706 -0.021386554 0.014005126 0.14418374 0.048755527 -0.108897224
-0.041972212 0.11199563 -0.026428357 -0.090971544 -0.045305666 0.09536102 0.061550934 0.045420576
-0.09751999 0.0023199217 -0.0107318545 0.13601273 0.024465868 0.056346156 -0.034903727 0.09418739
0.06938623 0.06317783 0.057092607 0.09169673 0.11513447 0.0054352996 0.0491446 -0.03213944
-0.13670139 0.053097207 0.02055678 0.064289294 -0.1504783 -0.13470557 0.079326816 -0.025108214
0.018857893 -0.09094733 -0.09623379 0.005706695 -0.070814826 0.1130579 -0.10213225 0.057082053
-0.07848361 0.00885266 0.11507419 0.11213 -0.057109013 0.09221616 -0.020496614 0.09293738
0.06466583 -0.013156974 -0.1861488 0.107322544 0.045817133 -0.10526865 0.10410692 0.0423578
-0.032376267 0.091474876 0.012242555 0.028507192 -0.05882801 0.056661885 -0.016525503 0.00709304
0.011625986 -0.09851401 0.04869775 0.0049019423 0.025758551 -0.05157392 -0.015843619 -0.082200214
0.065291196 -0.0072201425 -0.00063713035 0.06780587 0.04099526 0.08041704 0.06997192 -0.06792194
0.05083144 -0.10552875 0.11723998 -0.022037981 0.18117878 -0.118129216 0.08919327 -0.056347247
0.04027589 -0.030303473 -0.12791397 -0.014287352 -0.0915103 0.10895449 -0.032022223 0.030634072
-0.0742544 -0.10799261 -0.0011977017 -0.09973403 -0.055142988 -0.024214633 -0.11309689 -0.15026139
0.009493499 0.071069054 0.002122349 0.06190155 0.07029856 0.053844493 0.08395427 -0.1305568
0.053520024 0.007888977 0.15588294 0.08700416 -0.0137984175 -0.010603662 -0.05033948 0.1188714
-0.08904365 -0.06652707 0.04982798 -0.07869318 0.07496165 -0.017503534 -0.017466186 0.067306995
-0.1286421 0.073110856 -0.06132959 -0.12387899 -0.028802447 0.09780006 -0.10282185 0.014068423
-0.06201133 0.0027747094 0.090296894 -0.04028817 0.17433928 -0.0031923733 0.09807358 0.11060511
0.11467526 0.07871652 -0.025060544 0.024398578 0.05984806 -0.08315507 0.056081202 0.051277503
0.045737274 -0.09888054 -0.11463997 0.10383836 0.06827005 -0.07209627 0.0436259 0.06604782
0.07627655 -0.05383834 0.01008713 0.009710079 0.036606073 -0.11406278 0.10005431 0.13454388
-0.08105654 -0.059811536 0.0920204 -0.09943271 0.07299574 -0.13455096 -0.057152998 0.07815331
-0.057999082 -0.04737235 0.15205611 0.005134956 -0.1168959 0.00054881367 -0.06316172 -0.058369264
-0.03323388 -0.13181852 -0.025885284 0.11804765 0.11747806 -0.11036775 -0.060207028 0.067242116
-0.080525234 -0.054403868 0.08468335 0.039557446 -0.11927131 -0.09567331 -0.09024981 -0.09975359
0.033704724 0.051978134 0.011710132 0.10617041 -0.0545497 -0.11976292 -0.08997631 -0.076318555
-0.094618216 -0.0996156 -0.1103955 -0.014962625 -0.022071796 0.02087034 0.029717563 -0.047277756
-0.021489767 -0.055654384 0.110054396 -0.025775021 -0.011006414 0.1241805 0.08634494 0.0008738834
00000000: dd53 d3bd 45fd abbd 4c8b debd 174c ebbd
00000010: 1914 3cbd 8bee 9c3d ad49 2abd f4d9 e1bd
00000020: 33ec 68bd 4661 4e3d a292 773d ddc1 2f3d
00000030: dcae 883c 5f04 0c3e e519 14be f03c 12be
00000040: c96a 503d d39d adbc 4b32 183b 139f 073e
00000050: f077 543d d232 b83b a8d8 03bc 92cb 283e
00000060: d7fc fbba 081d 9d3d 8a66 aeba db32 afbc
00000070: c275 653c e7a4 133e e0b3 473d 8205 dfbd
00000080: 0eeb 2bbd f75d e53d 4880 d8bc 4a4f babd
00000090: 6f92 39bd a34c c33d d51c 7c3d ed0a 3a3d
000000a0: 8fb8 c7bd d409 183b a9d4 2fbc ec46 0b3e
000000b0: a56c c83c 3acb 663d 36f7 0ebd 51e5 c03d
000000c0: 5e1a 8e3d 6163 813d f0d9 693d 7fcb bb3d
000000d0: 9fcb eb3d 991a b23b d94b 493d a5a4 03bd
000000e0: 73fb 0bbe 757c 593d b166 a83c 1baa 833d
000000f0: fc16 1abe 42f0 09be 1976 a23d beaf cdbc
00000100: de7b 9a3c 9842 babd 3916 c5bd 3aff ba3b
00000110: 5d07 91bd e68a e73d b72a d1bd dfce 693d
00000120: 04bc a0bd bf0a 113c 04ac eb3d 6aa4 e53d
00000130: 24eb 69bd d3db bc3d 84e8 a7bc f455 be3d
00000140: 856f 843d 5990 57bc cb9d 3ebe eccb db3d
00000150: bfaa 3b3d 1797 d7bd 0236 d53d 5f7f 2d3d
00000160: fa9c 04bd 2e57 bb3d ff94 483c ea87 e93c
00000170: a4f5 70bd 4b16 683d 7e60 87bc bb6c e83b
00000180: eb7a 3e3c b7c1 c9bd 4b77 473d 79a0 a03b
00000190: 9903 d33c 2d3f 53bd 7aca 81bc 9658 a8bd
000001a0: 64b7 853d f296 ecbb 1805 27ba cedd 8a3d
000001b0: a5ea 273d b0b1 a43d 704d 8f3d a81a 8bbd
000001c0: a134 503d 751f d8bd 841b f03d ff88 b4bc
000001d0: ee86 393e bbed f1bd f6aa b63d 5fcc 66bd
000001e0: 55f8 243d fd3e f8bc e1fb 02be 7f15 6abc
000001f0: c169 bbbd 8823 df3d bc29 03bd 4ef4 fa3c
00000200: b112 98bd 3b2b ddbd 33fc 9cba 5b41 ccbd
00000210: 9ddd 61bd c45d c6bc 589f e7bd 1fde 19be
00000220: 9f8a 1b3c a78c 913d 1c17 0b3b 7b8c 7d3d
00000230: b1f8 8f3d 0b8c 5c3d 37f0 ab3d afb0 05be
00000240: d037 5b3d c540 013c c79f 1f3e 3d2f b23d
00000250: c212 62bc fbba 2dbc c530 4ebd d972 f33d
00000260: 845c b6bd 583f 88bd 6d18 4c3d e429 a1bd
00000270: 7e85 993d 9263 8fbc 3f15 8fbc 40d8 893d
00000280: c1ba 03be 25bb 953d bc34 7bbd 45b4 fdbd
00000290: 1cf3 ebbc 664b c83d 4394 d2bd 3e7f 663c
000002a0: 98ff 7dbd e6d7 353b 94ed b83d 3505 25bd
000002b0: ff85 323e 2337 51bb cdda c83d ef84 e23d
000002c0: ddda ea3d 2036 a13d c54b cdbc 87df c73c
000002d0: 3d23 753d 354d aabd 67b5 653d 5c08 523d
000002e0: 0257 3b3d e181 cabd 5cc8 eabd 35a9 d43d
000002f0: 2bd1 8b3d 36a7 93bd 12b1 323d 1444 873d
00000300: e136 9c3d 9785 5cbd 7d44 253c 0617 1f3c
00000310: 40f0 153d bf99 e9bd 46e9 cc3d dfc5 093e
00000320: f900 a6bd f1fc 74bd 3175 bc3d 60a3 cbbd
00000330: ca7e 953d bac7 09be 4319 6abd d80e a03d
00000340: 7290 6dbd 8209 42bd 99b4 1b3e 2243 a83b
00000350: 1e67 efbd 43de 0f3a ef5a 81bd 9c14 6fbd
00000360: 4020 08bd 6ffb 06be 600d d4bc f7c2 f13d
00000370: 5698 f03d 7d08 e2bd a59b 76bd 3cb6 893d
00000380: 6aea a4bd 97d6 5ebd 776e ad3d fd06 223d
00000390: 8444 f4bd 5ef0 c3bd e4d4 b8bd 9c4b ccbd
000003a0: f70d 0a3d 06e7 543d dadb 3f3c df6f d93d
000003b0: 826f 5fbd 4346 f5bd 8045 b8bd e74c 9cbd
000003c0: 32c7 c1bd 4403 ccbd 0917 e2bd cc25 75bc
000003d0: e9cf b4bc 46f8 aa3c 3f72 f33c 52a6 41bd
000003e0: 4f0b b0bc daf5 63bd 3364 e13d 2326 d3bc
000003f0: 3f54 34bc 5952 fe3d 9ed5 b03d 5215 653a

rnn.bias_ih_l1 f4 [256]
-0.09490963 -0.09123997 -0.09315105 -0.077761434 -0.06404449 0.03329944 -0.10324411 -0.073757425
0.08345921 -0.0032299366 -0.105000496 0.034033693 -0.01552276 -0.107356615 0.084180176 0.018326923
0.11402381 0.06817449 0.20119523 -0.03532853 0.022443898 -0.024612755 -0.049643803 0.13626304
0.0042007416 -0.1506716 -0.040469185 -0.02465627 -0.0838687 -0.11217573 -0.05623771 -0.09130702
0.11958994 -0.065145664 -0.08997329 0.051298853 -0.062381234 -0.008678675 0.02358094 0.063615024
-0.12377322 -0.03609367 -0.07267762 0.08432843 -0.0022308829 0.092991 -0.016026335 -0.055131637
0.0024150414 -0.051642355 -0.06858487 -0.045622386 0.026511211 0.03573746 0.002496984 -0.027462432
-0.09192507 -0.063252546 0.08013738 -0.0644658 0.015264301 -0.10398791 -0.015106552 -0.047842536
-0.07145608 0.036410514 0.02604621 0.055735514 -0.07869104 -0.116149314 0.01748361 0.077649035
-0.0349743 -0.0575649 0.021452358 -0.019938631 0.04003387 -0.08501007 -0.037371803 -0.07306363
-0.10258104 0.004614819 -0.16469178 -0.04715037 -0.03580294 0.007782868 0.05577053 -0.012093447
-0.094669774 0.013761004 -0.073561095 0.032387976 -0.049504906 -0.03543841 0.12481464 0.02312
0.022944074 -0.09522866 -0.07846302 0.070607334 0.05625277 -0.034905516 -0.17869635 0.10252277
-0.061959762 -0.020908244 -0.081495516 0.046871886 0.0032410317 0.037465528 -0.044806115 0.041891526
0.003412986 -0.11611769 0.15347782 0.120565034 -0.077323064 -0.080101095 -0.15379961 0.030674256
-0.07188185 -0.06492531 0.118230015 0.04861154 -0.100853875 0.031505685 0.09444585 0.02936282
0.10643387 0.044046152 0.090559915 0.14103955 0.03600397 0.05878226 -0.014298186 -0.05907071
-0.037097372 0.07075014 0.07420881 -0.027347108 -0.07923171 0.0061142873 0.083542526 0.01932676
0.0741379 0.10399382 0.06074779 -0.068010755 0.13210264 -0.10625441 -0.0017422037 0.00087817135
-0.012853386 0.014313328 0.1306396 0.05855304 0.13114199 -0.07309219 0.026749026 0.0072950725
-0.04570401 -0.08930165 0.007621182 0.13197576 0.09444464 0.010327489 0.036494717 0.08393575
-0.058336686 -0.07183657 -0.018028844 0.0796628 -0.05567396 -0.092325896 0.008946367 -0.10754378
-0.11862681 -0.050303694 -0.09792852 -0.10460668 0.025276052 0.11694202 -0.011279579 0.032727115
0.12505345 0.05938822 -0.016868634 -0.02240625 -0.052435115 -0.03568082 0.057574354 -0.06837294
-0.02221135 0.021613229 0.079124324 0.054077927 -0.050026737 0.0371369 -0.07882693 0.041206356
-0.07870247 -0.10568378 0.09543932 0.0043778634 -0.027462652 -0.12015963 0.10901615 0.0636427
-0.049001664 0.0006950859 0.06105996 -0.035309076 -0.023421174 -0.016618993 0.0053609954 0.13856232
0.05544472 -0.15354535 -0.02192131 -0.0051684133 -0.07846743 -0.09560929 -0.011220453 0.027387815
0.114303894 -0.022057641 -0.14888346 -0.0026603967 -0.04681076 -0.0008696281 0.06990071 0.11668578
-0.07163434 -0.096554935 0.08823139 0.06590672 0.080092765 -0.036015633 -0.08947291 -0.01926185
0.0019158665 -0.10028878 0.061729472 0.02918993 -0.020137697 0.029711738 0.041334745 0.037825037
0.11122358 -0.13934027 0.04561057 0.009639391 0.10554788 -0.14126381 0.117367245 -0.02721182
00000000: fb5f c2bd 05dc babd fac5 bebd 6341 9fbd
00000010: c229 83bd fe64 083d a671 d3bd 220e 97bd
00000020: aaec aa3d 58ad 53bb 800a d7bd ea66 0b3d
00000030: 2d53 7ebc c9dd dbbd a866 ac3d 5822 963c
00000040: 5185 e93d 119f 8b3d 1f06 4e3e a6b4 10bd
00000050: 44dc b73c b0a0 c9bc 4d57 4bbd 8a88 0b3e
00000060: 60a6 893b a849 1abe 04c3 25bd f2fb c9bc
00000070: 5ac3 abbd 64bc e5bd 8359 66bd 2dff babd
00000080: 92eb f43d 176b 85bd eb43 b8bd bf1e 523d
00000090: 7783 7fbd 0031 0ebc d12c c13c 9848 823d
000000a0: d07c fdbd f5d6 13bd 01d8 94bd 62b4 ac3d
000000b0: 0134 12bb 1172 be3d a949 83bc b6d1 61bd
000000c0: ac45 1e3b ef86 53bd 3976 8cbd 8ade 3abd
000000d0: 0a2e d93c 7161 123d 71a4 233b e5f8 e0bc
000000e0: 3643 bcbd 8d8a 81bd 111f a43d a506 84bd
000000f0: 1e17 7a3c 9df7 d4bd 7981 77bc 89f6 43bd
00000100: 9157 92bd 3123 153d dd5e d53c ec4a 643d
00000110: c528 a1bd b1df edbd ca39 8f3c 7506 9f3d
00000120: 3641 0fbd 2cc9 6bbd dbbc af3c 5756 a3bc
00000130: 8efa 233d c219 aebd 2d13 19bd 62a2 95bd
00000140: 0216 d2bd e837 973b f6a4 28be bf20 41bd
00000150: 1ba6 12bd 6e07 ff3b a46f 643d 9823 46bc
00000160: 3ae2 c1bd d675 613c 33a7 96bd 41a9 043d
00000170: a8c5 4abd de27 11bd d19e ff3d 2766 bd3c
00000180: 36f5 bb3c 3e07 c3bd 38b1 a0bd 949a 903d
00000190: 4e69 663d 16f9 0ebd 2dfc 36be 75f7 d13d
000001a0: 85c9 7dbd c447 abbc 1fe7 a6bd bcfc 3f3d
000001b0: 7d67 543b 7475 193d 9e86 37bd 7396 2b3d
000001c0: 67ac 5f3b 1dcf edbd 4a29 1d3e cdea f63d
000001d0: 8e5b 9ebd 0b0c a4bd a57d 1dbe 9448 fb3c
000001e0: cb36 93bd 90f7 84bd 9422 f23d e51c 473d
000001f0: 7a8c cebd 1b0c 013d d36c c13d 4c8a f03c
00000200: 00fa d93d bd69 343d 7a77 b93d ac6c 103e
00000210: e678 133d abc5 703d f042 6abc 21f4 71bd
00000220: 6af3 17bd 73e5 903d cafa 973d 0b07 e0bc
00000230: 3c44 a2bd 5c5a c83b 5818 ab3d 2753 9e3c
00000240: 9cd5 973d b6fa d43d add2 783d 3949 8bbd
00000250: ea45 073e ea9b d9bd a85a e4ba 1535 663a
00000260: 0297 52bc 7382 6a3c 63c6 053e 50d5 6f3d
00000270: 164a 063e 5cb1 95bd c620 db3c 810b ef3b
00000280: 2134 3bbd c9e3 b6bd 1cbb f93b a724 073e
00000290: 316c c13d a134 293c 7c7b 153d 82e6 ab3d
000002a0: 73f2 6ebd 0d1f 93bd 3ab1 93bc 4026 a33d
000002b0: 610a 64bd 5c15 bdbd c893 123c ea3f dcbd
000002c0: 9df2 f2bd 3f0b 4ebd bf8e c8bd 073c d6bd
000002d0: b90f cf3c 4c7f ef3d fccd 38bc de0c 063d
000002e0: 030e 003e 1041 733d 1730 8abc 508d b7bc
000002f0: 34c6 56bd 0d26 12bd 16d3 6b3d 1d07 8cbd
00000300: 94f4 b5bc 3a0e b13c ef0b a23d d180 5d3d
00000310: d6e8 4cbd dd1c 183d 0370 a1bd ffc7 283d
00000320: c32e a1bd bd70 d8bd b175 c33d 2e74 8f3b
00000330: 5bf9 e0bc 4116 f6bd dc43 df3d 1b57 823d
00000340: f8b5 48bd 6d36 363a 021a 7a3d 40a0 10bd
00000350: c3dd bfbc 8e24 88bc 4aab af3b 48e3 0d3e
00000360: 011a 633d fe3a 1dbe 5294 b3bc cb5b a9bb
00000370: 88b3 a0bd cece c3bd fed5 37bc 695c e03c
00000380: 2918 ea3d 3ab2 b4bc e874 18be 0d5a 2ebb
00000390: a4bc 3fbd c1f7 63ba 1a28 8f3d f4f8 ee3d
000003a0: 06b5 92bd 98be c5bd a9b2 b43d 1afa 863d
000003b0: ad07 a43d 2185 13bd 933d b7bd 07cb 9dbc
000003c0: d01d fb3a 3464 cdbd 0bd8 7c3d b81f ef3c
000003d0: d0f7 a4bc 0866 f33c 9f4e 293d 6dee 1a3d
000003e0: 30c9 e33d 37af 0ebe 26d2 3a3d 89ee 1d3c
000003f0: 7d29 d83d 76a7 10be 3d5e f03d 53eb debc
