darts_logs/LSTM_emissions/checkpoints/last-epoch=16.ckpt (torch, 664247 bytes, 31 tensors)

rnn.weight_ih_l0 f4 [256, 7]
0	0xbe23c53c	-0.15993208
1	0x3c82af0f	0.015952615
2	0xbdd61802	-0.10453798
3	0xbdb85268	-0.09000093
4	0x3e0faaf8	0.14030063
5	0x3e1fbf45	0.15600307
6	0xbd8eae6f	-0.06966864
7	0x3eb2fb70	0.34957457
8	0x3e0e8cdd	0.13920923
9	0x3e62da51	0.22153594
10	0x3ec4ca3c	0.38435543
11	0x3d90bafd	0.07066915
12	0x3e7182f9	0.23585118
13	0xbdc5f355	-0.096655525
14	0x3df38ba6	0.1189187
15	0x3d8738ac	0.06602606
16	0x3d23a284	0.03994991
17	0xbd6e9049	-0.05824307
18	0xbd27631b	-0.040866
19	0xbd330720	-0.043707967
20	0xbe225ef7	-0.15856539
21	0xbe5b5fbf	-0.21423243
22	0x3de0842b	0.10962709
23	0x3d0f36bb	0.034964304
24	0x3d873418	0.06601733
25	0xbdb06a12	-0.08613981
26	0x3e0702c3	0.13184647
27	0xbd15fd9b	-0.03661881
28	0x3e1140ee	0.14184925
29	0x3e27e110	0.16394448
30	0x3d9a1d0f	0.07525074
31	0x3e586706	0.2113305
32	0xbb79ad66	-0.0038097738
33	0xbe40fbce	-0.18846056
34	0x3dbbe032	0.09173621
35	0x3c9835ae	0.018580284
36	0xbea0a5eb	-0.31376585
37	0x3c8011b3	0.01563344
38	0xbc4282f5	-0.011872043
39	0xbc727b09	-0.014799842
40	0xbdbfe984	-0.093707114
41	0xbe5f8781	-0.21829034
42	0x3dca72da	0.098851874
43	0x3de2d703	0.110761665
44	0xbe142664	-0.1446777
45	0xbd87e12b	-0.06634744
46	0x3dd4cb1f	0.10390305
47	0x3d76a528	0.0602161
48	0xbdb5016d	-0.088381626
49	0x3e1c548d	0.15266629
50	0x3dabe2f3	0.083928965
51	0x3e01b06f	0.1266496
52	0x3e2145ab	0.15749232
53	0x3e69d2ef	0.22834371
54	0x3bc2a2d2	0.00593982
55	0x3dbddd9a	0.09270783
56	0xbccdc173	-0.025116658
57	0xbe27202d	-0.16320868
58	0x3e113089	0.14178671
59	0xbd701336	-0.05861207
60	0x3e30ee04	0.17278296
61	0xbcacfdb5	-0.02111707
62	0x3e007d1f	0.1254773
63	0x3e49abd9	0.19694461
64	0xbe5787a4	-0.21047837
65	0x3c4eadc6	0.012614673
66	0xbd81f05b	-0.06344672
67	0x3e26fa50	0.16306424
68	0x3d8279d6	0.063708946
69	0xbec95002	-0.39318854
70	0x3e3f36e9	0.1867329
71	0xbd6b5e8b	-0.05746321
72	0xbc696279	-0.014244669
73	0xbe6bc5eb	-0.23024718
74	0x3de3b9fe	0.111194596
75	0x3daabef7	0.08337205
76	0xbe5e16fa	-0.21688452
77	0x3e19008a	0.14941612
78	0x3e671053	0.22564821
79	0x3eed6d25	0.46372333
80	0x3e9ae05f	0.30249307
81	0x3eb95efe	0.36205286
82	0x3e9a8206	0.30177325
83	0x3ec9d2bd	0.39418593
84	0x3e547bae	0.20750305
85	0xbd05fbd7	-0.032710876
86	0xbe23a1a7	-0.15979634
87	0x3b5cf446	0.0033714934
88	0x3e153eaa	0.14574686
89	0x3e37f312	0.17963818
90	0xbd654006	-0.05596926
91	0xbe03017d	-0.12793536
92	0x3d5196e9	0.05116931
93	0x3e8dbe60	0.27684307
94	0x3e033640	0.12813663
95	0xbd9b6ff0	-0.0758971
96	0xbd92562f	-0.071453445
97	0x3de38d82	0.11110975
98	0x3de089ea	0.10963805
99	0xbce12ace	-0.027486231
100	0x3d83115b	0.06399795
101	0xbd7bb12f	-0.061448272
102	0xbd26e068	-0.040741354
103	0xbc91251f	-0.017717896
104	0xbae44ce4	-0.0017417935
105	0x3d4c9e39	0.04995558
106	0xbc801e3f	-0.015639422
107	0x3e3fc61b	0.18727915
108	0x3d477f53	0.04870541
109	0xbe398a69	-0.18119206
110	0xbd0825a3	-0.03323902
111	0xbbf1ae7c	-0.0073755365
112	0x3e70483f	0.2346506
113	0x3e287e14	0.16454345
114	0x3e3cfcb5	0.18455775
115	0x3ea61e86	0.32445163
116	0xbcbcbb59	-0.023038553
117	0x3ec0b5a3	0.37638578
118	0xbd58bc8d	-0.05291419
119	0x3e3a7f56	0.18212637
120	0x3ea3e17f	0.32007977
121	0x3d8d6520	0.06904054
122	0x3e25dd34	0.16197664
123	0x3e1421f9	0.14466085
124	0xbd31dff3	-0.043426465
125	0xbc48be54	-0.012252409
126	0x3e0d923a	0.13825312
127	0xbe6a122a	-0.22858492
128	0xbe01e554	-0.12685138
129	0xbe5f3fc8	-0.21801674
130	0xbd366916	-0.04453381
131	0x3df1e789	0.1181174
132	0xbe483ecb	-0.19555204
133	0x3e4433e8	0.19160426
134	0x3e3ffd7b	0.18749039
135	0x3df9f848	0.12205559
136	0xbced3bbd	-0.02895915
137	0x3e9fc09b	0.31201634
138	0x3b6f06b9	0.0036472513
139	0x3e2f1529	0.17097916
140	0xbe131c1b	-0.1436619
141	0x3deea7c1	0.1165309
142	0x3cad41fb	0.021149626
143	0x3d07996d	0.033105303
144	0x3bac2234	0.005253101
145	0xbd4c0077	-0.04980513
146	0x3d96f778	0.0737142
147	0x3e932699	0.28740385
148	0xbe4658f8	-0.19369876
149	0x3dafc7d2	0.085830346
150	0x3dfee33b	0.124456845
151	0x3d545144	0.051835313
152	0xbe050d74	-0.12993413
153	0x3ea57ef9	0.32323435
154	0x3e958a40	0.2920704
155	0xbf1523fa	-0.5825802
156	0xbd46741a	-0.048450567
157	0x3ad6c038	0.001638419
158	0x3d7abd53	0.06121571
159	0x3e32a713	0.17446546
160	0xbe409a1a	-0.18808785
161	0x3d17668f	0.036963042
162	0x3e1b183f	0.15145968
163	0xbda99e8d	-0.08282194
164	0xbac8c69b	-0.0015317978
165	0x3e5cc2f6	0.21558747
166	0x3e0e2d53	0.13884477
167	0xbe8049f7	-0.2505643
168	0x3e3214ad	0.173907
169	0x3c70b971	0.01469265
170	0xbd99757f	-0.07493114
171	0xbd436f39	-0.047713492
172	0xbbab601f	-0.0052299644
173	0xbcaf3760	-0.02138871
174	0xbd7eca22	-0.062204488
175	0xbddbad01	-0.10726357
176	0x3dc8f69e	0.098126635
177	0xbe275300	-0.16340256
178	0xbe105891	-0.14096285
179	0xbde6395f	-0.112414114
180	0x3d27c9cb	0.04096393
181	0xbe5d27c1	-0.21597196
182	0xbbe2680c	-0.006909376
183	0x3d84fd00	0.064935684
184	0x3df327dd	0.11872838
185	0x3e046112	0.12927654
186	0xbe041047	-0.12896834
187	0xbeaf96e6	-0.34294814
188	0xbe09eb2a	-0.13468614
189	0x3d81551c	0.063150615
190	0xbc360605	-0.011109834
191	0x3de00de2	0.10940148
192	0xbcc2b078	-0.023765787
193	0x3d88b6fb	0.06675526
194	0x3de8bc88	0.113640845
195	0x3e35a310	0.17737985
196	0x3e167710	0.14693856
197	0x3de4ba2f	0.11168324
198	0x3dc75368	0.09732705
199	0x3dd5772f	0.10423123
200	0x3ddd940c	0.10819253
201	0xbe63717e	-0.22211263
202	0x3d79d650	0.0609954
203	0x3e651330	0.223706
204	0xbe1aa705	-0.15102775
205	0x3dcc04bd	0.09961841
206	0x3e2a47b6	0.16628918
207	0x3e629ac7	0.22129355
208	0x3c2cd29a	0.010548258
209	0xbcb8042e	-0.02246293
210	0x3de5caf4	0.11220351
211	0xbe51c723	-0.20486121
212	0xbe248617	-0.16066776
213	0xbd3e7813	-0.04650123
214	0x3e87ed00	0.26548004
215	0x3e4a4e5c	0.19756454
216	0xbe450946	-0.19241819
217	0x3e783cfa	0.2424201
218	0x3ec749b8	0.3892343
219	0x3ebd70a7	0.3700001
220	0x3e987c92	0.2978254
221	0x3e8d4eb6	0.27599114
222	0x3ed242f4	0.41066706
223	0x3e02b279	0.12763394
224	0x3e2e7bb1	0.17039372
225	0x3d111c9f	0.035427686
226	0xbe160d04	-0.14653403
227	0x3d6c26dc	0.057654247
228	0x3dbd9d34	0.092585
229	0x3e9048f7	0.28180668
230	0xbdc36a5b	-0.0954177
231	0xbda52943	-0.08064511
232	0x3d7075d2	0.058706112
233	0x3dceca38	0.10097164
234	0x3e0cc70e	0.13747808
235	0xbe42e361	-0.1903205
236	0xbcf7d01a	-0.030250598
237	0x3e034484	0.12819105
238	0x3ebaf9f5	0.36518827
239	0x3e67cfc3	0.22637849
240	0x3ebf9807	0.37420675
241	0x3eacd2d3	0.33754596
242	0x3ed7475e	0.42046636
243	0x3ee7607a	0.45190793
244	0x3d36f214	0.044664457
245	0x3e89b528	0.26896024
246	0x3e623071	0.22088791
247	0x3e04d648	0.12972367
248	0x3e773195	0.24140008
249	0x3e4f992c	0.20273274
250	0x3e1dbb1f	0.15403412
251	0x3c3c98a0	0.011510998
252	0x3e698913	0.22806196
253	0xbcb8b4a3	-0.022547072
254	0xbdbd4447	-0.092415385
255	0x3d86b04b	0.06576594

rnn.weight_hh_l0 f4 [256, 64]
0	0xbdbdcb3e	-0.09267281
1	0xbea1dfaa	-0.31615955
2	0xbe9b2eef	-0.30309245
3	0xbd97934a	-0.0740114
4	0x3b9472b0	0.0045302734
5	0xbe070bd7	-0.1318811
6	0x3d6126bf	0.05496859
7	0x3e8c4cae	0.27402252
8	0xbe25a198	-0.16174924
9	0x3ea4204c	0.3205589
10	0xbedb8260	-0.42872906
11	0xbf13fc34	-0.57806706
12	0xbe8ed226	-0.27894706
13	0x3e4e5a82	0.20151713
14	0xbc1c5cc1	-0.009543599
15	0x3e880ae4	0.2657081
16	0xbe823fe5	-0.25439373
17	0x3ecd3bc7	0.4008467
18	0xbd12d7a7	-0.035850193
19	0xbecc49d4	-0.39900076
20	0x3e5e4b4b	0.2170841
21	0xbe50dc45	-0.20396526
22	0xbd8296b2	-0.06376399
23	0x3e277fd1	0.16357352
24	0xbde38132	-0.111086264
25	0x3dff4a63	0.1246536
26	0x3dea98e6	0.11454944
27	0x3e5ce5af	0.21571992
28	0xbe7749e5	-0.24149282
29	0x3db68a7f	0.08913135
30	0x3e70644e	0.23475763
31	0x3ed3bad4	0.41353476
32	0x3ea1cfdf	0.31603906
33	0xbe8028eb	-0.25031218
34	0x3efae6c2	0.4900418
35	0x3f08360e	0.5320748
36	0x3dfe9a83	0.124318145
37	0x3d2e1604	0.042501464
38	0xbe46cddc	-0.19414467
39	0xbcf35213	-0.029702222
40	0x3e852390	0.26003695
41	0x3eccb9e5	0.39985576
42	0x3d1d043b	0.038334113
43	0xbe2278dc	-0.15866417
44	0x3e648002	0.22314456
45	0xbe2c5bd3	-0.16831903
46	0x3f033168	0.5124726
47	0x3e205364	0.15656811
48	0x3e75d068	0.24005282
49	0xbd83a705	-0.06428341
50	0x3da50d45	0.080591716
51	0xbd187af9	-0.03722665
52	0x3e5d8b8e	0.21635267
53	0x3eaa624b	0.33278117
54	0xbe285460	-0.16438437
55	0x3ee633d0	0.44961405
56	0x3e6030e4	0.2189365
57	0xbe753620	-0.23946428
58	0x3d02dc8c	0.03194861
59	0x3e8451aa	0.25843555
60	0x3d993c88	0.074822485
61	0xbe96a9ec	-0.29426515
62	0xbeb8b1ba	-0.36073095
63	0xbf001562	-0.5003263
64	0x3d91798f	0.071032636
65	0xbdae4b7b	-0.085104905
66	0xbd2ec1ce	-0.042665295
67	0xbe1372c1	-0.14399244
68	0xbdf0c722	-0.117567316
69	0x3de07f15	0.10961739
70	0x3d51a38e	0.05118137
71	0xbdac797e	-0.0842161
72	0x3d5c297c	0.0537505
73	0xbe52a38c	-0.205702
74	0xbdc12ae0	-0.09432006
75	0x3df302ea	0.1186579
76	0x3e7547dd	0.23953195
77	0x3dadd085	0.084870376
78	0x3e14a42a	0.14515749
79	0xbcf2d0dd	-0.02964061
80	0xbe4b9362	-0.19880441
81	0xbd6591ae	-0.056047134
82	0xbe09de6c	-0.13463753
83	0x3e13bb3f	0.14426897
84	0xbe0317b1	-0.12802006
85	0x3ef0859b	0.46976933
86	0x3e35e6f4	0.17763883
87	0x39edf88c	0.00045389344
88	0x3e075ac8	0.13218224
89	0x3e27c42c	0.16383427
90	0x3e922c39	0.28549364
91	0xbe670c22	-0.22563222
92	0x3e1e4ad5	0.15458234
93	0xbe0df78c	-0.13863963
94	0xbe250528	-0.16115248
95	0x3e3f5e28	0.18688262
96	0xbad073e2	-0.0015903676
97	0xbc80a7e1	-0.01570505
98	0x3dfdf834	0.124008566
99	0xbe06f2b6	-0.13178524
100	0xbe332bec	-0.17497224
101	0xbd281df8	-0.041044205
102	0x3e2298d3	0.1587861
103	0x3e6f039b	0.23341219
104	0xbe043b5e	-0.12913272
105	0xbe0cf053	-0.13763551
106	0x3dd434ca	0.10361631
107	0x3ca2b010	0.019859344
108	0xbe8181c9	-0.2529433
109	0x3e933870	0.28753996
110	0x3e95cc07	0.29257223
111	0x3d5bf612	0.053701468
112	0xbe5f3ef5	-0.2180136
113	0x3c2b182b	0.010442774
114	0x3e691e79	0.2276553
115	0x3e375cf4	0.17906553
116	0xbe1bf902	-0.15231708
117	0xbd963e3d	-0.0733609
118	0x3dae4793	0.085097454
119	0x3e2ae5ca	0.1668922
120	0x3e29a3f1	0.16566445
121	0x3de2601e	0.11053489
122	0x3c2d3519	0.0105717415
123	0xbc288f30	-0.010288045
124	0xbe2b9d46	-0.16759214
125	0x3e5c79da	0.21530858
126	0xbcc6c62b	-0.024264416
127	0x3e1481a0	0.14502573
128	0x3e0bb4f8	0.13643253
129	0x3d7e36a3	0.062063824
130	0xbdedd1c2	-0.11612274
131	0x3d92c5b8	0.07166618
132	0xbe6456bc	-0.22298712
133	0xbd55eeae	-0.052229576
134	0x3bb8e412	0.0056424225
135	0x3d8fe944	0.07026914
136	0xbde6bbc3	-0.112662815
137	0x3d9a877e	0.07545374
138	0xbcdcb474	-0.026941516
139	0xbde4c96c	-0.11171231
140	0xbd915e7a	-0.07098098
141	0x3e465c02	0.19371036
142	0xbe01f8e5	-0.12692602
143	0x3e88e53b	0.2673739
144	0x3df70380	0.120612144
145	0x3e0aca9c	0.13553852
146	0xbd040a7e	-0.03223657
147	0xbd6726ff	-0.056433674
148	0x3d8192fb	0.063268624
149	0xbca5696d	-0.020191872
150	0xbe01e512	-0.1268504
151	0xbd6ad6dc	-0.057333812
152	0xbdc6b8f2	-0.09703244
153	0x3cd025aa	0.025408585
154	0xbcadc4da	-0.02121203
155	0x3e8b4b0c	0.27205694
156	0xbdcc0992	-0.09962763
157	0xbc8890db	-0.016670635
158	0x3d2e0d22	0.042492993
159	0xbe26b514	-0.16280013
160	0x3e52e5fd	0.20595546
161	0x3eb4b01c	0.3529061
162	0xbda84777	-0.08216756
163	0x3e338753	0.17532091
164	0x3d9ce6a5	0.076611795
165	0x3d0ade4e	0.033903413
166	0x3d142823	0.03617109
167	0xbe5d0121	-0.21582462
168	0x3e8ba56b	0.2727464
169	0x3e296c04	0.16545111
170	0x3dc974ff	0.09836768
171	0xbdba5f67	-0.09100228
172	0x3e185e1c	0.1487965
173	0xbe886c5d	-0.26645175
174	0xbe3ea582	-0.18617824
175	0xbdcb9ffa	-0.099426225
176	0x3e82f3b4	0.25576556
177	0xbe0693c7	-0.1314231
178	0x3d1c97ac	0.038230583
179	0x3d3ed442	0.046589144
180	0x3d3650ab	0.044510525
181	0x3e1b9d1a	0.15196648
182	0x3c855164	0.016274162
183	0xbe7801e8	-0.24219477
184	0xbbc872ba	-0.006117192
185	0xbd0e7ee3	-0.034788977
186	0xbc65c234	-0.014023352
187	0xbd8d9898	-0.069138706
188	0xbd159f3a	-0.036528803
189	0xbd8da245	-0.06915716
190	0xbd9da589	-0.07697589
191	0xbca61d39	-0.020277606
192	0xbe071237	-0.13190542
193	0xbe81b0ee	-0.253303
194	0xbee82abc	-0.45345104
195	0xbe7cb0d2	-0.24676827
196	0x3d69a93b	0.057046156
197	0xbb3c72d8	-0.0028754976
198	0xbdae2664	-0.08503416
199	0x3eb186dc	0.34673202
200	0xbe41e954	-0.18936664
201	0x3e7ec083	0.24878125
202	0xbef656b3	-0.4811302
203	0xbec25fe0	-0.37963772
204	0xbe599e9d	-0.21251912
205	0x3e53b85e	0.20675799
206	0xbd78993b	-0.060693007
207	0x3ddbae6f	0.1072663
208	0xbf0bb5c7	-0.54574245
209	0x3eccf662	0.40031725
210	0x3e78f57f	0.243124
211	0xbecf2d4d	-0.4046425
212	0xbc032ec0	-0.008006752
213	0xbbcc9e3e	-0.00624445
214	0x3e13cbb8	0.14433181
215	0x3ef38c23	0.47567853
216	0xbec7b999	-0.39008787
217	0x3e8819a2	0.26582056
218	0x3e83a9f5	0.25715604
219	0x3e0353e9	0.12824978
220	0xbe5f10cb	-0.2178375
221	0x3d7835ea	0.06059829
222	0x3e26619d	0.16248174
223	0x3e79bd40	0.243886
224	0x3ea68974	0.32526743
225	0xbea4a704	-0.32158673
226	0x3ee68ac9	0.4502776
227	0x3ed9f9bf	0.42573354
228	0x3e978200	0.2959137
229	0x3e217dec	0.15770692
230	0xbe5326ea	-0.20620313
231	0xbcc42d34	-0.023947336
232	0x3e83196b	0.2560533
233	0x3e8f3734	0.27971804
234	0xbd413170	-0.047166288
235	0xbe09c372	-0.13453463
236	0x3d4b6596	0.049657427
237	0x3e28e5a4	0.16493851
238	0x3f0d9113	0.5529949
239	0x3d846ab8	0.064656675
240	0x3e0fd900	0.14047623
241	0xbe270375	-0.16309913
242	0xbb9b79db	-0.004744751
243	0xbdc94018	-0.09826678
244	0x3e10b7f5	0.14132674
245	0x3e6d8b6c	0.23197716
246	0xbdadf590	-0.08494103
247	0x3ef4eed7	0.4783847
248	0x3ea1534e	0.3150887
249	0x3d88f26b	0.066868626
250	0x3ed7227e	0.42018503
251	0x3e80badf	0.2514257
252	0x3db9a693	0.09064975
253	0xbeb5a44d	-0.35476914
254	0xbf0b42e5	-0.5439895
255	0xbed99f23	-0.42504224

rnn.bias_ih_l0 f4 [256]
0	0x3d00ecef	0.031475957
1	0x3dc612f7	0.09671586
2	0xbd032d92	-0.03202588
3	0x3e1b4357	0.15162407
4	0x3dc9f6d1	0.098615296
5	0xbceef2ce	-0.029168513
6	0x3da299a0	0.07939458
7	0x3dc7c239	0.09753842
8	0x3e128013	0.14306669
9	0xbc5bb7ad	-0.013410491
10	0x3d964171	0.07336701
11	0x3eb458e7	0.35224077
12	0x3e053d33	0.13011627
13	0x3dfa4a37	0.122211866
14	0x3d9272d0	0.07150805
15	0x3d300a4b	0.042978566
16	0x3e8c1aae	0.27364105
17	0x3e03d117	0.1287273
18	0x3d86bb22	0.065786615
19	0x3d268de2	0.040662654
20	0x3df81a48	0.12114388
21	0x3e338790	0.17532182
22	0x3d0012cc	0.031267926
23	0xbd98a65f	-0.07453608
24	0xbe19ff52	-0.15038803
25	0xbd8a1272	-0.067417994
26	0xbd883c05	-0.06652073
27	0x3d371cea	0.04470531
28	0x3c0a0793	0.008424657
29	0x3dd602e1	0.10449768
30	0x3e0862c5	0.13318928
31	0x3e56742f	0.20942758
32	0xbd4c77ce	-0.049918942
33	0x3d6ea5f9	0.058263753
34	0x3ed83910	0.42231035
35	0x3d6ceba4	0.057841912
36	0x3e00d6dc	0.12581962
37	0xbc52544e	-0.012837483
38	0x3e0074ac	0.12544507
39	0xbda53e46	-0.08068518
40	0x3da8b60d	0.082378484
41	0x3e3a5b2f	0.18198846
42	0xbc45c990	-0.012071982
43	0x3dd5b7b5	0.1043543
44	0x3d96c088	0.07360941
45	0xbc4c9482	-0.012486579
46	0x3f1ab9aa	0.6043955
47	0xbde76380	-0.11298275
48	0xbdbebe6b	-0.09313663
49	0xbdf90353	-0.12158837
50	0xbdba2e45	-0.090908565
51	0xbd4ab244	-0.049486414
52	0x3d3ed8c3	0.04659344
53	0x3e5cdef9	0.21569432
54	0xbccba745	-0.024860034
55	0x3e97770f	0.29583022
56	0x3e0b0258	0.13575113
57	0xbdff9ad2	-0.124807015
58	0xbaaaca72	-0.0013030304
59	0x3ea307d2	0.31841904
60	0x3dc214b4	0.09476605
61	0x3dd29968	0.10283166
62	0x3de62a5a	0.11238547
63	0x3dbe1f83	0.09283354
64	0x3da5db14	0.080984265
65	0xbe8531b9	-0.26014498
66	0x3db44aed	0.088033535
67	0x3e6b985b	0.23007338
68	0x3dd2638c	0.10272893
69	0x3d66e0bb	0.056366663
70	0x3d9a17dc	0.07524082
71	0xbdf74e9c	-0.120755404
72	0xbe207645	-0.15670116
73	0xbd7c94e9	-0.06166545
74	0xbcb9a937	-0.022663696
75	0xbe79e331	-0.24403073
76	0x3cb56a45	0.0221454
77	0x3cd5e42f	0.026109783
78	0x3de1942c	0.1101459
79	0xbdaa5515	-0.08317009
80	0xbe3f7842	-0.18698218
81	0xbcfef2a7	-0.031121565
82	0xbd9de1b6	-0.077090666
83	0xbd58a0ac	-0.052887604
84	0xbe09dea0	-0.13463831
85	0x3ca92df6	0.020651799
86	0x3cee5faa	0.02909835
87	0xbbf9dc98	-0.007625174
88	0x3b976029	0.0046196175
89	0x3d7b9c70	0.061428487
90	0xbd8d17b5	-0.068892874
91	0x3ddefae2	0.10887696
92	0xbdaf5f48	-0.08563095
93	0xbcab6278	-0.020920977
94	0xbdab182c	-0.0835422
95	0xbe47fb1b	-0.19529383
96	0xbd2872bf	-0.041125055
97	0xbb5a1873	-0.0033278733
98	0xbd87908a	-0.066193655
99	0xbdd58dac	-0.104274124
100	0xbd95d9c7	-0.07316928
101	0xbd377c56	-0.04479631
102	0x3d49bd0c	0.049252555
103	0xbdb460a0	-0.08807492
104	0x3c4517e9	0.012029626
105	0xbe157089	-0.1459371
106	0xbc804cc3	-0.015661603
107	0xbda667c6	-0.08125262
108	0xb9419c86	-0.00018464224
109	0x3e224e39	0.15850152
110	0xbebd6e50	-0.36998224
111	0xbe27656d	-0.16347285
112	0xbdb1c6d4	-0.086805016
113	0x3d75b166	0.059983633
114	0xbcb64068	-0.022247508
115	0xbe05ae36	-0.13054737
116	0xbe1b45f0	-0.15163398
117	0xbe274ea0	-0.16338587
118	0xbe4097ce	-0.18807909
119	0xbe6ab58b	-0.22920816
120	0x3e1680a2	0.14697507
121	0xbdd410c8	-0.10354763
122	0xbdde6a05	-0.10860065
123	0x3d2e2c6c	0.042522833
124	0xbd885806	-0.06657414
125	0x3d725fae	0.05917328
126	0x3d99562e	0.074871406
127	0xbccf84a5	-0.025331805
128	0xbd5ce0b8	-0.053925246
129	0x3d9b4f0f	0.075834386
130	0x3d401f27	0.04690471
131	0xbd77f18c	-0.06053309
132	0x3d600248	0.054689676
133	0x3ce30e5c	0.027716808
134	0x3d224018	0.039611906
135	0xbd6251f5	-0.05525394
136	0xbd57cd82	-0.052686222
137	0x3d843518	0.06455439
138	0x3d875cb5	0.06609479
139	0xbcea9073	-0.028633332
140	0xbc7e02b1	-0.015503571
141	0x3caaf241	0.020867469
142	0x3dc337b3	0.09532108
143	0x3dac8792	0.084242955
144	0xbd1b017e	-0.03784322
145	0x3cc06719	0.02348666
146	0xbd7d40bf	-0.061829325
147	0xbd96f005	-0.07369999
148	0x3d3e8adb	0.04651914
149	0xbda35dba	-0.07976861
150	0xbca44b65	-0.020055482
151	0x3ca08b2a	0.019597609
152	0x3ca842b0	0.020539612
153	0x3d3dd2da	0.04634366
154	0xbcd0f08b	-0.025505325
155	0x3db6d842	0.08927967
156	0x3d04d21e	0.032426946
157	0x3d4d288e	0.050087504
158	0x3c001021	0.007816345
159	0xbcb58e49	-0.022162573
160	0x3d76f514	0.06029232
161	0x3d3e9ca4	0.046536103
162	0xbdbaf597	-0.09128874
163	0x3dd1ab45	0.10237745
164	0xbd736e75	-0.059431512
165	0xbc7bdb6f	-0.015372141
166	0xbc189b84	-0.009314422
167	0xbdf09f71	-0.11749161
168	0xbda4edc8	-0.08053166
169	0x3d1b9d3c	0.037991747
170	0x3d6729ba	0.056436278
171	0xbd3e95b2	-0.04652948
172	0x3cf440bd	0.029816026
173	0xbd0ea9dc	-0.03482996
174	0x3d7cb683	0.061697494
175	0x3d3fc692	0.04682023
176	0x3d3367bc	0.0438001
177	0x3d840a4f	0.06447279
178	0xbdc1eb6e	-0.09468733
179	0x3c399eb8	0.011329345
180	0xbcb7e51c	-0.022448115
181	0xbd490fa5	-0.049087185
182	0xbd814fdf	-0.06314062
183	0xbcf74cfb	-0.030188074
184	0x3d579b75	0.05263849
185	0xbd39baa6	-0.045344017
186	0x3c76f507	0.0150730675
187	0x3df1124b	0.11771067
188	0x3dac82af	0.084233634
189	0xbd0466ad	-0.03232448
190	0x3c9451a7	0.018105341
191	0xbc263501	-0.010144473
192	0x3da58616	0.080822155
193	0x3e547745	0.20748623
194	0xbd20a330	-0.039218128
195	0x3e30acd8	0.17253435
196	0x3db9831e	0.09058212
197	0xbc4554cf	-0.012044146
198	0xbd853393	-0.065039776
199	0x3cd1020c	0.025513671
200	0x3dc47cda	0.09594126
201	0xbdc19bf1	-0.094535716
202	0x3da4d099	0.08047599
203	0x3e982073	0.29712257
204	0xbd8de761	-0.06928898
205	0x3d3ae370	0.045627058
206	0xbd4a776a	-0.04943029
207	0x3d072073	0.03298993
208	0x3e1852a5	0.14875276
209	0x3c4e539e	0.012593178
210	0xbd79ac33	-0.060955238
211	0x3d0a1c08	0.03371814
212	0xbd65c938	-0.0561001
213	0x3e6c8265	0.23096617
214	0xbd472004	-0.048614517
215	0xbd26e470	-0.0407452
216	0xbe213631	-0.15743329
217	0x3d8adcb3	0.06780376
218	0xbc958a32	-0.018254373
219	0x3e092fad	0.13397093
220	0x3de51dc5	0.11187319
221	0x3dae6a91	0.0851642
222	0x3d09437c	0.033511624
223	0x3e51640f	0.20448326
224	0x3e179faf	0.14807008
225	0x3cbf78cb	0.023373028
226	0x3e8845bd	0.26615706
227	0x3da381c6	0.07983737
228	0x3d7c35b8	0.061574668
229	0xbdac229a	-0.08405037
230	0x3df0d4ac	0.11759314
231	0x3dbdd9a2	0.09270026
232	0x3de9af81	0.11410428
233	0x3dc9c409	0.09851844
234	0xbdc35281	-0.09537221
235	0x3d9bf0a7	0.0761426
236	0x3dc03907	0.09385877
237	0x3dc3d874	0.095627695
238	0x3ef44d6f	0.47715327
239	0xbd7e2079	-0.062042687
240	0x3d930503	0.0717869
241	0xbd06d234	-0.03291531
242	0xbe017af7	-0.12644564
243	0x3d8370d3	0.06418004
244	0x3b5a3e23	0.0033301197
245	0x3e59c562	0.21266702
246	0x3d1f6506	0.038914703
247	0x3ee69c62	0.45041186
248	0x3cbb9481	0.02289796
249	0xbd73d9b4	-0.05953379
250	0xbd914c8a	-0.07094677
251	0x3e07ad3c	0.13249677
252	0x3e025632	0.12728193
253	0x3e662b83	0.22477536
254	0x3dde27ee	0.1084746
255	0x3daedc8a	0.08538158

rnn.bias_hh_l0 f4 [256]
0	0xbdbf50af	-0.09341561
1	0x3da9ffcd	0.08300743
2	0xbd7fad0e	-0.062420897
3	0x3e015f87	0.12634097
4	0x3d276397	0.04086646
5	0xbdd1b453	-0.10239472
6	0x3c79570e	0.015218509
7	0x3c959310	0.018258601
8	0x3e380fe3	0.1797481
9	0x3d62a9fc	0.05533789
10	0x3c3c4bfc	0.011492725
11	0x3f019a8f	0.5062646
12	0x3dc696b2	0.096967116
13	0x3e076c07	0.13224803
14	0x3c8860ca	0.016647715
15	0x3c5d211e	0.013496665
16	0x3e7b0467	0.24513398
17	0x3da28284	0.0793505
18	0xbd955f83	-0.07293608
19	0xbcbc1122	-0.022957388
20	0x3d5bb3cb	0.05363826
21	0x3e5024c0	0.20326519
22	0x3cad1272	0.02112696
23	0xb9cb8898	-0.00038820948
24	0xbba87a4a	-0.005141531
25	0x3c088388	0.008332141
26	0xbce02171	-0.027359696
27	0x3e132cd7	0.14372574
28	0xbd8da09e	-0.06915401
29	0x3de61fad	0.112365104
30	0x3e135d5c	0.14391083
31	0x3ece042f	0.40237567
32	0x3e014a4b	0.12625997
33	0x3c1b0cbc	0.009463485
34	0x3ea8b284	0.32948697
35	0x3dd7fbe1	0.10546089
36	0xbd5bfdae	-0.053708725
37	0xbdca6105	-0.09881786
38	0xbb7a7236	-0.0038215048
39	0xbb50ed58	-0.003187975
40	0x3d98fdd3	0.07470288
41	0x3e5a02c4	0.21290118
42	0xbe3ee8a6	-0.18643436
43	0x3e1ba02d	0.15197821
44	0x3e12140e	0.14265463
45	0xbb37f7cb	-0.002807128
46	0x3f0f045f	0.55866045
47	0xbd5441a5	-0.051820416
48	0x3dd1dc2c	0.102470726
49	0xbd9ca832	-0.07649268
50	0xbdc15fea	-0.09442122
51	0xbda18e9b	-0.07888528
52	0xbd472500	-0.04861927
53	0x3e5da052	0.21643189
54	0xbd354853	-0.044258427
55	0x3eca8afd	0.39559165
56	0x3e21d13d	0.15802474
57	0x3c86e3c5	0.01646603
58	0xbd6910e3	-0.05690087
59	0x3e489ffe	0.19592282
60	0x3dfe3f1d	0.12414382
61	0x3e7974de	0.24360988
62	0x3d2dc611	0.04242522
63	0x3e548e8f	0.20757507
64	0xbc8bcb98	-0.017064855
65	0xbdc51d91	-0.0962478
66	0xbe0af7a9	-0.13571037
67	0x3e170521	0.1474805
68	0x3d5a81d4	0.05334647
69	0x3d0bce40	0.034132242
70	0xbde13c14	-0.10997787
71	0xbe092557	-0.1339315
72	0xbd648566	-0.05579128
73	0x3c609fb5	0.013709952
74	0x3d595396	0.05305823
75	0xbe43301f	-0.19061325
76	0xbd323b24	-0.043513432
77	0x3e1113b2	0.1416767
78	0xbd02f681	-0.031973366
79	0xbd848701	-0.064710625
80	0xbdda5288	-0.10660273
81	0xbe566ca5	-0.20939882
82	0xbc2bfa41	-0.010496677
83	0x3daf52dd	0.08560727
84	0xbc320733	-0.010865974
85	0xbdb71478	-0.08939451
86	0x3d239e17	0.039945688
87	0x3e459354	0.19294482
88	0xbe03d924	-0.12875801
89	0x3770b1fa	1.4346553e-05
90	0x3d4eb548	0.050465852
91	0x3d79e7c4	0.061012045
92	0xbdcb6ae8	-0.099325
93	0xbde1933f	-0.11014413
94	0xbc455352	-0.012043791
95	0xbda8b0f6	-0.082368776
96	0x3dddc82e	0.10829197
97	0x3e013c93	0.12620763
98	0xbe0bf65b	-0.13668196
99	0xbd262eb9	-0.040571902
100	0xbdeb63e6	-0.114936635
101	0xbe269dff	-0.16271208
102	0xbe08918d	-0.13336773
103	0xbcc33b3b	-0.023831954
104	0x3c8878e5	0.01665921
105	0xbd0128f4	-0.031533197
106	0xbe4b78ba	-0.19870272
107	0xbdaab315	-0.083349384
108	0x3d8e0119	0.06933803
109	0xbd0c124f	-0.034197148
110	0xbeb45fe2	-0.35229403
111	0x3d1c6d4d	0.038190175
112	0x3b8dd356	0.0043281717
113	0x3d0404c7	0.03223112
114	0xbd8bbea7	-0.068234734
115	0xbd704fbb	-0.058669787
116	0xbd05646c	-0.032566473
117	0x3c0d532c	0.008625787
118	0xbd5de041	-0.054168943
119	0xbe924d5c	-0.28574646
120	0x3d25fa3c	0.040521845
121	0xbe4ed547	-0.20198546
122	0x3bef53ee	0.0073037064
123	0x3d4ff294	0.05076845
124	0xbd38ea39	-0.045145247
125	0x3d9cb506	0.07651715
126	0x3d9014b8	0.07035202
127	0xbb6153e9	-0.003438229
128	0xbb39eea8	-0.002837101
129	0xbbe837a6	-0.007086712
130	0x3c228fa3	0.009921941
131	0xbd601228	-0.054704815
132	0xbd8e11df	-0.069370024
133	0x3da381d0	0.07983744
134	0xbd5850e4	-0.05281152
135	0x3dac580a	0.084152296
136	0x3b91cee5	0.0044497126
137	0xbd91bbf2	-0.07115926
138	0x3db7f74f	0.08982717
139	0xbdc75586	-0.09733109
140	0x3d9c707d	0.07638643
141	0x3d044a14	0.03229721
142	0xbdb01cef	-0.08599269
143	0xbd8dc6f6	-0.069227144
144	0x3bfec194	0.007774541
145	0xbc89a3f8	-0.01680182
146	0x3d6ec3aa	0.05829207
147	0x3ca497c1	0.020091893
148	0x3db2c83c	0.08729598
149	0x3bcb3d98	0.006202411
150	0xbce7dd1e	-0.02830368
151	0x3c057b80	0.0081471205
152	0x3d870a4c	0.06593761
153	0xbd855e43	-0.065121196
154	0x3e06622d	0.13123389
155	0x3dd80448	0.105476916
156	0xbdb52152	-0.08844246
157	0xbd8e62a4	-0.06952408
158	0xbd3d6a18	-0.046243757
159	0xbb55990e	-0.0032592448
160	0x3c66b27a	0.014080638
161	0x3ce30c78	0.027715907
162	0x3c3958d5	0.011312683
163	0x3dc7f227	0.09762984
164	0xbcae3203	-0.021264082
165	0x3c4fbcd7	0.0126793
166	0x3d9d0a62	0.07667996
167	0xbcdf48e8	-0.027256444
168	0x3d7758d1	0.060387436
169	0xbd81f970	-0.063464046
170	0xbd3fe3ab	-0.04684798
171	0x3dc62bd5	0.09676329
172	0x3d2642e6	0.040591143
173	0xbdb06ab3	-0.08614101
174	0xbcd6696d	-0.026173318
175	0x3d5a2cdd	0.05326544
176	0xbd973752	-0.073835984
177	0xbe0cccc4	-0.13749987
178	0xbd0622fc	-0.032748207
179	0x3a9c39b6	0.0011919055
180	0x3b4add60	0.0030954704
181	0x3d2bc684	0.041937366
182	0xbd5530f9	-0.052048657
183	0x3d944834	0.07240334
184	0xbd7eb8f0	-0.06218809
185	0xbd1ad781	-0.037803177
186	0x3d20f720	0.039298177
187	0xbc49d373	-0.01231848
188	0x3d5f63a3	0.05453838
189	0xbdfd4f0e	-0.12368594
190	0x3d9dab58	0.07698697
191	0xbdbb71e8	-0.09152585
192	0x3d8685b0	0.065684676
193	0x3e58665c	0.21132797
194	0xbe2cfbd1	-0.16892935
195	0x3da5232b	0.080633484
196	0xbd079ec5	-0.0331104
197	0x3cc458f0	0.02396819
198	0x3c430029	0.011901894
199	0x3c7d97c3	0.015478077
200	0x3e1cd2b6	0.15314755
201	0x3dbce995	0.0922424
202	0xbcf6b6ec	-0.03011652
203	0x3ec0f908	0.37689996
204	0xbda047f7	-0.07826226
205	0x3d4e2fa0	0.050338387
206	0xbbeac7d9	-0.007164937
207	0x3e0bcc60	0.13652182
208	0x3e870127	0.26368067
209	0x3e30188c	0.17196864
210	0xbda42096	-0.08014028
211	0x3dfa20b6	0.1221327
212	0x3e09eef7	0.13470064
213	0xba685d95	-0.00088640425
214	0xbd67d7da	-0.056602336
215	0x3d503fb2	0.050841995
216	0xbd0f5fab	-0.035003345
217	0x3d415186	0.047196887
218	0xbca312dd	-0.019906456
219	0x3e41feea	0.18944898
220	0xbdba2778	-0.09089559
221	0x3cc590e2	0.024116937
222	0x3dcf03a8	0.10108119
223	0x3e74e97f	0.23917197
224	0x3e1e87aa	0.15481439
225	0x3e0c1d5d	0.13683076
226	0x3efbf447	0.49209806
227	0x3d28de0a	0.041227378
228	0xbdb6a433	-0.08918037
229	0xbd86a35c	-0.06574127
230	0xbd46a001	-0.048492435
231	0x3dce748c	0.10080823
232	0x3d393da5	0.045224804
233	0x3e46deba	0.19420901
234	0xbdd46b20	-0.10371995
235	0x3e3b5024	0.1829229
236	0x3d9f0a80	0.077656746
237	0x3e3f2245	0.18665417
238	0x3f104cb0	0.56367016
239	0xbdcb63b3	-0.099311255
240	0x3cd1746d	0.025568211
241	0x3d4bfb15	0.049799997
242	0xbd0e8416	-0.034793936
243	0xbd90eeb3	-0.07076778
244	0x3d9df44b	0.07712611
245	0x3d4783d6	0.048709713
246	0x3c42dfd8	0.011894189
247	0x3ed317d4	0.41229117
248	0xba9b3ff9	-0.0011844627
249	0xbdddcba6	-0.108298585
250	0x3dc56d40	0.096399784
251	0x3e156e32	0.14592817
252	0x3dd7e184	0.105410606
253	0x3d711be6	0.058864497
254	0xbcdd6722	-0.027026717
255	0x3d923198	0.071383655

rnn.weight_ih_l1 f4 [256, 64]
0	0x3d91c012	0.07116713
1	0xbcdd82e9	-0.027039962
2	0x3da15594	0.07877651
3	0x3c685f49	0.014182874
4	0xbdb84855	-0.08998171
5	0xbc8cc443	-0.017183429
6	0x3aca6886	0.0015442527
7	0xbdfc6168	-0.12323266
8	0x3df4c708	0.11952025
9	0xbe16a91e	-0.1471295
10	0xbc62f94f	-0.013853385
11	0x3e438df5	0.19097121
12	0x3cbe2be2	0.023214284
13	0xbe3be8a3	-0.18350463
14	0x3c1575d2	0.009122329
15	0xbe2b51de	-0.16730449
16	0x3d905c95	0.070489086
17	0x3d6af88e	0.057365946
18	0x3e3f65ff	0.18691252
19	0x3cf06e6a	0.029349525
20	0xbc0fd694	-0.008779187
21	0x3e539e3e	0.20665833
22	0xbd94f7ad	-0.07273803
23	0xbe0e1f19	-0.1387905
24	0x3db571ff	0.08859634
25	0x3dcba2c7	0.09943157
26	0xbccf0354	-0.025270142
27	0xbd6dffc2	-0.058105238
28	0x3e1966e5	0.14980657
29	0xbe09abdb	-0.13444464
30	0xbd51fc50	-0.051266015
31	0xbe2dfaf8	-0.16990268
32	0xbe01e209	-0.12683882
33	0x3bc86b78	0.006116327
34	0xbe1f9729	-0.15585007
35	0xbe242bd7	-0.16032349
36	0x3cf327cd	0.029682064
37	0xbd8c5ab6	-0.06853239
38	0xbb0d17c3	-0.0021529056
39	0xbdd1e28c	-0.102482885
40	0xbd9005bd	-0.070323445
41	0xbda98c0e	-0.082786664
42	0xbd397c86	-0.04528477
43	0x3bcf63e9	0.006329049
44	0xbe09fbb5	-0.13474925
45	0x3df702dd	0.12061093
46	0xbd7c4361	-0.061587695
47	0x3c0a53ae	0.008442802
48	0xbe05f853	-0.1308301
49	0x3da26d5f	0.07931017
50	0x3d633a9e	0.055475824
51	0x3c18a956	0.009317717
52	0x3cec8a98	0.02887468
53	0xbe0cbfbc	-0.13745016
54	0xbcb367f7	-0.02190016
55	0xbe1342a3	-0.14380889
56	0x3dcc48f6	0.09974854
57	0xbd3faa71	-0.046793405
58	0x3e178f1a	0.14800683
59	0xbd0683cb	-0.03284053
60	0x3db428f9	0.087968774
61	0xbdf9f2a1	-0.12204481
62	0x3ccec722	0.025241438
63	0xbc7cf06b	-0.0154381795
64	0xbe163766	-0.1466957
65	0x3bdff02c	0.0068340506
66	0xbe79d94c	-0.24399298
67	0xbea7b4b0	-0.3275504
68	0xbd1b87c0	-0.03797126
69	0xbd9d8ccf	-0.07692873
70	0xbdbc37d7	-0.09190338
71	0x3ea262a8	0.31715894
72	0xbe1fef42	-0.15618613
73	0x3e532439	0.20619287
74	0xbee660c1	-0.44995692
75	0xbdf64ae9	-0.12026007
76	0xbdef2055	-0.11676089
77	0x3e822bbc	0.25423992
78	0xbe0d2ae1	-0.13785888
79	0x3deaf0ef	0.11471736
80	0x3da42c94	0.08016315
81	0x3e8b498e	0.27204555
82	0x3e96625b	0.29371914
83	0xbeae24d7	-0.34012482
84	0xbe032ac7	-0.12809287
85	0xbe452135	-0.19250949
86	0x39e48beb	0.00043591796
87	0x3ebf0cc3	0.37314424
88	0xbdfa9923	-0.1223624
89	0x3de851bc	0.113437146
90	0x3d264820	0.040596128
91	0xbdd60386	-0.10449891
92	0xbe04a052	-0.12951782
93	0x3e22f97f	0.15915488
94	0x3e02778c	0.12740916
95	0xbe463319	-0.1935543
96	0x3e4daa65	0.20084532
97	0x3e347068	0.17621005
98	0xbd62f307	-0.05540755
99	0x3e748dea	0.23882261
100	0x3d802acb	0.06258162
101	0xbd0269f8	-0.03183934
102	0xbbc57c5b	-0.006026787
103	0x3cf5aac2	0.02998865
104	0x3ea0df64	0.31420434
105	0x3e5fc587	0.21852694
106	0xbdc2bf37	-0.095091276
107	0x3df4d40e	0.11954509
108	0x3dbc1348	0.09183365
109	0x3de695ac	0.112590164
110	0x3da0a2d6	0.078435585
111	0x3d1ded6b	0.038556498
112	0x3e4f7e14	0.20262939
113	0xbe1fb01f	-0.15594529
114	0xbe57ddc7	-0.21080695
115	0xbe1c81b9	-0.1528386
116	0x3e370bcd	0.17875595
117	0x3e34e491	0.17665316
118	0xbe2f58a1	-0.17123653
119	0x3ca96fdf	0.020683227
120	0x3e3d86aa	0.18508402
121	0xbe70d24a	-0.23517719
122	0x3e95b26d	0.2923769
123	0x3d37a463	0.044834506
124	0x3db10ad9	0.08644647
125	0xbe6a28e4	-0.22867161
126	0xbea13756	-0.3148753
127	0xbe8edadb	-0.27901348
128	0xbda81e89	-0.08208949
129	0x3e38dace	0.18052217
130	0xbe26d2de	-0.16291377
131	0xbdfc5cd9	-0.12322397
132	0xbe4ba222	-0.19886068
133	0xbe221918	-0.15829885
134	0xbc90a48e	-0.01765659
135	0x3d533a91	0.051569525
136	0xbc2e7b1b	-0.010649468
137	0x3db65a40	0.089039326
138	0xbd10e2aa	-0.035372414
139	0x3e68f65b	0.22750227
140	0xbd9658fb	-0.073411904
141	0x3e347226	0.17621669
142	0xbe4f3ab6	-0.2023724
143	0xbdd249a2	-0.102679506
144	0x3e8439ff	0.25825498
145	0xbcdd14a2	-0.026987378
146	0x3e1b7c83	0.15184216
147	0xbe4f0e0a	-0.20220199
148	0x3d799371	0.060931627
149	0xbe62614c	-0.22107428
150	0xbc7bcc4b	-0.015368531
151	0x3cebeb52	0.028798733
152	0x3d948f65	0.07253913
153	0xbb6a6701	-0.0035766962
154	0xbcff593f	-0.031170486
155	0x3e330142	0.17480949
156	0xbdc2ee6d	-0.09518132
157	0x3ca08e70	0.01959917
158	0xbc9a42bb	-0.018830648
159	0xbe2ac00b	-0.16674821
160	0xbd2d673c	-0.04233478
161	0x3e71ab29	0.23600449
162	0xbddf7b19	-0.10912151
163	0x3d53bd02	0.051693924
164	0x3b18ac51	0.0023296068
165	0x3bfa3145	0.007635268
166	0x3dbfff3d	0.09374855
167	0xbe355caf	-0.17711137
168	0x3e9fb79b	0.31194767
169	0x3e17ee49	0.14836992
170	0xbcd8534a	-0.026406903
171	0xbc6a3860	-0.014295667
172	0x3c2f6b57	0.010706744
173	0xbd89bd23	-0.06725528
174	0x3d99e273	0.07513895
175	0x3c3acc4b	0.011401246
176	0x3d97bdcb	0.07409247
177	0xbdab558d	-0.08365927
178	0xbe3c2578	-0.18373668
179	0xbd924fc8	-0.07144123
180	0xbd2ad445	-0.041706342
181	0x3c8ef627	0.017451359
182	0xbe5af328	-0.21381819
183	0xbde5df80	-0.1122427
184	0xbc85f0af	-0.016350118
185	0xbe289acf	-0.16465305
186	0xbdcdd521	-0.10050417
187	0xbe05e3d1	-0.13075186
188	0x3d871879	0.06596465
189	0xbdede79d	-0.11616442
190	0xbd3915ac	-0.045186684
191	0xbe04cf3d	-0.1296968
192	0xbdcc2129	-0.09967262
193	0xbd37187a	-0.044701077
194	0x3be63770	0.0070256516
195	0x3c944770	0.01810047
196	0x3c911572	0.017710421
197	0x3d7b536c	0.061358854
198	0x3d789d2a	0.06069676
199	0xbde91410	-0.1138078
200	0xbd6419f9	-0.055688832
201	0x3ca8bda9	0.02059825
202	0xba61365f	-0.0008591171
203	0xbe3a354f	-0.18184398
204	0xbcd4faeb	-0.025998553
205	0xbda0fa3f	-0.07860231
206	0x3c3c5c6b	0.011496644
207	0xbd48c166	-0.049012564
208	0x3bc4f282	0.0060103545
209	0x3b9bff8c	0.004760688
210	0xbb87d5a7	-0.0041453424
211	0xbd1730c6	-0.03691175
212	0xbdf7747b	-0.12082764
213	0x3bcf9eda	0.0063360753
214	0xbce36547	-0.027758254
215	0xbe10963c	-0.1411981
216	0xbd751450	-0.059833825
217	0xbe1d56c1	-0.15365125
218	0xbdba7356	-0.0910403
219	0x3c0efec9	0.008727738
220	0xbda9d949	-0.08293397
221	0x3d9ed48c	0.07755384
222	0x3c261c9c	0.010138657
223	0x3e0ffef0	0.14062095
224	0x3e2fb4f9	0.1715888
225	0x3e40087b	0.18753235
226	0x3d81c7a1	0.06336904
227	0x3dda9aa1	0.106740244
228	0xbdc4b1f6	-0.09604256
229	0x3dab5d4e	0.08367406
230	0xbd62e78b	-0.055396598
231	0xbdaaf814	-0.083480984
232	0xbe063d25	-0.13109262
233	0x3d8c3038	0.068451345
234	0x3cf463f1	0.029832812
235	0xbd3bff13	-0.045897555
236	0x3d396be7	0.04526892
237	0x3db5a869	0.08870012
238	0xbd3d3fa5	-0.046203274
239	0x3caf5bc4	0.021406062
240	0xba118411	-0.00055509905
241	0xbdb10e7a	-0.08645339
242	0xbdadf323	-0.0849364
243	0x3d0ed4e8	0.034871012
244	0x3cc6e3d1	0.024278553
245	0x3cf6f964	0.030148216
246	0xbd8e265d	-0.06940911
247	0x3dbb7172	0.09152497
248	0xbdabd40c	-0.08390054
249	0xbe1e2490	-0.15443635
250	0xbdd366f1	-0.10322369
251	0x3d81ebea	0.06343825
252	0x3dd99e82	0.10625936
253	0x3e7b4fd0	0.24542165
254	0x3e1b81aa	0.15186182
255	0x3e0a3b06	0.13499078

rnn.weight_hh_l1 f4 [256, 64]
0	0xbd725627	-0.059164193
1	0x3d8ca2e5	0.06867007
2	0x3db261dc	0.087100714
3	0xbe110e8c	-0.14165705
4	0x3bac3907	0.0052558216
5	0xbdc90945	-0.09816221
6	0xbdf95215	-0.12173859
7	0x3d4ef2fb	0.050524693
8	0x3d8f7cd1	0.07006229
9	0xbe0ca25f	-0.13733815
10	0x3cafa94b	0.02144303
11	0xbdee19ed	-0.11626039
12	0x3d3a06ad	0.045416523
13	0xbda3bcda	-0.07995005
14	0x3d831080	0.063996315
15	0x3c380fee	0.011234267
16	0x3c9b58d5	0.018963257
17	0x3dd4fcc3	0.10399773
18	0x3e240aee	0.16019794
19	0xbda3773a	-0.07981725
20	0xbbaaae4a	-0.005208765
21	0xbd4074c1	-0.046986345
22	0xbd201ed5	-0.039091904
23	0x3d801b53	0.06255212
24	0xbdd9fa16	-0.10643403
25	0xbd38394c	-0.044976518
26	0xbd8495b0	-0.06473863
27	0x3c387987	0.011259443
28	0x3c2fd24e	0.010731293
29	0x3d656ee5	0.05601396
30	0xbd403bf3	-0.046932172
31	0xbdd8c88a	-0.10585125
32	0xbd0f2685	-0.034948844
33	0x3bb6902a	0.005571385
34	0x3c8dbee1	0.017302932
35	0xbd48f395	-0.049060423
36	0x3d2a9bca	0.04165248
37	0xbd41d896	-0.047325693
38	0xbe1af85c	-0.15133804
39	0x3c30cf03	0.010791543
40	0x3db68ab3	0.089131735
41	0x3d834c13	0.064109944
42	0x3d00a5b6	0.031408034
43	0xbdb70857	-0.089371376
44	0xbe3466b9	-0.1761731
45	0x3bd43302	0.006475807
46	0xbda19555	-0.07889811
47	0x3dc0ebd3	0.0941998
48	0x3d818c6b	0.06325611
49	0x3d83c55e	0.06434129
50	0xbd91bd38	-0.07116169
51	0xbd9aefdf	-0.07565283
52	0xbdc7a28f	-0.097478025
53	0xbda96246	-0.08270697
54	0xbc873875	-0.016506413
55	0x3bdbf2e8	0.0067123063
56	0x3d6ee81f	0.058326837
57	0x3d4e7885	0.050407905
58	0xbdc59c57	-0.0964896
59	0xbd8382cd	-0.06421433
60	0x3db7695c	0.089556426
61	0xbcf7af1a	-0.030234862
62	0xbc2f0c89	-0.010684141
63	0x3e2b81be	0.16748711
64	0xbd87a321	-0.06622911
65	0x3e87f4f9	0.26554087
66	0x3eba0ba5	0.3633701
67	0xbead5534	-0.33854067
68	0xbe925686	-0.28581637
69	0xbea55491	-0.32291082
70	0x3cc6b5fa	0.024256695
71	0x3de9347c	0.11386964
72	0x3e24212f	0.16028284
73	0xbdee3280	-0.11630726
74	0xbd9497eb	-0.072555386
75	0xbdad7ec0	-0.08471441
76	0x3d5e55ae	0.05428093
77	0xbe33bcbe	-0.17552468
78	0xbe7a281a	-0.2442936
79	0x3d9eca73	0.07753458
80	0x3aa3e71c	0.0012504789
81	0xbe6ad481	-0.22932626
82	0x3f176f69	0.59154373
83	0x3ebfc524	0.37455094
84	0x3e16a3a2	0.14710858
85	0xbdb42439	-0.087959714
86	0x3ef42a02	0.476883
87	0xbe79555e	-0.24348971
88	0xbe6d229c	-0.23157734
89	0xbe13ffa2	-0.14452985
90	0xbe8198e0	-0.25311947
91	0xbe17d164	-0.1482597
92	0xbe040745	-0.12893398
93	0xbbd012c7	-0.0063498947
94	0xbca1b4cd	-0.019739533
95	0xbe766e70	-0.24065566
96	0x3de05e02	0.109554306
97	0x3e8271c9	0.25477436
98	0x3e201660	0.15633535
99	0xbe66cd65	-0.2253929
100	0x3e5f0e58	0.21782815
101	0x3d8d8063	0.069092534
102	0x3e254de0	0.16142988
103	0x3e49b970	0.19699645
104	0x3dae086f	0.08497702
105	0x3da25bd8	0.07927674
106	0xbe74ba11	-0.23899104
107	0xbbbf190f	-0.0058318446
108	0x3da84bb6	0.08217566
109	0xbe09eace	-0.13468477
110	0x3e7fdb46	0.2498599
111	0x3e4a2483	0.1974049
112	0x3e6e5765	0.23275526
113	0x3d141bbc	0.036159262
114	0x3e371041	0.17877294
115	0x3e5c2677	0.21499048
116	0x3e978db6	0.29600304
117	0xbda64a34	-0.08119622
118	0x3e42e326	0.19031963
119	0xbe8e0e34	-0.2774521
120	0xbecd9d7a	-0.40159208
121	0xbe398244	-0.18116099
122	0xbe3e092b	-0.18558185
123	0x3b972aa1	0.004613236
124	0xbcb13964	-0.021633811
125	0xbeb852cc	-0.3600067
126	0xbdd4a7ca	-0.10383566
127	0x3e76a7e0	0.24087477
128	0xbe3d40ea	-0.18481794
129	0xbe0a58a4	-0.13510376
130	0xbde560b0	-0.11200082
131	0x3c82d5a6	0.015971016
132	0xba52c6c7	-0.00080404844
133	0xbf066326	-0.5249504
134	0xbda0f498	-0.078591526
135	0x3da5e737	0.08100741
136	0xbd07d235	-0.033159453
137	0x3db15c63	0.086601995
138	0x3de0b64a	0.10972269
139	0x3cd33085	0.025779972
140	0x3d6b687b	0.057472687
141	0xbec88892	-0.39166695
142	0xbd74ff82	-0.059813984
143	0xbcfa66c9	-0.03056659
144	0xbda83e84	-0.08215049
145	0xba4cda09	-0.0007814472
146	0x3dc88701	0.09791375
147	0xbc4fcba6	-0.012682831
148	0xbd006637	-0.03134748
149	0xbd5b3727	-0.053519394
150	0x3d4846b9	0.04889557
151	0x3c566855	0.013086398
152	0x3dfa0928	0.12208778
153	0xbde60b64	-0.11232641
154	0xbe0f9bbe	-0.14024255
155	0x3db53f25	0.088499345
156	0xbd63585d	-0.05550419
157	0x3e1c632e	0.15272209
158	0x3dbb6179	0.09149451
159	0x3d21c9eb	0.039499205
160	0x3d171af8	0.036890954
161	0x3dd18a22	0.10231425
162	0xbd57e0f2	-0.05270476
163	0xbdf64107	-0.12024122
164	0x3defa67c	0.11701676
165	0x3de9aad0	0.11409533
166	0x3c3fbf52	0.011703329
167	0x3e264500	0.16237259
168	0x3d814afb	0.063131295
169	0x3d1f1381	0.03883696
170	0x3d40419f	0.04693758
171	0x3db0ee20	0.08639169
172	0xbe32dad9	-0.17466296
173	0x3bfd2c1f	0.007726207
174	0x3d8fb873	0.07017603
175	0x3c0965a7	0.008386052
176	0x3db9952e	0.09061657
177	0x3d5d43d2	0.054019757
178	0x3e332aa7	0.1749674
179	0xbe4d0fb8	-0.20025527
180	0x3c922176	0.017838221
181	0x3d6093cb	0.054828446
182	0x3d104fa7	0.035232212
183	0x3db378e5	0.08763293
184	0x3db3fb2e	0.08788143
185	0x3df30085	0.118653335
186	0xbe6fe2bb	-0.23426335
187	0x3c958658	0.018252537
188	0xbcc3ef8a	-0.023917932
189	0xbe323bef	-0.17405675
190	0x3db05736	0.08610384
191	0x3bd36b45	0.0064519965
192	0x3daec6d4	0.08534017
193	0x3ea78f56	0.32726544
194	0x3dbe25b1	0.09284533
195	0xbe2b2e50	-0.16716886
196	0xbce36115	-0.027756253
197	0xbc6f26c9	-0.014596649
198	0xbdb4010e	-0.08789264
199	0x3df145eb	0.11780914
200	0x3dfe996a	0.12431605
201	0x3cf9a8dd	0.030476028
202	0xbe06054c	-0.13087958
203	0x3da2aa7c	0.079426736
204	0xbc9ba7bd	-0.019000882
205	0xbdc0355d	-0.09385178
206	0xbd9e8f6f	-0.077422015
207	0x3d9e1461	0.07718731
208	0xbc2b8b8a	-0.01047028
209	0xbdce55df	-0.10074972
210	0x3e62d03d	0.22149749
211	0x3bba871b	0.0056923754
212	0x3d519a8a	0.05117277
213	0xbc188fbf	-0.0093116155
214	0x3ddbd9a8	0.10734874
215	0xbe179d05	-0.14805992
216	0x3c6f9454	0.0146227665
217	0x3d14a5df	0.036291
218	0xbd8a03ca	-0.06739004
219	0xbcdd81ac	-0.027039371
220	0xba0b9bd0	-0.0005325647
221	0x3d1b3b8e	0.037898593
222	0xbdb38118	-0.08764857
223	0xbe4c86c9	-0.19973291
224	0x3d0fb3aa	0.03508345
225	0x3e32e6a7	0.174708
226	0x3d8e4d37	0.06948321
227	0x3d3f5457	0.046711292
228	0x3d85d52b	0.06534799
229	0x3dfca670	0.12336433
230	0x3d3c665d	0.04599606
231	0xbd9d7296	-0.07687871
232	0xbd10250c	-0.03519158
233	0x3dff7192	0.12472834
234	0xbd90d2e0	-0.07071471
235	0x3d8e8ddc	0.06960651
236	0xbd214c36	-0.03937932
237	0xbd8e5ad5	-0.069509186
238	0x3b869c4c	0.0041079875
239	0x3c0d4b00	0.008623838
240	0xbd6c99fc	-0.05776404
241	0x3dc9ed24	0.09859684
242	0x3dcd063e	0.10010956
243	0xbd242ad1	-0.040079895
244	0x3e0bd663	0.13656001
245	0xbdc0f828	-0.09422332
246	0x3e19226e	0.1495454
247	0xbdd8a220	-0.10577798
248	0xbdb61266	-0.08890228
249	0xbcab3ebf	-0.020903943
250	0x3dc5fd64	0.09667471
251	0x3e208291	0.15674807
252	0x3c46b1ce	0.012127353
253	0xbe327a0b	-0.17429368
254	0x3d3e2f78	0.04643199
255	0x3d68ae3a	0.05680678

rnn.bias_ih_l1 f4 [256]
0	0x3da706e3	0.081556104
1	0x3c5135be	0.012769161
2	0xbdacb313	-0.08432593
3	0xbe023369	-0.12714924
4	0x3d98a746	0.0745378
5	0x3dc7acd6	0.09749763
6	0xbc5f0fae	-0.013614578
7	0x3d7526b4	0.059851363
8	0x3bee910b	0.007280474
9	0xbe19436c	-0.14967126
10	0xbdb8ae00	-0.09017563
11	0xbd883d26	-0.06652288
12	0x3d115fce	0.035491757
13	0x3d9a46f2	0.07533063
14	0x3db25856	0.08708255
15	0x3e5683d1	0.20948721
16	0xbdd36041	-0.10321093
17	0x3d174950	0.03693515
18	0xbdd65b14	-0.104665905
19	0x3d2759d6	0.04085716
20	0xbe1ed143	-0.15509515
21	0x3e00e9b7	0.12589155
22	0xbdc93a91	-0.09825624
23	0xbe35f1f1	-0.17768075
24	0x3d1738f3	0.036919545
25	0xbe06a02c	-0.13147038
26	0x3d2a1db0	0.04153222
27	0xbd6a7b92	-0.057246752
28	0x3cb5c025	0.022186348
29	0x3cab4810	0.020908386
30	0xb9ff8f53	-0.00048744175
31	0xbdf7adaa	-0.12093671
32	0xbb39f2fe	-0.0028373594
33	0x3e173ad9	0.14768542
34	0x3d843922	0.0645621
35	0x3e03f310	0.1288569
36	0xbc847418	-0.016168639
37	0x3d159cf1	0.036526624
38	0x3b9b3c7d	0.0047374354
39	0xbd61f18f	-0.05516201
40	0x3d8dc5e9	0.06922514
41	0xbdd73368	-0.10507852
42	0xbcbd41bc	-0.023102634
43	0xbe1e5e30	-0.15465617
44	0xbe0095fc	-0.12557214
45	0xbdf2df7b	-0.11859032
46	0x3c7ed8ab	0.015554587
47	0x3dde8e39	0.108669706
48	0x3db091ce	0.0862156
49	0xbe03bbe3	-0.12864642
50	0x3d5baf7b	0.053634148
51	0x3dc1eec8	0.09469372
52	0x3d72f558	0.05931601
53	0x3d4af325	0.049548287
54	0xbe2380d6	-0.15967116
55	0xbd01e2fe	-0.031710617
56	0x3b194432	0.0023386595
57	0x3edbb6fe	0.4291305
58	0xbd8047fa	-0.062637284
59	0xbd85e695	-0.06538121
60	0xbcc615f6	-0.024180394
61	0xbe2119c3	-0.15732484
62	0x3ddddc74	0.10833064
63	0xbdb638b8	-0.08897537
64	0xbd116098	-0.03549251
65	0x3df54a67	0.11977082
66	0xbd3bd468	-0.045856863
67	0xbd016d9c	-0.031598672
68	0xbd7a83be	-0.061160795
69	0xbdc14db7	-0.09438651
70	0xbc93019a	-0.0179451
71	0x3d6e4260	0.05816877
72	0x3be2f91a	0.006926668
73	0xbd8f0a0b	-0.069843374
74	0x3bcc53a2	0.0062355557
75	0x3cb129c7	0.021626366
76	0xbd704a91	-0.058664862
77	0xbe07e997	-0.13272701
78	0x3dded3a9	0.10880215
79	0xbe3c9c04	-0.1841889
80	0xbd230031	-0.039795104
81	0xbd88b9fa	-0.06676097
82	0xbdecc468	-0.11560899
83	0x3dc2376f	0.09483229
84	0x3c258af2	0.010103928
85	0xbd4021c1	-0.04690719
86	0xbd9307c7	-0.07179218
87	0xbc8a3fa3	-0.016876047
88	0xbca38b86	-0.01996399
89	0x3c2b249c	0.01044574
90	0xbe9b7df0	-0.3036952
91	0xbe3aa818	-0.18228185
92	0x3d37dbb7	0.04488727
93	0xbdbce985	-0.09224228
94	0x3cc39e1d	0.023879105
95	0x3cc114d0	0.023569494
96	0x3c9f7ffe	0.019470211
97	0x3dcf4057	0.10119694
98	0xbe10ae30	-0.14128947
99	0x3ceb009d	0.028686816
100	0xbe16e3cc	-0.14735335
101	0xbd14e548	-0.036351472
102	0xbdf504e2	-0.11963822
103	0xbd987cb7	-0.074456625
104	0xbd5f7a1e	-0.05455982
105	0xbde9d90e	-0.11418353
106	0xbd4918f1	-0.04909605
107	0xbdededf1	-0.11617649
108	0xbe0521a1	-0.1300111
109	0x3dcba7db	0.09944125
110	0x3d46950e	0.048481993
111	0xbb9c6999	-0.0047733304
112	0x3d9ba6aa	0.07600148
113	0xbdb008c5	-0.08595423
114	0xbd4ae0d3	-0.049530815
115	0x3d8a04b3	0.067391776
116	0x3c6402fc	0.013916727
117	0x3db2a2c6	0.08722453
118	0xbe253463	-0.16133265
119	0xbd98f1b7	-0.074679784
120	0x3e0ceee0	0.13762999
121	0x3ce56431	0.028001877
122	0xbe2a25ac	-0.16615933
123	0xbd98aa2f	-0.07454335
124	0xbd2fee62	-0.04295195
125	0xbd845f79	-0.064635225
126	0x3d863ff2	0.06555165
127	0xbd209164	-0.039201155
128	0xbd1543f2	-0.03644175
129	0xbcfa4084	-0.030548342
130	0xbdf35ec8	-0.118833125
131	0xbccdd4f3	-0.025125956
132	0x3da5f5f6	0.08103554
133	0xbcfda04f	-0.03096023
134	0x3d6ff8b4	0.05858679
135	0xbd09f6c4	-0.0336826
136	0xbe20c70c	-0.1570093
137	0x3cc9312e	0.024559584
138	0x3d176ecf	0.03697091
139	0xbd5dadfb	-0.054121
140	0xbd855dbb	-0.06512018
141	0x3cf83b0d	0.030301595
142	0x3d700359	0.058596943
143	0x3d967171	0.07345856
144	0x3d979b4d	0.07402668
145	0x3cddcc0a	0.027074832
146	0x3dfbbebf	0.12292241
147	0x3c255d73	0.010093081
148	0xbe006434	-0.12538224
149	0x3db866dd	0.090039946
150	0xbbf54f66	-0.0074862717
151	0xbc96d850	-0.018413693
152	0x3d48ea02	0.049051292
153	0x3dea4e5d	0.11440728
154	0xbda54dc8	-0.08071476
155	0x3d733b7a	0.059382893
156	0x3d9a53cd	0.07535515
157	0xbe1515eb	-0.14559142
158	0x3d411ae6	0.047144793
159	0x3dbeebe1	0.09322334
160	0xbde4970a	-0.11161621
161	0xbd3846ee	-0.04498952
162	0xbd7e4269	-0.062075052
163	0xbdcf1bfa	-0.10112758
164	0xbdacd1c9	-0.08438451
165	0x3db3a340	0.08771372
166	0xbd486baa	-0.0489308
167	0xbdf73e38	-0.12072414
168	0xbdd22af4	-0.10262099
169	0xbd4e7263	-0.050402056
170	0x3e272a90	0.1632483
171	0xbd587cfd	-0.052853573
172	0x3ae4c70a	0.0017454338
173	0x3e1d8eb3	0.15386467
174	0xbe1fdc74	-0.1561144
175	0xbe00dd70	-0.12584472
176	0x3bf0b7d7	0.007346134
177	0xbda36c91	-0.07979692
178	0xbd129b1f	-0.035792466
179	0x3c344a33	0.011004019
180	0xbdb07f44	-0.08618024
181	0x3e07b524	0.13252693
182	0xbd18e337	-0.037326064
183	0x3cf50e05	0.029913912
184	0x3e047083	0.12933545
185	0xbdd248ef	-0.10267817
186	0x3d75f770	0.060050428
187	0xbbe95161	-0.007120297
188	0x3a0d15c4	0.00053819665
189	0x3cd404cf	0.0258812
190	0x3c541a00	0.012945652
191	0xbd8d4b00	-0.06899071
192	0xbca83ca1	-0.020536723
193	0x3c3df6e1	0.011594505
194	0x3c9f5f24	0.019454546
195	0xbe15aef3	-0.14617519
196	0x3dab895f	0.08375811
197	0xbd8b31b7	-0.06796592
198	0xbd9d5684	-0.07682517
199	0xbdced366	-0.10098915
200	0x3b83f349	0.0040268046
201	0xbd8307c6	-0.06397967
202	0xbdfd80bc	-0.1237807
203	0x3c920f9b	0.017829707
204	0xbe076012	-0.13220242
205	0x3d2f177f	0.042747017
206	0xbdf5c90e	-0.12001239
207	0x3c4145e7	0.011796451
208	0xbe33db17	-0.17564045
209	0xbe1663ff	-0.14686583
210	0xbdaabba7	-0.08336573
211	0xbd00cd26	-0.031445645
212	0xbc9ddf75	-0.019271592
213	0x3d5066bf	0.050879236
214	0x3a035e3a	0.0005011294
215	0xbe273cf6	-0.16331849
216	0xbce0e3d4	-0.027452387
217	0x3d8b81e1	0.06811882
218	0x3d2797a2	0.040916093
219	0xbe437c4c	-0.19090384
220	0xbdb3298a	-0.08748157
221	0xbdc6f0c8	-0.09713894
222	0x3d879574	0.06620303
223	0xbd61b248	-0.055101663
224	0xbca6efb4	-0.020377971
225	0x3e09ab81	0.1344433
226	0xbdae14ca	-0.08500059
227	0x3c0e42e8	0.008682944
228	0xbd97386a	-0.07383807
229	0xbdf2216e	-0.118227825
230	0xbdaaab89	-0.08333499
231	0xbdd2735a	-0.10275908
232	0xbd0665b4	-0.032811835
233	0x3dcacd08	0.09902388
234	0xbccfe0b4	-0.025375701
235	0xbdb74228	-0.08948165
236	0xbd11c357	-0.03558668
237	0xbcd63b1e	-0.026151236
238	0x3d819a29	0.06328232
239	0x3b9a7776	0.004713948
240	0xbccfe490	-0.025377542
241	0xbdd3c05f	-0.10339426
242	0xbc6b9e64	-0.014381025
243	0x3d8be1ac	0.06830153
244	0x3dd7d244	0.10538152
245	0xbd9cd21c	-0.07657263
246	0xbe376da8	-0.17912924
247	0xbc5ab436	-0.01334863
248	0xbd53f36e	-0.051745825
249	0x3ed9205d	0.42407504
250	0xbda43137	-0.080171995
251	0xbd030af7	-0.03199288
252	0xbb59df58	-0.0033244696
253	0xbd4ae897	-0.04953822
254	0x3dbff6df	0.09373259
255	0xbc61fb1d	-0.01379278
