darts_logs/TCN_emissions/checkpoints/best-epoch=12-val_loss=0.11.ckpt (torch, 52651 bytes, 103 tensors)

res_blocks.0.conv1.bias f4 [3]
0	0xbe239dde	-0.1597819
1	0xbe636c70	-0.22209334
2	0x3e06a979	0.13150586

res_blocks.0.conv1.parametrizations.weight.original0 f4 [3, 1, 1]
0	0x3f0a5e1f	0.5404987
1	0x3f2314ff	0.6370391
2	0x3f06b8f9	0.52625996

res_blocks.0.conv1.parametrizations.weight.original1 f4 [3, 7, 2]
0	0xbe560818	-0.20901525
1	0xbe72b3ef	-0.23701452
2	0x3d2ccd90	0.042188227
3	0xbe8cb43f	-0.27481267
4	0x3c7ff806	0.015623098
5	0x3df06126	0.117372796
6	0xbd5188b8	-0.051155776
7	0x3e5a6e91	0.2133124
8	0xbe302923	-0.17203192
9	0x3dfde3b8	0.123969495
10	0x3db879d7	0.09007614
11	0xbd80e95e	-0.06294511
12	0x3e1b182e	0.15145943
13	0xbd100b7b	-0.0351672
14	0xbe4294a9	-0.19002022
15	0xbd9e4e8e	-0.07729827
16	0xbe22c30d	-0.15894718
17	0x3da7296e	0.08162199
18	0xbe1327ea	-0.14370695
19	0xbe7a6b2c	-0.24454945
20	0xbd5572ff	-0.052111622
21	0xbe876b3f	-0.2644901
22	0x3c204f07	0.009784467
23	0xbe85bf36	-0.26122445
24	0x3e6c5fa8	0.23083365
25	0x3de78e33	0.11306419
26	0xbe0b24cb	-0.13588254
27	0xbe248fb9	-0.16070451
28	0xbdc03bd7	-0.093864135
29	0x3d376506	0.044774078
30	0xbda1e1ae	-0.07904373
31	0xbe5a0b82	-0.21293452
32	0xbdc85750	-0.097822785
33	0x3e83ad3f	0.25718114
34	0x3e5f196b	0.2178704
35	0x3d23becb	0.039976876
36	0x3cf8f137	0.030388458
37	0xbe54e479	-0.2079028
38	0x3dbfc1bd	0.093631245
39	0x3ca3692b	0.019947609
40	0xbdfe7d7c	-0.12426278
41	0xbce3e4ec	-0.02781912

res_blocks.0.conv2.bias f4 [3]
0	0xbde4fb22	-0.11180712
1	0x3e6f61e1	0.23377182
2	0xbe2dcd24	-0.16972786

res_blocks.0.conv2.parametrizations.weight.original0 f4 [3, 1, 1]
0	0x3f23ea6b	0.6402957
1	0x3f064735	0.52452403
2	0x3f244ed3	0.64182776

res_blocks.0.conv2.parametrizations.weight.original1 f4 [3, 3, 2]
0	0xbebdf854	-0.37103522
1	0xbd8eaabe	-0.0696616
2	0xbea0cca5	-0.3140613
3	0xbeaec4f4	-0.34134638
4	0x3e645893	0.22299413
5	0xbd4f2c13	-0.05057914
6	0x3eb8e99d	0.36115733
7	0x3e86bbc8	0.2631514
8	0xbc13435e	-0.00898823
9	0x3ddcdf88	0.10784823
10	0x3e1e0145	0.15430172
11	0x3e39cb72	0.18144014
12	0x3e7ce9a2	0.24698499
13	0xbeb3936c	-0.3507341
14	0xbe8e5b44	-0.27804005
15	0x3dee329d	0.116307475
16	0x3ebd89c7	0.37019178
17	0xbbf1d701	-0.007380367

res_blocks.0.conv3.weight f4 [3, 7, 1]
0	0x3e3a62c8	0.18201745
1	0x3e1a6e07	0.15081035
2	0xbeb8fabb	-0.36128792
3	0x3e442f74	0.19158727
4	0x3d1ee438	0.038791865
5	0x3e5f5636	0.2181023
6	0xbddf6ba6	-0.10909204
7	0x3d61f706	0.05516722
8	0xbdb55cad	-0.08855567
9	0x3ec0ee2c	0.3768171
10	0xbe997c70	-0.2997775
11	0x3dad2e89	0.084561415
12	0x3da8119b	0.08206483
13	0xbe8fed64	-0.28110802
14	0xbb6a3304	-0.0035735974
15	0x3e748d08	0.23881924
16	0x3ef81fb6	0.48461694
17	0x3ec3292e	0.38117355
18	0xbd104a8e	-0.03522735
19	0x3ecc15d7	0.39860412
20	0xbe18cc47	-0.14921676

res_blocks.0.conv3.bias f4 [3]
0	0x3e079456	0.1324018
1	0xbceba933	-0.028767204
2	0x3eaa8268	0.33302617

res_blocks.1.conv1.bias f4 [3]
0	0x3eb0a027	0.34497187
1	0xbe411a38	-0.18857658
2	0x3d053860	0.032524467

res_blocks.1.conv1.parametrizations.weight.original0 f4 [3, 1, 1]
0	0x3f05e373	0.52300185
1	0x3ed44c11	0.41464284
2	0x3f5095fb	0.8147885

res_blocks.1.conv1.parametrizations.weight.original1 f4 [3, 3, 2]
0	0x3e01f32d	0.1269042
1	0xbee7662f	-0.45195147
2	0xbd80c493	-0.062874936
3	0x3c0113e6	0.007878279
4	0xbdc26a07	-0.09492879
5	0xbd71a056	-0.0589908
6	0x3dfdbd70	0.12389648
7	0x3e45a8fb	0.19302742
8	0x3dff629f	0.12469982
9	0xbde6d35a	-0.11270781
10	0xbe77de94	-0.24206
11	0xbe388af6	-0.1802176
12	0x3edb5499	0.4283798
13	0x3d7656ba	0.060141303
14	0xbedf5ce4	-0.43625557
15	0x3ed3d5b0	0.41373968
16	0xbe05ce3d	-0.13066955
17	0xbea2091a	-0.3164757

res_blocks.1.conv2.bias f4 [3]
0	0xbd61f899	-0.05516872
1	0x3ebad21e	0.36488432
2	0x3e2fd6b5	0.17171748

res_blocks.1.conv2.parametrizations.weight.original0 f4 [3, 1, 1]
0	0x3f4ecc2a	0.8078028
1	0x3f060214	0.5234692
2	0x3ed74cff	0.4205093

res_blocks.1.conv2.parametrizations.weight.original1 f4 [3, 3, 2]
0	0x3e2cc30c	0.1687128
1	0x3ee83d8b	0.45359454
2	0xbe5a715b	-0.21332304
3	0xbe3e8d4f	-0.18608592
4	0xbe60d107	-0.21954738
5	0xbeaf5d91	-0.34251073
6	0x3ea65a0b	0.32490572
7	0xbde5ec38	-0.11226696
8	0x3e2d5ca3	0.1692987
9	0xbda007ae	-0.07813965
10	0xbeaae9cb	-0.33381495
11	0xbe9d47ac	-0.30718744
12	0xbd1b33ac	-0.037891075
13	0x3ed0d932	0.40790707
14	0x3d13a6a2	0.036047585
15	0xbd981723	-0.07426288
16	0xbe226a89	-0.15860952
17	0xbd1d3429	-0.038379822

res_blocks.2.conv1.bias f4 [3]
0	0xbdb0d6fa	-0.086347535
1	0xbebc591b	-0.36786732
2	0xbe42822b	-0.18994968

res_blocks.2.conv1.parametrizations.weight.original0 f4 [3, 1, 1]
0	0x3f10e216	0.5659498
1	0x3f201f28	0.6254754
2	0x3f0022da	0.5005318

res_blocks.2.conv1.parametrizations.weight.original1 f4 [3, 3, 2]
0	0x3e92a2f0	0.28639936
1	0x3dc9b18e	0.09848319
2	0xbdb1ef6e	-0.08688246
3	0x3ea3a9c4	0.31965458
4	0x3e297b20	0.16550875
5	0xbe67b07c	-0.22625917
6	0x3e23234e	0.15931436
7	0x3e9c3c62	0.30514818
8	0xbee8f7a3	-0.45501432
9	0x3d8df471	0.06931389
10	0xbe9d5c03	-0.30734262
11	0x3e207ed4	0.15673381
12	0xbe126e64	-0.14299923
13	0xbea18fcc	-0.3155502
14	0x3da73f5b	0.08166381
15	0x3e45fc4b	0.19334523
16	0xbedf0a70	-0.4356265
17	0x3e21fff1	0.1582029

res_blocks.2.conv2.bias f4 [3]
0	0x3d907f5b	0.07055541
1	0xbe90b245	-0.2826101
2	0x3e86d57b	0.26334748

res_blocks.2.conv2.parametrizations.weight.original0 f4 [3, 1, 1]
0	0x3f25d1d6	0.6477331
1	0x3f385a56	0.7201284
2	0x3f45d127	0.77272266

res_blocks.2.conv2.parametrizations.weight.original1 f4 [3, 3, 2]
0	0xbe8944bf	-0.26810262
1	0xbddd6139	-0.108095594
2	0xbddaca03	-0.10683062
3	0x3ec35dd6	0.3815753
4	0xbe8640e3	-0.2622138
5	0x3e842599	0.25809935
6	0x3e87100e	0.26379436
7	0x3e95326c	0.2914003
8	0x3ebdaacf	0.3704438
9	0xbd8ccdc1	-0.06875182
10	0xbe9ab809	-0.30218533
11	0xbec71791	-0.38885167
12	0x3e72274f	0.23647808
13	0x3e8ca6ed	0.27471104
14	0x3ec314b0	0.3810172
15	0xbee77174	-0.45203745
16	0xbee61be5	-0.44943157
17	0x3e7d6968	0.2474724

res_blocks.3.conv1.bias f4 [3]
0	0x3e6eb37e	0.23310658
1	0xbcf27488	-0.029596582
2	0xbe0ef775	-0.13961585

res_blocks.3.conv1.parametrizations.weight.original0 f4 [3, 1, 1]
0	0x3f22ff51	0.6367083
1	0x3f561bb5	0.8363603
2	0x3f0bc011	0.54589945

res_blocks.3.conv1.parametrizations.weight.original1 f4 [3, 3, 2]
0	0x3e00bbf7	0.12571703
1	0x3ebd3265	0.3695251
2	0x3ed8695e	0.4226789
3	0x3e850b8d	0.25985375
4	0xbeb1630c	-0.3464588
5	0xbcb3ec5b	-0.021963289
6	0xbe336373	-0.17518406
7	0x3d95a721	0.07307268
8	0x3e8fd5ac	0.28092706
9	0xbe87627c	-0.26442325
10	0xbea4fcb8	-0.3222406
11	0x3ef8e55b	0.48612484
12	0x3db4c89b	0.08827325
13	0x3d882f6a	0.066496685
14	0x3aab9e12	0.0013093373
15	0x3de6fa43	0.112782024
16	0x3e80f0cc	0.25183713
17	0xbe63a9d1	-0.22232749

res_blocks.3.conv2.bias f4 [3]
0	0xbe3aef8b	-0.18255441
1	0xbeabd498	-0.33560634
2	0xbcbf98d9	-0.023388313

res_blocks.3.conv2.parametrizations.weight.original0 f4 [3, 1, 1]
0	0x3eeba3c8	0.46023393
1	0x3f03b86a	0.5145327
2	0x3f2d67bd	0.6773642

res_blocks.3.conv2.parametrizations.weight.original1 f4 [3, 3, 2]
0	0x3e95d8e9	0.29267052
1	0xbe7bf78d	-0.24606152
2	0x3e1559c8	0.1458503
3	0xbe20da5f	-0.15708302
4	0xbe0e6071	-0.13903977
5	0xbe6310ae	-0.22174332
6	0xbd89fa6a	-0.06737216
7	0xbebcdeaf	-0.36888644
8	0xbde8c5d9	-0.113658614
9	0xbbf57551	-0.007490792
10	0x3e9c61ae	0.30543274
11	0xbe08f5a9	-0.13374962
12	0x3df1b32b	0.11801752
13	0x3e8c2166	0.2736923
14	0x3d153c96	0.036434732
15	0xbe88179a	-0.26580507
16	0x3db8fdb0	0.09032762
17	0x3ed4c79f	0.4155855

res_blocks.4.conv1.bias f4 [3]
0	0xbe627d79	-0.22118177
1	0xbe294ee0	-0.16533995
2	0x3e47a752	0.19497421

res_blocks.4.conv1.parametrizations.weight.original0 f4 [3, 1, 1]
0	0x3f11ebcb	0.57000417
1	0x3ef316c2	0.474783
2	0x3ec6501d	0.38732997

res_blocks.4.conv1.parametrizations.weight.original1 f4 [3, 3, 2]
0	0xbe829d3e	-0.2551059
1	0xbeba0b7a	-0.3633688
2	0xbe7ffbc1	-0.2499838
3	0xbeae121b	-0.33998188
4	0xbe4b9a9a	-0.19883195
5	0x3ea01f96	0.31274098
6	0xbdcdb732	-0.10044707
7	0xbed43d73	-0.41453132
8	0x3e4bf6c7	0.19918357
9	0xbdc6d01d	-0.09707663
10	0x3e02156b	0.12703483
11	0x3d616fe4	0.055038348
12	0x3e41c1bd	0.18921562
13	0x3ce78d0a	0.028265495
14	0x3c8baede	0.017051157
15	0xbeacb279	-0.33729914
16	0x3e501551	0.20320632
17	0xbcd86468	-0.026415065

res_blocks.4.conv2.bias f4 [5]
0	0xbd1c430d	-0.038149882
1	0x3e43ed2a	0.1913344
2	0x3dc3864c	0.095470995
3	0x3e92e6c2	0.2869168
4	0x3dd0e3e1	0.101997145

res_blocks.4.conv2.parametrizations.weight.original0 f4 [5, 1, 1]
0	0x3f089447	0.53351253
1	0x3f0b2112	0.54347336
2	0x3f5d36bd	0.8641165
3	0x3f124c85	0.5714801
4	0x3f314113	0.6923992

res_blocks.4.conv2.parametrizations.weight.original1 f4 [5, 3, 2]
0	0xbe42f885	-0.19040115
1	0xbe84752e	-0.2587065
2	0x3e685b72	0.22691134
3	0x3ec2f5a0	0.38078022
4	0xbd57d0b5	-0.052689273
5	0x3ea70a45	0.32625023
6	0xbef216ab	-0.4728292
7	0x3ed754c0	0.42056847
8	0xbe7e1c57	-0.24815498
9	0xbdcdf8ef	-0.10057246
10	0x3dc65b42	0.09685375
11	0x3e4b95a3	0.198813
12	0xbe843b95	-0.25826707
13	0xbe843397	-0.2582061
14	0x3dcb673a	0.09931798
15	0xbd8a1a3c	-0.06743285
16	0xbd6ca35d	-0.057772983
17	0x3f01a500	0.50642395
18	0xbe5cc1b4	-0.21558267
19	0x3e961785	0.2931482
20	0xbe8c4b9d	-0.27401438
21	0xbebc5c65	-0.3678924
22	0x3e91c108	0.28467584
23	0xbde1e4e1	-0.11029983
24	0xbe8b1817	-0.27166817
25	0x3d0db8f6	0.03460022
26	0xbea23ad0	-0.31685495
27	0xbe1b194e	-0.15146372
28	0x3e399b33	0.1812561
29	0x3e3a53fe	0.18196103

res_blocks.4.conv3.weight f4 [5, 3, 1]
0	0xbe8cc71b	-0.27495655
1	0xbe04496e	-0.12918636
2	0xbeb224d5	-0.34793726
3	0xbf0b7c4f	-0.54486555
4	0x3ece71f3	0.4032131
5	0xbead8f5b	-0.33898434
6	0xbed589a2	-0.41706568
7	0x3ee912e5	0.45522228
8	0xbed46156	-0.4148051
9	0xbe01a47e	-0.12660405
10	0xbe70c381	-0.23512079
11	0x3ee64dcd	0.44981232
12	0x3ebd2fd2	0.36950547
13	0x3ecfc489	0.40579632
14	0x3bd61ccc	0.0065341946

res_blocks.4.conv3.bias f4 [5]
0	0x3ec438bf	0.38324544
1	0x3e7b032a	0.24512926
2	0x3eb799e4	0.35859597
3	0xbece5e9d	-0.4030656
4	0xbc52682f	-0.012842222

exp_avg f4 [3]
0	0xb5bc09b0	-1.4009911e-06
1	0x00000000	0.0
2	0xbc30adec	-0.010783654

exp_avg_sq f4 [3]
0	0x365d5389	3.298019e-06
1	0x00000000	0.0
2	0x395bc28b	0.0002095794

exp_avg f4 [3, 1, 1]
0	0xb4f6119c	-4.5833883e-07
1	0x00000000	0.0
2	0xba37e800	-0.00070154667

exp_avg_sq f4 [3, 1, 1]
0	0x34b7dc72	3.42468e-07
1	0x00000000	0.0
2	0x35443be9	7.310287e-07

exp_avg f4 [3, 7, 2]
0	0xb4934398	-2.7430065e-07
1	0xb49f8877	-2.971535e-07
2	0xb4daada4	-4.0732004e-07
3	0xb51f56e9	-5.9358587e-07
4	0xb5284902	-6.269112e-07
5	0xb505fd39	-4.991485e-07
6	0xb5486ada	-7.4661295e-07
7	0xb52d1230	-6.447399e-07
8	0xb4465682	-1.8471658e-07
9	0xb3b5fcf9	-8.474485e-08
10	0x33958144	6.9618665e-08
11	0xb350f16f	-4.8648356e-08
12	0xb5a3cc22	-1.2203857e-06
13	0xb5b727c6	-1.3646138e-06
14	0x00000000	0.0
15	0x00000000	0.0
16	0x00000000	0.0
17	0x00000000	0.0
18	0x00000000	0.0
19	0x00000000	0.0
20	0x00000000	0.0
21	0x00000000	0.0
22	0x00000000	0.0
23	0x00000000	0.0
24	0x00000000	0.0
25	0x00000000	0.0
26	0x00000000	0.0
27	0x00000000	0.0
28	0xbb63faa1	-0.0034786838
29	0xbb824ecd	-0.003976679
30	0xbbbe8f0c	-0.0058153924
31	0xbbc4624d	-0.0059931637
32	0xbba047da	-0.004891378
33	0xbb9679fd	-0.004592179
34	0xbbb7c9f8	-0.0056087933
35	0xbbc80443	-0.0061040237
36	0xbaf93588	-0.0019013146
37	0xbb2905ea	-0.0025790879
38	0xbbf4facf	-0.007476188
39	0xbc0222e1	-0.007942886
40	0xbb80bdc1	-0.0039288704
41	0xbb8683b7	-0.004105057

exp_avg_sq f4 [3, 7, 2]
0	0x33d82e45	1.00667e-07
1	0x340c4610	1.3064005e-07
2	0x355e94e9	8.291814e-07
3	0x35c43554	1.4618658e-06
4	0x352e44e6	6.492031e-07
5	0x350d9eb8	5.275756e-07
6	0x35a53741	1.2309539e-06
7	0x3540508e	7.1642796e-07
8	0x33dd3aea	1.0301831e-07
9	0x317e84bc	3.7037315e-09
10	0x345255b7	1.9588957e-07
11	0x34b25ca9	3.3222503e-07
12	0x360cfa08	2.1007163e-06
13	0x36353469	2.7001608e-06
14	0x00000000	0.0
15	0x00000000	0.0
16	0x00000000	0.0
17	0x00000000	0.0
18	0x00000000	0.0
19	0x00000000	0.0
20	0x00000000	0.0
21	0x00000000	0.0
22	0x00000000	0.0
23	0x00000000	0.0
24	0x00000000	0.0
25	0x00000000	0.0
26	0x00000000	0.0
27	0x00000000	0.0
28	0x376b8350	1.4037665e-05
29	0x37887d73	1.627088e-05
30	0x37e0f22a	2.6815647e-05
31	0x37def26b	2.6577347e-05
32	0x37f71668	2.9455128e-05
33	0x3819c0ce	3.6657606e-05
34	0x381b08a9	3.6962945e-05
35	0x38174698	3.606695e-05
36	0x370a740d	8.252461e-06
37	0x36f30a7d	7.2431853e-06
38	0x38c94175	9.596619e-05
39	0x38ced538	9.8625605e-05
40	0x37e2d289	2.7039338e-05
41	0x37f7d264	2.9542665e-05

exp_avg f4 [3]
0	0x00000000	0.0
1	0xbd115f68	-0.035491377
2	0x00000000	0.0

exp_avg_sq f4 [3]
0	0x00000000	0.0
1	0x3b51f079	0.0032034202
2	0x00000000	0.0

exp_avg f4 [3, 1, 1]
0	0x00000000	0.0
1	0xbb5ea513	-0.0033972904
2	0x00000000	0.0

exp_avg_sq f4 [3, 1, 1]
0	0x00000000	0.0
1	0x3721d6fc	9.646403e-06
2	0x00000000	0.0

exp_avg f4 [3, 3, 2]
0	0x00000000	0.0
1	0x00000000	0.0
2	0x00000000	0.0
3	0x00000000	0.0
4	0x00000000	0.0
5	0x00000000	0.0
6	0x3b1ced3e	0.0023945118
7	0x3ae51c74	0.0017479793
8	0xb884f1e6	-6.3393076e-05
9	0x3a3c88c4	0.00071920105
10	0xbb86ecd3	-0.004117587
11	0xbb8cc462	-0.0042958716
12	0x00000000	0.0
13	0x00000000	0.0
14	0x00000000	0.0
15	0x00000000	0.0
16	0x00000000	0.0
17	0x00000000	0.0

exp_avg_sq f4 [3, 3, 2]
0	0x00000000	0.0
1	0x00000000	0.0
2	0x00000000	0.0
3	0x00000000	0.0
4	0x00000000	0.0
5	0x00000000	0.0
6	0x36927807	4.365112e-06
7	0x361addd8	2.3076918e-06
8	0x320e1ff7	8.272756e-09
9	0x34f33e77	4.5307726e-07
10	0x3785d514	1.5954058e-05
11	0x3783c5f1	1.570859e-05
12	0x00000000	0.0
13	0x00000000	0.0
14	0x00000000	0.0
15	0x00000000	0.0
16	0x00000000	0.0
17	0x00000000	0.0

exp_avg f4 [3, 7, 1]
0	0x3c4678d6	0.0121137705
1	0x3c268dbc	0.010165628
2	0x3c1b657d	0.009484646
3	0x3c32be81	0.0109096775
4	0x3c00a8a3	0.007852706
5	0x3d070d3a	0.0329716
6	0xbc0efb60	-0.008726925
7	0xbc9f4d2f	-0.019445984
8	0xbcc5b262	-0.024132911
9	0xbcc13fc5	-0.023589978
10	0xbcdf1b6c	-0.027234755
11	0xbc41f35b	-0.011837806
12	0xbd1b7308	-0.0379515
13	0xbcaa2ba2	-0.020772759
14	0xbbb8e4b3	-0.0056424974
15	0xba9cddb0	-0.0011967923
16	0xbbb484e1	-0.0055090045
17	0xbb4c553b	-0.003117873
18	0xbb843d78	-0.004035648
19	0xbb805750	-0.0039166585
20	0xbc7400a5	-0.014892732

exp_avg_sq f4 [3, 7, 1]
0	0x3947606b	0.00019014037
1	0x397dcd4d	0.0002420444
2	0x398b6d61	0.0002659364
3	0x39938af5	0.00028141556
4	0x38b8853d	8.798621e-05
5	0x3a9368f6	0.0011246491
6	0x3a0faa1c	0.00054803654
7	0x39a306b3	0.00031094774
8	0x3a0627b1	0.0005117609
9	0x3a0b01cf	0.00053026987
10	0x3a270e31	0.0006372659
11	0x39079e58	0.00012933591
12	0x3ab06102	0.0013456645
13	0x3a15d61d	0.0005715804
14	0x38906cb1	6.8867004e-05
15	0x382de913	4.146348e-05
16	0x389b5b30	7.407961e-05
17	0x387a8d0d	5.973601e-05
18	0x37fb66c8	2.9969393e-05
19	0x38eaf534	0.00011203662
20	0x398379a7	0.00025076905

exp_avg f4 [3]
0	0x3cba9da4	0.022780247
1	0xbd638ec5	-0.055556078
2	0xbc9de567	-0.019274427

exp_avg_sq f4 [3]
0	0x3ad9906a	0.0016598825
1	0x3b527637	0.0032113919
2	0x3a1e3415	0.00060349825

exp_avg f4 [3]
0	0xbbac885e	-0.0052652797
1	0x00000000	0.0
2	0x384d9335	4.9012906e-05

exp_avg_sq f4 [3]
0	0x395e180b	0.00021180527
1	0x00000000	0.0
2	0x372ab390	1.0174597e-05

exp_avg f4 [3, 1, 1]
0	0x398d38db	0.00026935976
1	0x00000000	0.0
2	0xb50c3318	-5.2228415e-07

exp_avg_sq f4 [3, 1, 1]
0	0x37ef6fad	2.8543023e-05
1	0x00000000	0.0
2	0x32a2feb4	1.8975108e-08

exp_avg f4 [3, 3, 2]
0	0xb98360d9	-0.00025058424
1	0x3a67b988	0.0008839597
2	0xbb3964e0	-0.0028288886
3	0xbb67e424	-0.0035383785
4	0xbb44ac2c	-0.003000985
5	0x393e17aa	0.00018128628
6	0x00000000	0.0
7	0x00000000	0.0
8	0x00000000	0.0
9	0x00000000	0.0
10	0x00000000	0.0
11	0x00000000	0.0
12	0x377c65a3	1.5044035e-05
13	0x37356f53	1.081436e-05
14	0xb6a92385	-5.0407275e-06
15	0x377ea334	1.51775785e-05
16	0x3800177b	3.0539446e-05
17	0x3819a112	3.662805e-05

exp_avg_sq f4 [3, 3, 2]
0	0x38269c35	3.9722963e-05
1	0x36821153	3.8763187e-06
2	0x37373f5a	1.09224e-05
3	0x3725a6b4	9.87358e-06
4	0x38c7b0d2	9.521995e-05
5	0x38eebfb6	0.00011384433
6	0x00000000	0.0
7	0x00000000	0.0
8	0x00000000	0.0
9	0x00000000	0.0
10	0x00000000	0.0
11	0x00000000	0.0
12	0x35d4d61f	1.5857548e-06
13	0x35da6180	1.6270642e-06
14	0x3505d105	4.9850524e-07
15	0x33f76112	1.1519491e-07
16	0x36561221	3.1899037e-06
17	0x3662ad59	3.3777526e-06

exp_avg f4 [3]
0	0xbb9176bc	-0.004439203
1	0xbcef899e	-0.029240426
2	0xbb0ba955	-0.0021310647

exp_avg_sq f4 [3]
0	0x3a16bf5a	0.00057505595
1	0x3b813f3d	0.003944306
2	0x39940b51	0.0002823719

exp_avg f4 [3, 1, 1]
0	0xbad73cc3	-0.0016421307
1	0x39629dd2	0.00021611832
2	0xba8f6ec6	-0.0010943047

exp_avg_sq f4 [3, 1, 1]
0	0x37d5a113	2.5466585e-05
1	0x383f3450	4.558667e-05
2	0x367b68f2	3.7463e-06

exp_avg f4 [3, 3, 2]
0	0xbad6fa24	-0.0016401452
1	0xba695c5a	-0.0008902006
2	0xba1a9e33	-0.00058982073
3	0xba06e35a	-0.00051455724
4	0xba1f62cd	-0.0006080091
5	0xba786ca8	-0.000947664
6	0xb9388723	-0.0001759795
7	0xba9ac008	-0.0011806497
8	0xb85ff020	-5.3390977e-05
9	0x37cea22d	2.4632633e-05
10	0x38dde91e	0.00010581523
11	0x38c801c3	9.537071e-05
12	0xbb508757	-0.003181895
13	0xb9ffe0ed	-0.00048804973
14	0x38ad740b	8.2708975e-05
15	0xb9324d3b	-0.00017004173
16	0xb9bf4ad8	-0.00036486122
17	0xb8ba104c	-8.872207e-05

exp_avg_sq f4 [3, 3, 2]
0	0x37cfdf9f	2.4780455e-05
1	0x37a7868b	1.9970603e-05
2	0x3667a2e4	3.4516497e-06
3	0x3637ad63	2.737005e-06
4	0x368446fb	3.9421698e-06
5	0x3708b890	8.1492035e-06
6	0x38d48d9d	0.00010135325
7	0x3943e6c1	0.00018682612
8	0x362bb321	2.5585252e-06
9	0x33a62295	7.736268e-08
10	0x376ba7e8	1.4046185e-05
11	0x374a3c30	1.2054152e-05
12	0x378fa2d4	1.7122751e-05
13	0x35f49355	1.8222296e-06
14	0x32b788ab	2.1366153e-08
15	0x33cc5366	9.51466e-08
16	0x35151c14	5.5547684e-07
17	0x33c6d447	9.2587065e-08

exp_avg f4 [3]
0	0xbb0c00e8	-0.0021362845
1	0xb8e8cd1a	-0.00011100825
2	0x39d3f6f8	0.00040429062

exp_avg_sq f4 [3]
0	0x3918dacc	0.00014577358
1	0x34e0ed1e	4.1895777e-07
2	0x35706ee1	8.956832e-07

exp_avg f4 [3, 1, 1]
0	0xba6b6865	-0.00089800946
1	0xb887dff6	-6.4790176e-05
2	0x392f5373	0.00016720388

exp_avg_sq f4 [3, 1, 1]
0	0x38294c40	4.0363753e-05
1	0x3423e050	1.5262162e-07
2	0x33f7a751	1.15322685e-07

exp_avg f4 [3, 3, 2]
0	0xb8e56ade	-0.000109394765
1	0xb9f6b704	-0.00047057134
2	0xbb31719e	-0.0027075778
3	0xba867483	-0.0010258112
4	0xba9a8271	-0.0011788142
5	0xbad314e9	-0.0016104254
6	0x37711331	1.4369188e-05
7	0xb7353846	-1.0801543e-05
8	0xb82c1b1f	-4.1033254e-05
9	0xb8ae5b5c	-8.3139836e-05
10	0xb7e87aef	-2.77138e-05
11	0xb908da59	-0.00013051312
12	0x38046828	3.1568256e-05
13	0x39317383	0.00016923067
14	0xb7974f06	-1.80374e-05
15	0x394d9423	0.00019605509
16	0x38ca00c2	9.632252e-05
17	0x39d0c096	0.0003981634

exp_avg_sq f4 [3, 3, 2]
0	0x35e4d9db	1.7050728e-06
1	0x3735d134	1.083715e-05
2	0x3832933f	4.257564e-05
3	0x36f93f2e	7.4281334e-06
4	0x3898e751	7.291011e-05
5	0x392c4ead	0.00016432507
6	0x32a640fb	1.9354493e-08
7	0x32a644b2	1.9356182e-08
8	0x3360a91e	5.2307875e-08
9	0x33a8d010	7.860956e-08
10	0x34090d4d	1.2763958e-07
11	0x34ba9448	3.475309e-07
12	0x320eb79b	8.307235e-09
13	0x345970bb	2.0250711e-07
14	0x325f98f0	1.3015082e-08
15	0x33e7176d	1.0761037e-07
16	0x33741683	5.683115e-08
17	0x352cd356	6.438253e-07

exp_avg f4 [3]
0	0x3c97a573	0.01851151
1	0x80000004	-6e-45
2	0x3c4522ea	0.01203225

exp_avg_sq f4 [3]
0	0x3a9d960c	0.0012022867
1	0x36c2f315	5.809949e-06
2	0x3a0d3fa8	0.00053882087

exp_avg f4 [3, 1, 1]
0	0xba3e0eb2	-0.00072501146
1	0x80000004	-6e-45
2	0x39503ee4	0.00019859854

exp_avg_sq f4 [3, 1, 1]
0	0x3700cad5	7.67662e-06
1	0x3587cb11	1.0117384e-06
2	0x36a67289	4.960519e-06

exp_avg f4 [3, 3, 2]
0	0x3a082281	0.000519313
1	0x3b0c0ea9	0.0021371043
2	0xb90ae6dc	-0.00013246707
3	0x39fba89a	0.0004800007
4	0xb9a8bb27	-0.00032182896
5	0x39b1ede0	0.00033937301
6	0x80000004	-6e-45
7	0x80000004	-6e-45
8	0x00000004	6e-45
9	0x80000004	-6e-45
10	0x80000004	-6e-45
11	0x80000004	-6e-45
12	0x3a905494	0.0011011534
13	0xba03b6e3	-0.00050245057
14	0xb8a2d9e5	-7.765348e-05
15	0x38c99187	9.6115335e-05
16	0x38c94299	9.596832e-05
17	0xb7eaf53b	-2.8009168e-05

exp_avg_sq f4 [3, 3, 2]
0	0x37ab8b2d	2.0449597e-05
1	0x37eeb3e4	2.8455579e-05
2	0x348983f6	2.5614253e-07
3	0x3647788a	2.9723474e-06
4	0x35b45090	1.3434492e-06
5	0x35c933ac	1.4990705e-06
6	0x355b1dc8	8.1627195e-07
7	0x3553e8bb	7.894229e-07
8	0x3482fb60	2.4397286e-07
9	0x320028f0	7.459889e-09
10	0x343187ca	1.653381e-07
11	0x34941050	2.7579017e-07
12	0x37069fbf	8.024216e-06
13	0x36c3ecaf	5.8390065e-06
14	0x3558508c	8.058348e-07
15	0x35a77c85	1.247871e-06
16	0x35a225e3	1.2080967e-06
17	0x3496b803	2.8073563e-07

exp_avg f4 [3]
0	0xbb3f4c81	-0.0029189887
1	0x3b62b6d2	0.0034593833
2	0xbb6eae07	-0.0036419646

exp_avg_sq f4 [3]
0	0x387622b0	5.8683276e-05
1	0x376336d8	1.3543024e-05
2	0x38c0fea2	9.2027025e-05

exp_avg f4 [3, 1, 1]
0	0x3978bd8d	0.00023721736
1	0x39285c0a	0.00016056016
2	0xbb543787	-0.003238173

exp_avg_sq f4 [3, 1, 1]
0	0x359f946c	1.188962e-06
1	0x35a05b92	1.1947579e-06
2	0x3865e7ad	5.481362e-05

exp_avg f4 [3, 3, 2]
0	0x38d3b744	0.000100954
1	0x3a1e5c89	0.00060410105
2	0xba29b967	-0.00064744655
3	0xbabeecb8	-0.0014566397
4	0xbab5d814	-0.00138736
5	0x3b4d7d1d	0.003135509
6	0x39e4b105	0.0004361944
7	0x3996f466	0.0002879232
8	0x3b407268	0.0029365066
9	0x3af867a3	0.0018951785
10	0x3b395f53	0.0028285577
11	0x3aac5f3c	0.0013150941
12	0x3ac3d363	0.0014940317
13	0x3afb6bbd	0.0019181889
14	0xbad85070	-0.0016503464
15	0xba898247	-0.0010491096
16	0x3b303caa	0.0026891627
17	0x3b72c9e3	0.0037046603

exp_avg_sq f4 [3, 3, 2]
0	0x3709735c	8.1926955e-06
1	0x36fda81b	7.5595576e-06
2	0x370fe767	8.577342e-06
3	0x3736855d	1.0879096e-05
4	0x38b7b431	8.759683e-05
5	0x38c4ba7a	9.380742e-05
6	0x3671ec40	3.6049314e-06
7	0x3615c2ea	2.2316185e-06
8	0x3698e17e	4.5562037e-06
9	0x36ac0778	5.126869e-06
10	0x3815f823	3.5755464e-05
11	0x37d26a70	2.5083515e-05
12	0x371e2158	9.425297e-06
13	0x374d7268	1.22455895e-05
14	0x3802d895	3.1196123e-05
15	0x37834124	1.564675e-05
16	0x391a65bb	0.00014724482
17	0x39e6d738	0.0004402937

exp_avg f4 [3]
0	0x3aadae5a	0.0013250813
1	0x00000000	0.0
2	0xbc57b90d	-0.013166678

exp_avg_sq f4 [3]
0	0x37174009	9.015211e-06
1	0x00000000	0.0
2	0x39b7ee4a	0.0003508202

exp_avg f4 [3, 1, 1]
0	0x3a1662da	0.0005736776
1	0x00000000	0.0
2	0xbb433a7b	-0.0029789496

exp_avg_sq f4 [3, 1, 1]
0	0x35e34230	1.6932081e-06
1	0x00000000	0.0
2	0x3819a1e7	3.6628826e-05

exp_avg f4 [3, 3, 2]
0	0x39bb2c19	0.00035700275
1	0x39c98704	0.00038438302
2	0x3a70b2c7	0.00091819133
3	0x39b4fc96	0.00034520467
4	0x39135c46	0.00014053387
5	0x39a67ed4	0.00031756482
6	0x00000000	0.0
7	0x00000000	0.0
8	0x00000000	0.0
9	0x00000000	0.0
10	0x00000000	0.0
11	0x00000000	0.0
12	0xba246e62	-0.0006272552
13	0xb9aa4570	-0.00032476662
14	0x3ab5e5f2	0.0013877733
15	0xba8aa610	-0.0010578055
16	0xb9996174	-0.00029255042
17	0xb9b61b07	-0.00034733882

exp_avg_sq f4 [3, 3, 2]
0	0x35529bde	7.8457913e-07
1	0x355f2abc	8.313616e-07
2	0x35b5b1fa	1.3537349e-06
3	0x348fcd4a	2.6785193e-07
4	0x33fe80e0	1.1851239e-07
5	0x3594ffb5	1.110128e-06
6	0x00000000	0.0
7	0x00000000	0.0
8	0x00000000	0.0
9	0x00000000	0.0
10	0x00000000	0.0
11	0x00000000	0.0
12	0x378af137	1.6563206e-05
13	0x371abd69	9.223216e-06
14	0x37a10aed	1.9197783e-05
15	0x37eaa602	2.7972277e-05
16	0x37058a2a	7.959587e-06
17	0x362a4bfc	2.5376203e-06

exp_avg f4 [3]
0	0x3a87dc7d	0.0010365393
1	0x3b014438	0.00197245
2	0x3d2af4f8	0.041737527

exp_avg_sq f4 [3]
0	0x379cd1a6	1.8694274e-05
1	0x3b7684ab	0.0037615697
2	0x3b99bc18	0.004691612

exp_avg f4 [3, 1, 1]
0	0x39fab45d	0.00047818097
1	0x3aaa6ead	0.0013002955
2	0x3c8c562a	0.01713093

exp_avg_sq f4 [3, 1, 1]
0	0x365c6a41	3.2844403e-06
1	0x3a469659	0.0007575504
2	0x3af6f789	0.0018842082

exp_avg f4 [3, 3, 2]
0	0x38f80e96	0.000118282784
1	0x3a0e4473	0.000542707
2	0x392d8d19	0.00016551129
3	0x395e31fd	0.00021190192
4	0x374bf3bf	1.2156494e-05
5	0x3a8fba17	0.0010965493
6	0x3b240e13	0.0025032803
7	0x3b7192de	0.0036861221
8	0x3b920a71	0.004456811
9	0x3b17feab	0.0023192565
10	0x3bd72cba	0.006566611
11	0x3ba3a172	0.004993611
12	0x3a239daf	0.0006241453
13	0x3b3dd965	0.0028968689
14	0x3c8ded7b	0.017325154
15	0x3ce6df2b	0.028182587
16	0x3d437980	0.047723293
17	0x3ce5f8a7	0.028072668

exp_avg_sq f4 [3, 3, 2]
0	0x35b4b1af	1.3462758e-06
1	0x36cf480c	6.177468e-06
2	0x349a58ca	2.8749338e-07
3	0x3545bc9f	7.36627e-07
4	0x369b4884	4.627802e-06
5	0x37b17737	2.1155558e-05
6	0x3a698634	0.00089082425
7	0x3b09bc33	0.0021016716
8	0x3a30f6b9	0.0006750632
9	0x3a700e33	0.0009157389
10	0x3bd086f2	0.006363743
11	0x3bcfa7cf	0.006337143
12	0x395ad555	0.00020869572
13	0x3a3f4579	0.0007296424
14	0x3a09668c	0.0005241416
15	0x3b39074c	0.002823311
16	0x3bae40ac	0.005317768
17	0x3c106d53	0.008815127

exp_avg f4 [5]
0	0xbb5ff070	-0.0034170412
1	0x3df067df	0.11738562
2	0xbda77c8d	-0.08178053
3	0xbd1d03dc	-0.03833376
4	0xbce29c74	-0.027662493

exp_avg_sq f4 [5]
0	0x3943b2f7	0.00018663319
1	0x3dbb1fb9	0.0913691
2	0x3d8426bc	0.064527005
3	0x3d721391	0.05910069
4	0x3d0778ce	0.033074193

exp_avg f4 [5, 1, 1]
0	0x3a004535	0.0004893125
1	0x3c6c827a	0.014435405
2	0x3bf154f0	0.0073648617
3	0x3b7c4eb6	0.0038499064
4	0xbb11d4bd	-0.0022252046

exp_avg_sq f4 [5, 1, 1]
0	0x381a13c5	3.6734873e-05
1	0x3c19888c	0.009370934
2	0x3b3486ff	0.0027546284
3	0x3887a91c	6.468801e-05
4	0x3a6c537c	0.00090151257

exp_avg f4 [5, 3, 2]
0	0x38fb6d77	0.00011989002
1	0x392bb02e	0.00016373463
2	0xb96248f8	-0.00021580223
3	0xb92f9ebc	-0.00016748434
4	0xba7f332f	-0.0009735105
5	0x39cb06ca	0.00038724235
6	0x3be92f7c	0.0071162563
7	0xbbd009cd	-0.0063488246
8	0x3bbfb220	0.0058500916
9	0x3b4cfb57	0.003127774
10	0x3ce850ad	0.028358782
11	0x3ccf9c66	0.025343131
12	0x3b83321e	0.004003777
13	0x3b8017ff	0.0039091106
14	0xbb9e0fa6	-0.004823643
15	0xbb0365df	-0.0020049734
16	0xbd2aabac	-0.041667625
17	0xb8890bc5	-6.534861e-05
18	0x3a8dc417	0.0010815886
19	0xbabfbe71	-0.00146289
20	0x39baf05c	0.00035655766
21	0x3a91c78f	0.0011122095
22	0xb95e8907	-0.00021222616
23	0xbc364a2d	-0.011126083
24	0xbad1a2cf	-0.0015993955
25	0x38a2ba82	7.759502e-05
26	0xbb311acb	-0.0027024026
27	0xbb28a099	-0.002573049
28	0xbb58b09a	-0.0033064247
29	0xbbc3a456	-0.005970518

exp_avg_sq f4 [5, 3, 2]
0	0x3616c037	2.2463626e-06
1	0x369f31f0	4.7443827e-06
2	0x360d4f42	2.1056771e-06
3	0x3705c0ec	7.972336e-06
4	0x37f304d7	2.8970111e-05
5	0x38138571	3.5171808e-05
6	0x3b3e8c3d	0.0029075288
7	0x3b0cf48e	0.002150807
8	0x3a3d0410	0.0007210383
9	0x387ea3eb	6.071098e-05
10	0x3c40d89e	0.011770396
11	0x3c221df6	0.009894839
12	0x3a5ef511	0.00085051457
13	0x3a5fbaab	0.00085345906
14	0x3913426d	0.00014043758
15	0x390572ba	0.00012726607
16	0x3ce9dc72	0.0285475
17	0x3c023562	0.007947298
18	0x36bfa7c9	5.7117763e-06
19	0x374177b3	1.1531566e-05
20	0x3792e458	1.7510887e-05
21	0x37c33849	2.3272021e-05
22	0x3befcc54	0.007318059
23	0x3c5955fc	0.013265129
24	0x39cb4736	0.00038772234
25	0x37642b97	1.3600008e-05
26	0x3a13f6eb	0.00056443986
27	0x39512955	0.0001994719
28	0x3b770519	0.0037692247
29	0x3b9a5652	0.004709997

exp_avg f4 [5, 3, 1]
0	0xbaff67c0	-0.0019485876
1	0xbbc4a66d	-0.006001285
2	0xbc254144	-0.010086361
3	0x3c89da97	0.016827865
4	0x3d5f1549	0.05446366
5	0x3dbcdad9	0.092214294
6	0xbd811f48	-0.063047945
7	0xbdd08d22	-0.10183169
8	0xbe93e2da	-0.28884012
9	0xbd6d8602	-0.057989128
10	0xbde7cb07	-0.11318021
11	0xbe7dd96c	-0.24789971
12	0xbcf675a5	-0.030085394
13	0xbd160ddd	-0.036634315
14	0xbe0aa544	-0.13539606

exp_avg_sq f4 [5, 3, 1]
0	0x37620125	1.3470916e-05
1	0x37c4eb68	2.347464e-05
2	0x38f5670a	0.00011701703
3	0x3c23dda3	0.010001573
4	0x3bfd19c2	0.007724018
5	0x3dbd57aa	0.09245236
6	0x3c9741be	0.018463966
7	0x3c1a9092	0.009433882
8	0x3e3ac708	0.18239987
9	0x3cb2e769	0.02183886
10	0x3c76e2a0	0.01506868
11	0x3e38ca07	0.18045817
12	0x3c554db7	0.013019017
13	0x3ba0e9d4	0.004910687
14	0x3dedc3b2	0.116095915

exp_avg f4 [5]
0	0xbb9ac405	-0.0047230744
1	0x3d99e267	0.07513886
2	0xbe290fb2	-0.16509894
3	0xbe2a5189	-0.16632666
4	0xbdb823ff	-0.08991241

exp_avg_sq f4 [5]
0	0x38fb95d1	0.00011996518
1	0x3d5b53af	0.053546604
2	0x3da2d960	0.07951617
3	0x3dc5fedd	0.09667752
4	0x3d71218d	0.058869887

quantiles_tensor f4 [5]
0	0x3c23d70a	0.01
1	0x3dcccccd	0.1
2	0x3f000000	0.5
3	0x3f666666	0.9
4	0x3f7d70a4	0.99
