darts_logs/TCN_emissions/checkpoints/last-epoch=49.ckpt (torch, 52651 bytes, 103 tensors)

res_blocks.0.conv1.bias f4 [3]
0	0xbe26415f	-0.16235875
1	0xbe6306e7	-0.22170602
2	0x3dd02f07	0.1016522

res_blocks.0.conv1.parametrizations.weight.original0 f4 [3, 1, 1]
0	0x3f096ba3	0.53679866
1	0x3f22cd53	0.6359455
2	0x3f17ba53	0.59268683

res_blocks.0.conv1.parametrizations.weight.original1 f4 [3, 7, 2]
0	0xbe58dbd8	-0.21177614
1	0xbe755295	-0.23957284
2	0x3d25bbb1	0.0404622
3	0xbe8d6314	-0.27614653
4	0x3c5083bd	0.012726721
5	0x3deabab9	0.11461396
6	0xbd5b4d53	-0.05354054
7	0x3e572734	0.21011049
8	0xbe31fb14	-0.17380935
9	0x3df25f4b	0.11834582
10	0x3db95250	0.09048903
11	0xbd814b4e	-0.06313191
12	0x3e17a678	0.14809597
13	0xbd1c4fa4	-0.03816189
14	0xbe423b12	-0.18967846
15	0xbd9e0873	-0.07716455
16	0xbe227b61	-0.15867378
17	0x3da6e1c2	0.08148529
18	0xbe12e637	-0.14345632
19	0xbe79f9b1	-0.24411656
20	0xbd55136f	-0.052020486
21	0xbe872f85	-0.26403442
22	0x3c20075b	0.009767379
23	0xbe85837c	-0.26076877
24	0x3e6bf426	0.23042354
25	0x3de728aa	0.11287053
26	0xbe0ae911	-0.1356547
27	0xbe24480d	-0.1604311
28	0xbd356979	-0.04429004
29	0x3e13c047	0.14428817
30	0xbd069614	-0.03285797
31	0xbe394b10	-0.1809504
32	0xbddeb4ad	-0.10874305
33	0x3e6ba168	0.2301079
34	0x3e708baa	0.23490778
35	0x3d7e5e31	0.062101547
36	0xba769d60	-0.0009407606
37	0xbe3b37d2	-0.18283013
38	0x3d7ff9af	0.062493976
39	0xbb0df067	-0.0021658184
40	0xbe270286	-0.16309556
41	0xbd87a2dc	-0.0662286

res_blocks.0.conv2.bias f4 [3]
0	0xbe079aa8	-0.1324259
1	0x3e6b198b	0.22958963
2	0xbe49cc3b	-0.19706814

res_blocks.0.conv2.parametrizations.weight.original0 f4 [3, 1, 1]
0	0x3f1e1ab2	0.61759484
1	0x3f09bf8c	0.538079
2	0x3f1cd061	0.6125546

res_blocks.0.conv2.parametrizations.weight.original1 f4 [3, 3, 2]
0	0xbec88a23	-0.3916789
1	0xbdbb2348	-0.09137589
2	0xbeab739a	-0.33486634
3	0xbeb96442	-0.36209303
4	0x3e4d75fc	0.20064539
5	0xbd948afb	-0.07253071
6	0x3eafe37e	0.3435325
7	0x3e7c7cac	0.24656934
8	0xbc79b3d5	-0.015240629
9	0x3dc89441	0.09793902
10	0x3e20ae40	0.15691471
11	0x3e47f7d5	0.19528134
12	0x3e8ca3b1	0.27468637
13	0xbec19ead	-0.37816373
14	0xbe9c81c4	-0.30567753
15	0x3e13de1f	0.14440201
16	0x3eaeaf38	0.34118056
17	0xbcea2120	-0.028580248

res_blocks.0.conv3.weight f4 [3, 7, 1]
0	0x3daa119b	0.08304139
1	0x3dbc9ca7	0.092095666
2	0xbec78ca8	-0.389745
3	0x3e0ee46e	0.13954327
4	0xbcb31573	-0.021860814
5	0x3e0ab40b	0.13545243
6	0xbd005d63	-0.03133906
7	0x3e49d55a	0.19710293
8	0x3c575934	0.013143826
9	0x3ef2dede	0.4743566
10	0xbe432cff	-0.19060133
11	0x3e4cab64	0.19987255
12	0x3e346dcc	0.17620009
13	0xbe4aab2d	-0.19791861
14	0x3d974b93	0.073874615
15	0x3e8198f3	0.25312003
16	0x3f113cb9	0.5673328
17	0x3eda4074	0.426273
18	0x3d8b6e6c	0.06808171
19	0x3eee4f6f	0.46544978
20	0xbd2b3009	-0.041793857

res_blocks.0.conv3.bias f4 [3]
0	0x3de0a2ce	0.109685525
1	0x3d81a98b	0.06331166
2	0x3ede2a7c	0.43391788

res_blocks.1.conv1.bias f4 [3]
0	0x3eb4423f	0.35206792
1	0xbe40c0a1	-0.18823482
2	0x3d15a426	0.036533497

res_blocks.1.conv1.parametrizations.weight.original0 f4 [3, 1, 1]
0	0x3f11329f	0.56717867
1	0x3ed3ec81	0.41391376
2	0x3f4ffe27	0.8124718

res_blocks.1.conv1.parametrizations.weight.original1 f4 [3, 3, 2]
0	0x3da8943e	0.082314
1	0xbee07e46	-0.4384634
2	0xbca510d7	-0.020149631
3	0x3d591622	0.052999623
4	0xbdc2a9cb	-0.09505042
5	0xbdd2346d	-0.10263906
6	0x3dfd4bf5	0.12368003
7	0x3e454f64	0.19268566
8	0x3dfef124	0.12448338
9	0xbde66dd1	-0.112514146
10	0xbe777312	-0.2416499
11	0xbe383d51	-0.1799214
12	0x3edac75a	0.42730218
13	0x3d7e1f59	0.062041614
14	0xbedf0bb9	-0.4356363
15	0x3ede2ac0	0.4339199
16	0xbe064952	-0.13113907
17	0xbe9dc4a4	-0.30814087

res_blocks.1.conv2.bias f4 [3]
0	0xbba66097	-0.0050774324
1	0x3eb13491	0.34610417
2	0x3e0e18b2	0.13876608

res_blocks.1.conv2.parametrizations.weight.original0 f4 [3, 1, 1]
0	0x3f5f8ea5	0.87327033
1	0x3efdade4	0.4954673
2	0x3ef92743	0.48662767

res_blocks.1.conv2.parametrizations.weight.original1 f4 [3, 3, 2]
0	0x3e80d01c	0.25158775
1	0x3ef081bf	0.46973988
2	0xbe197ea3	-0.14989714
3	0xbdfef5e3	-0.12449243
4	0xbe2133f7	-0.1574248
5	0xbe8c9956	-0.27460736
6	0x3e94ea7b	0.29085144
7	0xbe0b2537	-0.13588415
8	0x3e49ba1a	0.19699898
9	0xbe24c89a	-0.16092148
10	0xbeb6488e	-0.3560223
11	0xbea899ee	-0.3292994
12	0x3d3ee54f	0.046605404
13	0x3ed55842	0.41668898
14	0x3b177b75	0.0023114358
15	0xbcc180b1	-0.023620935
16	0xbdce321c	-0.10068151
17	0xbc19ef84	-0.009395484

res_blocks.2.conv1.bias f4 [3]
0	0xbdaa1bd0	-0.08306086
1	0xbec0986d	-0.37616292
2	0xbe5211b3	-0.20514564

res_blocks.2.conv1.parametrizations.weight.original0 f4 [3, 1, 1]
0	0x3f150e30	0.58224773
1	0x3f1d830e	0.615281
2	0x3ef5f1fa	0.48036176

res_blocks.2.conv1.parametrizations.weight.original1 f4 [3, 3, 2]
0	0x3e6510f4	0.22369748
1	0x3da90075	0.0825204
2	0xbd955a1c	-0.072925776
3	0x3ea6152a	0.32438022
4	0x3e0da092	0.13830784
5	0xbe7a5c59	-0.2444929
6	0x3e28f36d	0.1649911
7	0x3e99c8d4	0.30036032
8	0xbeed8c7b	-0.4639624
9	0x3d51b250	0.051195443
10	0xbe9f60a6	-0.31128424
11	0x3e142fa2	0.14471295
12	0xbe20d70b	-0.15707032
13	0xbeaa7f18	-0.3330009
14	0x3db46a06	0.08809285
15	0x3e2c946c	0.16853493
16	0xbee6d945	-0.45087638
17	0x3e09b55f	0.13448094

res_blocks.2.conv2.bias f4 [3]
0	0x3d07681f	0.033058282
1	0xbe907092	-0.28210884
2	0x3e2bccf7	0.16777407

res_blocks.2.conv2.parametrizations.weight.original0 f4 [3, 1, 1]
0	0x3f2334b2	0.6375228
1	0x3f380cb1	0.71894366
2	0x3f4e5980	0.80605316

res_blocks.2.conv2.parametrizations.weight.original1 f4 [3, 3, 2]
0	0xbe8d5f3e	-0.27611727
1	0xbd8e5e48	-0.069515765
2	0xbdee39cb	-0.11632117
3	0x3ec7b9cc	0.3900894
4	0xbe8c5c9c	-0.27414405
5	0x3e86a6a0	0.26299
6	0x3e86d454	0.26333869
7	0x3e94f0b9	0.29089907
8	0x3ebd5731	0.36980584
9	0xbd8c9207	-0.0686379
10	0xbe9a7656	-0.30168408
11	0xbec6bdfa	-0.38816816
12	0x3e1a26b4	0.15053827
13	0x3ec166ef	0.37773845
14	0x3eb0dfa1	0.34545615
15	0xbed5a11e	-0.41724485
16	0xbed489b0	-0.41511297
17	0x3e544a5b	0.2073149

res_blocks.3.conv1.bias f4 [3]
0	0x3e73903b	0.23785488
1	0xbdaeeb95	-0.085410275
2	0xbdc9de32	-0.098568335

res_blocks.3.conv1.parametrizations.weight.original0 f4 [3, 1, 1]
0	0x3f21a96b	0.63149136
1	0x3f5f7190	0.8728266
2	0x3f1b5389	0.6067434

res_blocks.3.conv1.parametrizations.weight.original1 f4 [3, 3, 2]
0	0x3dc70f2b	0.0971969
1	0x3ea47d95	0.3212706
2	0x3eb8253d	0.3596591
3	0x3e82a3c9	0.25515583
4	0xbec1c7b2	-0.37847668
5	0xbdb714c0	-0.089395046
6	0xbe278212	-0.16358212
7	0x3db484d7	0.088144
8	0x3e6bf738	0.23043525
9	0xbe9dc31e	-0.30812925
10	0xbea0e01c	-0.31420982
11	0x3ef9c4c2	0.48782927
12	0x3d3e3dbe	0.0464456
13	0x3c7b558e	0.015340222
14	0xbc4d273b	-0.01252156
15	0x3e0a9a56	0.13535437
16	0x3e5ce4b3	0.21571617
17	0xbe7a2bb4	-0.24430734

res_blocks.3.conv2.bias f4 [3]
0	0xbe465ae5	-0.19370611
1	0xbeab8cec	-0.33505952
2	0x3d2a049d	0.041508306

res_blocks.3.conv2.parametrizations.weight.original0 f4 [3, 1, 1]
0	0x3ee4f949	0.4472144
1	0x3f037cb0	0.51362133
2	0x3f3d7a21	0.7401448

res_blocks.3.conv2.parametrizations.weight.original1 f4 [3, 3, 2]
0	0x3e90ffe8	0.2832024
1	0xbe828bfc	-0.25497425
2	0x3dfd9787	0.12382417
3	0xbe2f1d48	-0.17101014
4	0xbe1a1e6d	-0.15050669
5	0xbe6b78c0	-0.22995281
6	0xbd89beb0	-0.06725824
7	0xbebc8b11	-0.3682485
8	0xbde86050	-0.11346495
9	0xbbf509cf	-0.007477976
10	0x3e9c1ffb	0.3049315
11	0xbe08b9ef	-0.13352178
12	0x3db998df	0.09062361
13	0x3e7d0593	0.24709158
14	0x3bb8d7c5	0.005640956
15	0xbe8b21eb	-0.27174315
16	0x3daa471a	0.08314343
17	0x3eed0207	0.4629061

res_blocks.4.conv1.bias f4 [3]
0	0xbe6e235c	-0.23255676
1	0xbe25f120	-0.16205263
2	0x3e0f715c	0.14008087

res_blocks.4.conv1.parametrizations.weight.original0 f4 [3, 1, 1]
0	0x3f0e3294	0.55545926
1	0x3eed15cc	0.46305692
2	0x3ec8816b	0.39161238

res_blocks.4.conv1.parametrizations.weight.original1 f4 [3, 3, 2]
0	0xbe857222	-0.2606364
1	0xbebe357e	-0.37150186
2	0xbe864576	-0.2622487
3	0xbeb8a606	-0.36064166
4	0xbe4dc5b7	-0.20094953
5	0x3e98e988	0.2986567
6	0xbddad538	-0.106851995
7	0xbed8a3cf	-0.42312476
8	0x3e2ef02e	0.17083809
9	0xbdccc6e9	-0.099988766
10	0x3df7cc42	0.12099506
11	0x3d61fd78	0.055173367
12	0x3e1beea5	0.15227754
13	0x3c6b05ba	0.014344627
14	0xbcb1089b	-0.021610549
15	0xbec15294	-0.37758315
16	0x3e18b45b	0.1491255
17	0xbd59bebb	-0.05316041

res_blocks.4.conv2.bias f4 [5]
0	0xbd3fa68b	-0.046789687
1	0x3e1f5d8f	0.15563034
2	0x3d9d6528	0.0768531
3	0x3e828f74	0.2550007
4	0x3e01245e	0.12611529

res_blocks.4.conv2.parametrizations.weight.original0 f4 [5, 1, 1]
0	0x3ef74feb	0.4830316
1	0x3f09f5eb	0.53890866
2	0x3f59df5a	0.8510643
3	0x3f10cd3f	0.5656318
4	0x3f310e43	0.69162387

res_blocks.4.conv2.parametrizations.weight.original1 f4 [5, 3, 2]
0	0xbe756e11	-0.23967768
1	0xbe9b8b10	-0.30379534
2	0x3e8fb8a8	0.2807057
3	0x3ec9427f	0.39308545
4	0xbd4deefa	-0.050276734
5	0x3e905e50	0.28196955
6	0xbef3513f	-0.47522923
7	0x3ed8ad30	0.42319632
8	0xbe811fde	-0.25219625
9	0xbdc7822b	-0.097416244
10	0x3dae1ef4	0.085019976
11	0x3e483108	0.19549954
12	0xbe89d39d	-0.2691926
13	0xbe89a420	-0.2688303
14	0x3da8ce76	0.08242504
15	0xbd11475c	-0.035468444
16	0xbd6e746d	-0.0582165
17	0x3f00ad36	0.502643
18	0xbe621a2c	-0.22080296
19	0x3e9838a6	0.2973072
20	0xbea37005	-0.31921402
21	0xbed2a5c0	-0.41142082
22	0x3e8d3291	0.27577642
23	0xbde752b7	-0.112950735
24	0xbe8ab3b0	-0.27090216
25	0x3d10dfbf	0.03536963
26	0xbe97bec8	-0.29637742
27	0xbdcf3473	-0.10117426
28	0x3e3d8bad	0.18510313
29	0x3e4982ce	0.19678804

res_blocks.4.conv3.weight f4 [5, 3, 1]
0	0xbe673b7c	-0.22581285
1	0x3cd4b57d	0.025965447
2	0xbe8687d8	-0.26275516
3	0xbf0b6dcb	-0.54464406
4	0x3eb4a36e	0.35280937
5	0xbeafc00f	-0.34326217
6	0xbec73956	-0.3891093
7	0x3effdcbe	0.499731
8	0xbebaae50	-0.36461115
9	0xbdcab496	-0.09897725
10	0xbe0dfb9c	-0.13865513
11	0x3eff3271	0.4984317
12	0x3ec727fb	0.3889769
13	0x3eec8353	0.46193942
14	0x3d47f5a9	0.048818264

res_blocks.4.conv3.bias f4 [5]
0	0x3ecc01af	0.39845034
1	0x3e6ab268	0.22919619
2	0x3ec91cdd	0.39279833
3	0xbeb6f099	-0.35730436
4	0x3ccc739f	0.024957476

exp_avg f4 [3]
0	0x00000004	6e-45
1	0x00000000	0.0
2	0x3b6f2c42	0.0036494886

exp_avg_sq f4 [3]
0	0x32a6fb6b	1.9439275e-08
1	0x00000000	0.0
2	0x389ac0a8	7.379177e-05

exp_avg f4 [3, 1, 1]
0	0x00000004	6e-45
1	0x00000000	0.0
2	0xb9e12b88	-0.00042947778

exp_avg_sq f4 [3, 1, 1]
0	0x310aa38f	2.0174615e-09
1	0x00000000	0.0
2	0x35e9c16e	1.7416148e-06

exp_avg f4 [3, 7, 2]
0	0x00000004	6e-45
1	0x00000004	6e-45
2	0x00000004	6e-45
3	0x00000004	6e-45
4	0x00000004	6e-45
5	0x00000004	6e-45
6	0x00000004	6e-45
7	0x00000004	6e-45
8	0x00000004	6e-45
9	0x00000004	6e-45
10	0x80000004	-6e-45
11	0x00000004	6e-45
12	0x00000004	6e-45
13	0x00000004	6e-45
14	0x00000000	0.0
15	0x00000000	0.0
16	0x00000000	0.0
17	0x00000000	0.0
18	0x00000000	0.0
19	0x00000000	0.0
20	0x00000000	0.0
21	0x00000000	0.0
22	0x00000000	0.0
23	0x00000000	0.0
24	0x00000000	0.0
25	0x00000000	0.0
26	0x00000000	0.0
27	0x00000000	0.0
28	0xb9a04661	-0.00030570014
29	0xbabfe6dc	-0.0014640945
30	0xb9c760ca	-0.0003802835
31	0x395a2315	0.00020803169
32	0x3a85837a	0.0010186278
33	0x3abf7687	0.0014607467
34	0x39ff65ac	0.00048713142
35	0x39e14b2a	0.00042971346
36	0x3a1331a6	0.0005615003
37	0xb95a9d7b	-0.00020848766
38	0x3b4cd4de	0.0031254808
39	0x3b3c4518	0.0028727707
40	0x3ad14364	0.0015965519
41	0x3ad98d70	0.0016597938

exp_avg_sq f4 [3, 7, 2]
0	0x30237b35	5.947414e-10
1	0x3053dd67	7.7075984e-10
2	0x31a6a1a9	4.8496145e-09
3	0x3212fb57	8.555467e-09
4	0x318380e0	3.827253e-09
5	0x315533e2	3.1025071e-09
6	0x31f895ba	7.234772e-09
7	0x31911470	4.222379e-09
8	0x3025fcd9	6.038597e-10
9	0x2dc61071	2.2517295e-11
10	0x309ce91f	1.1416751e-09
11	0x3105040c	1.9356348e-09
12	0x325534db	1.241025e-08
13	0x3288f412	1.5943474e-08
14	0x00000000	0.0
15	0x00000000	0.0
16	0x00000000	0.0
17	0x00000000	0.0
18	0x00000000	0.0
19	0x00000000	0.0
20	0x00000000	0.0
21	0x00000000	0.0
22	0x00000000	0.0
23	0x00000000	0.0
24	0x00000000	0.0
25	0x00000000	0.0
26	0x00000000	0.0
27	0x00000000	0.0
28	0x371a884e	9.210851e-06
29	0x3738c64e	1.1013426e-05
30	0x375c0c9e	1.31159595e-05
31	0x3779a989	1.48810295e-05
32	0x3771056d	1.4365983e-05
33	0x3759196d	1.2940128e-05
34	0x375927db	1.29434875e-05
35	0x377c9c58	1.5056772e-05
36	0x3695d235	4.4650174e-06
37	0x36c8ef4d	5.9883228e-06
38	0x385daeb3	5.2853207e-05
39	0x3865551a	5.467711e-05
40	0x37927e34	1.7463324e-05
41	0x379795ac	1.80703e-05

exp_avg f4 [3]
0	0x00000004	6e-45
1	0x3c75f321	0.01501158
2	0x80000004	-6e-45

exp_avg_sq f4 [3]
0	0x2f37b57b	1.6708228e-10
1	0x3a1d850b	0.00060088997
2	0x317ab305	3.648155e-09

exp_avg f4 [3, 1, 1]
0	0x00000004	6e-45
1	0x3962e689	0.0002163892
2	0x80000004	-6e-45

exp_avg_sq f4 [3, 1, 1]
0	0x2ceb358d	6.685047e-12
1	0x36d67b7b	6.392072e-06
2	0x2fd015c6	3.785045e-10

exp_avg f4 [3, 3, 2]
0	0x00000004	6e-45
1	0x00000004	6e-45
2	0x00000004	6e-45
3	0x00000004	6e-45
4	0x00000004	6e-45
5	0x00000004	6e-45
6	0xb926d6ca	-0.00015911009
7	0xb8ef7f08	-0.000114200695
8	0x36ecd8d6	7.058591e-06
9	0xb83e4224	-4.536113e-05
10	0x3a1d1438	0.00059920875
11	0xb80efba5	-3.40898e-05
12	0x00000004	6e-45
13	0x80000004	-6e-45
14	0x80000004	-6e-45
15	0x00000004	6e-45
16	0x80000004	-6e-45
17	0x80000004	-6e-45

exp_avg_sq f4 [3, 3, 2]
0	0x2c112e7b	2.0631541e-12
1	0x29d394f4	9.3961216e-14
2	0x2bd263d9	1.4949111e-12
3	0x2bf7157c	1.7556369e-12
4	0x2e52ff6a	4.7975325e-11
5	0x29794137	5.534567e-14
6	0x366860ad	3.4626967e-06
7	0x35ee9e6d	1.777849e-06
8	0x31d42e31	6.1752634e-09
9	0x34941d72	2.7588572e-07
10	0x37187cf9	9.0890035e-06
11	0x370903be	8.166708e-06
12	0x2e6c48b9	5.3724778e-11
13	0x2ee2b28a	1.0309005e-10
14	0x2e92f514	6.682846e-11
15	0x2d7acd3b	1.4256425e-11
16	0x303c8874	6.8587913e-10
17	0x2fcb5f43	3.6993172e-10

exp_avg f4 [3, 7, 1]
0	0x3b888bfc	0.004167078
1	0xb9e3e290	-0.00043465616
2	0xbaffac4e	-0.0019506307
3	0xb9830104	-0.00024987024
4	0x3a822886	0.000993029
5	0x3bc175e4	0.0059039462
6	0xbc3ff7de	-0.011716811
7	0xbc36799c	-0.011137392
8	0xbb67ad7a	-0.0035351203
9	0xbb725b2a	-0.0036980608
10	0xbbca7916	-0.0061789853
11	0xbb92f78a	-0.0044850754
12	0xbbfbb55e	-0.0076815328
13	0xb981cefc	-0.00024759013
14	0xbad839f5	-0.0016496765
15	0xb997514d	-0.00028861538
16	0xbb357189	-0.002768608
17	0xba20267c	-0.000610925
18	0xbae9864b	-0.0017816512
19	0xbb27ab31	-0.0025584216
20	0xbbf50b42	-0.0074781487

exp_avg_sq f4 [3, 7, 1]
0	0x38a3923b	7.799683e-05
1	0x38c71a1f	9.493925e-05
2	0x389ebc8d	7.5691474e-05
3	0x38d63a52	0.00010215178
4	0x37f547c3	2.9239693e-05
5	0x39a202fe	0.00030901277
6	0x392fabaf	0.00016753258
7	0x395c3d51	0.00021003677
8	0x38d48874	0.00010134364
9	0x38da9a0c	0.000104237435
10	0x391fcdc0	0.0001524007
11	0x3849d035	4.8116042e-05
12	0x398dd865	0.00027054842
13	0x3908d4e4	0.00013049279
14	0x3752a3d5	1.25551205e-05
15	0x37ebb860	2.810004e-05
16	0x37c636aa	2.3628894e-05
17	0x37faa924	2.9881085e-05
18	0x3713abb6	8.801862e-06
19	0x3851664a	4.9924747e-05
20	0x388cc143	6.711718e-05

exp_avg f4 [3]
0	0xbbc07404	-0.005873205
1	0xbbf9c5c6	-0.0076224534
2	0xbc250418	-0.010071777

exp_avg_sq f4 [3]
0	0x3a05d6eb	0.00051055726
1	0x3a195434	0.0005849034
2	0x39425c42	0.0001853565

exp_avg f4 [3]
0	0xbc0744dd	-0.008256164
1	0x00000000	0.0
2	0xb8c562a2	-9.412064e-05

exp_avg_sq f4 [3]
0	0x3a614c07	0.0008594398
1	0x00000000	0.0
2	0x3424ce19	1.5348668e-07

exp_avg f4 [3, 1, 1]
0	0x3b0cc06e	0.0021477002
1	0x00000000	0.0
2	0xb319a164	-3.5769872e-08

exp_avg_sq f4 [3, 1, 1]
0	0x395c2317	0.00020993907
1	0x00000000	0.0
2	0x2f482715	1.8203779e-10

exp_avg f4 [3, 3, 2]
0	0xb9b4ddaf	-0.00034497443
1	0x3b5c4c9e	0.0033615003
2	0xbb059a5c	-0.0020386195
3	0xb9a2f899	-0.00031084268
4	0xbc39ba62	-0.011335941
5	0xbb7f8777	-0.0038990655
6	0x00000000	0.0
7	0x00000000	0.0
8	0x00000000	0.0
9	0x00000000	0.0
10	0x00000000	0.0
11	0x00000000	0.0
12	0x329da5ab	1.8352543e-08
13	0xb729a1e0	-1.0110874e-05
14	0xb2a0b8eb	-1.8710542e-08
15	0xb8873645	-6.44741e-05
16	0xb1c18704	-5.6323888e-09
17	0xb8c28f00	-9.277277e-05

exp_avg_sq f4 [3, 3, 2]
0	0x38447e85	4.6847872e-05
1	0x3927c31a	0.00015999042
2	0x3986f14c	0.00025738252
3	0x39ce1f00	0.0003931448
4	0x3a989c1a	0.0011643202
5	0x3aa1a17c	0.0012331451
6	0x00000000	0.0
7	0x00000000	0.0
8	0x00000000	0.0
9	0x00000000	0.0
10	0x00000000	0.0
11	0x00000000	0.0
12	0x321f7b3f	9.283041e-09
13	0x324ca408	1.1911659e-08
14	0x3149115e	2.9259222e-09
15	0x3386c73f	6.276104e-08
16	0x32a138c0	1.8768674e-08
17	0x3426292f	1.5474937e-07

exp_avg f4 [3]
0	0xbc719af4	-0.014746416
1	0x3cbb5b42	0.022870664
2	0x3aede45e	0.0018149724

exp_avg_sq f4 [3]
0	0x3a2d73fd	0.000661671
1	0x3a60ffd5	0.0008583044
2	0x39a30b47	0.00031098185

exp_avg f4 [3, 1, 1]
0	0xbaf50368	-0.0018693032
1	0x3a132806	0.0005613569
2	0xba35f7e1	-0.0006941539

exp_avg_sq f4 [3, 1, 1]
0	0x36ec1561	7.035837e-06
1	0x353dbb6b	7.0680716e-07
2	0x35fa744e	1.8660301e-06

exp_avg f4 [3, 3, 2]
0	0xbaddd50d	-0.0016924456
1	0xb9656612	-0.00021877166
2	0xba17f64e	-0.0005796895
3	0xb9fc6a3b	-0.00048144333
4	0xba1cba7f	-0.0005978718
5	0xba894797	-0.0010473606
6	0x3abdc596	0.0014478441
7	0x3ad07cb8	0.001590631
8	0xb90e94e3	-0.0001359764
9	0x38e8f073	0.00011107409
10	0x397f8f96	0.00024372185
11	0x396a28f2	0.00022331232
12	0xbaa121e1	-0.0012293422
13	0x38bcdecc	9.006038e-05
14	0x368c6b23	4.1847975e-06
15	0xb8335c20	-4.2762724e-05
16	0xb9425ed7	-0.00018536612
17	0xb714c343	-8.86695e-06

exp_avg_sq f4 [3, 3, 2]
0	0x36ac147f	5.1283855e-06
1	0x35173933	5.633512e-07
2	0x3538c8d6	6.8837596e-07
3	0x3500688e	4.7835863e-07
4	0x354b8c1b	7.5827273e-07
5	0x361839fa	2.2683512e-06
6	0x3662dd43	3.3805416e-06
7	0x369ae27f	4.6159253e-06
8	0x332f73f8	4.0850836e-08
9	0x32951851	1.735694e-08
10	0x34338b8c	1.6721441e-07
11	0x34191eee	1.4260488e-07
12	0x362e3556	2.5959066e-06
13	0x32bbc1d0	2.1857801e-08
14	0x2f982e40	2.7681502e-10
15	0x320cb957	8.191214e-09
16	0x340e429e	1.3249016e-07
17	0x312050b5	2.332894e-09

exp_avg f4 [3]
0	0x35e430b1	1.7001495e-06
1	0xb53fb2df	-7.1413336e-07
2	0xb92a9963	-0.00016269604

exp_avg_sq f4 [3]
0	0x37d4ef37	2.5383762e-05
1	0x31c08ddc	5.604063e-09
2	0x35126274	5.4532507e-07

exp_avg f4 [3, 1, 1]
0	0xb9b9afc6	-0.0003541691
1	0xb4eadff2	-4.3748838e-07
2	0xb8838692	-6.2716324e-05

exp_avg_sq f4 [3, 1, 1]
0	0x368b12be	4.1447047e-06
1	0x310f1419	2.0820663e-09
2	0x340caeab	1.310206e-07

exp_avg f4 [3, 3, 2]
0	0x39ae68d2	0.00033265963
1	0x395049e9	0.0001986396
2	0x38cf1319	9.8740864e-05
3	0x3929910e	0.00016171133
4	0x3ae49a4e	0.0017441006
5	0x3aca4323	0.0015431385
6	0x33d276e8	9.800516e-08
7	0xb03821b4	-6.6986705e-10
8	0xb493f577	-2.7559483e-07
9	0xb53d0ea4	-7.042929e-07
10	0xb44689e6	-1.8490354e-07
11	0xb5995850	-1.1425091e-06
12	0xb749f52e	-1.2037619e-05
13	0xb8273d5f	-3.987306e-05
14	0x36e28942	6.7513038e-06
15	0xb8b3a01b	-8.565207e-05
16	0xb810ee83	-3.4554407e-05
17	0xb903d546	-0.00012572584

exp_avg_sq f4 [3, 3, 2]
0	0x3439639b	1.7265704e-07
1	0x35199d19	5.722555e-07
2	0x3817c428	3.618389e-05
3	0x37b99ddf	2.2127233e-05
4	0x385f07e1	5.317468e-05
5	0x38a54b7c	7.881873e-05
6	0x2f3da9db	1.7249795e-10
7	0x2f03fcc3	1.200418e-10
8	0x305617b1	7.7886414e-10
9	0x319902d7	4.453209e-09
10	0x308391eb	9.572977e-10
11	0x321703e0	8.790238e-09
12	0x31a6b243	4.851502e-09
13	0x3392ad58	6.830186e-08
14	0x30da26a3	1.5872569e-09
15	0x348c37c2	2.61176e-07
16	0x332b5b62	3.9897152e-08
17	0x35218d74	6.0183015e-07

exp_avg f4 [3]
0	0xbaa1da3d	-0.0012348365
1	0x80000004	-6e-45
2	0x3c2af061	0.010433287

exp_avg_sq f4 [3]
0	0x39e53aeb	0.0004372218
1	0x33115e0e	3.3845986e-08
2	0x39ef112c	0.00045598426

exp_avg f4 [3, 1, 1]
0	0x38ff109c	0.00012162441
1	0x80000004	-6e-45
2	0xb9b68aae	-0.0003481707

exp_avg_sq f4 [3, 1, 1]
0	0x345c9051	2.0541599e-07
1	0x31ca8340	5.893895e-09
2	0x35b03e6b	1.3131188e-06

exp_avg f4 [3, 3, 2]
0	0x3851483f	4.9896767e-05
1	0xba92b5b2	-0.0011193065
2	0x37c1794e	2.306388e-05
3	0xb8a23163	-7.733961e-05
4	0x38be5f13	9.077615e-05
5	0xb7c8ca7c	-2.3936147e-05
6	0x80000004	-6e-45
7	0x80000004	-6e-45
8	0x00000004	6e-45
9	0x80000004	-6e-45
10	0x80000004	-6e-45
11	0x80000004	-6e-45
12	0x3a3ae0ec	0.0007128853
13	0xba618089	-0.0008602222
14	0x3916d072	0.00014382767
15	0xb9362669	-0.00017371181
16	0xb9316ba3	-0.00016920133
17	0x38ff15e0	0.00012163422

exp_avg_sq f4 [3, 3, 2]
0	0x34929b98	2.7307829e-07
1	0x36b13bcb	5.281972e-06
2	0x31f93b87	7.2536213e-09
3	0x33b15937	8.258433e-08
4	0x33360d04	4.2387015e-08
5	0x33334c07	4.174583e-08
6	0x31a36358	4.7552184e-09
7	0x319e0372	4.598797e-09
8	0x30c35675	1.421269e-09
9	0x2e3f2114	4.345775e-11
10	0x308460e0	9.631798e-10
11	0x30dccff8	1.6066215e-09
12	0x36528092	3.1367276e-06
13	0x36372d13	2.7295362e-06
14	0x346fc29a	2.2329405e-07
15	0x34aeef66	3.258421e-07
16	0x34acd26c	3.21906e-07
17	0x33b95436	8.630052e-08

exp_avg f4 [3]
0	0xbb0b4447	-0.0021250413
1	0x3b40fd7a	0.0029447959
2	0xbb278812	-0.0025563282

exp_avg_sq f4 [3]
0	0x3863e4be	5.433405e-05
1	0x37dda246	2.6420817e-05
2	0x38c68e5c	9.467892e-05

exp_avg f4 [3, 1, 1]
0	0x3a026eb9	0.00049756054
1	0x3958e519	0.00020684711
2	0xbac6544d	-0.0015131325

exp_avg_sq f4 [3, 1, 1]
0	0x358cfd60	1.0504555e-06
1	0x35f517ac	1.8260812e-06
2	0x3739eccb	1.1081992e-05

exp_avg f4 [3, 3, 2]
0	0xb9bcba0b	-0.00035996767
1	0xb9a11a34	-0.00030727836
2	0xb993adc2	-0.00028167485
3	0xba8f0dbb	-0.0010914126
4	0xbab67cdc	-0.0013922709
5	0x391dc4c5	0.00015045989
6	0x3a1a535c	0.00058870553
7	0x398ed8ee	0.00027245976
8	0x3ac76eb3	0.0015215486
9	0x3b3138eb	0.0027041982
10	0x3b4d597a	0.003133385
11	0x3b4ed000	0.0031557083
12	0xb8823c3c	-6.2101026e-05
13	0x37e28752	2.7004313e-05
14	0xb90668de	-0.00012818302
15	0xba003338	-0.00048904447
16	0xb775155b	-1.460811e-05
17	0xb996aacc	-0.00028737483

exp_avg_sq f4 [3, 3, 2]
0	0x360323aa	1.954128e-06
1	0x3627bb8e	2.499411e-06
2	0x3841f0c8	4.623903e-05
3	0x384369e0	4.6590227e-05
4	0x38d92ae3	0.000103553546
5	0x38f15bec	0.00011508897
6	0x361a3f25	2.2984543e-06
7	0x3568fe34	8.679665e-07
8	0x37ebf759	2.8129363e-05
9	0x38375f48	4.3719338e-05
10	0x38d348b1	0.00010074804
11	0x3895ac59	7.136976e-05
12	0x36d65f6e	6.3888065e-06
13	0x37075852	8.067191e-06
14	0x39813b91	0.00024649178
15	0x3959c2d5	0.00020767313
16	0x3a100dc4	0.00054952153
17	0x3a542508	0.0008092676

exp_avg f4 [3]
0	0x38bbb3cc	8.9503446e-05
1	0x00000000	0.0
2	0xbc294f7a	-0.01033389

exp_avg_sq f4 [3]
0	0x34181f81	1.4167564e-07
1	0x00000000	0.0
2	0x39b7aa93	0.00035031568

exp_avg f4 [3, 1, 1]
0	0x38253af5	3.9393974e-05
1	0x00000000	0.0
2	0xbaa7845e	-0.0012780537

exp_avg_sq f4 [3, 1, 1]
0	0x32f59ac0	2.8592126e-08
1	0x00000000	0.0
2	0x36fc5170	7.519666e-06

exp_avg f4 [3, 3, 2]
0	0x37a74e00	1.9944273e-05
1	0x37b0e18c	2.1085863e-05
2	0x38727794	5.7808662e-05
3	0x376839c8	1.3841731e-05
4	0x3727aaa0	9.993702e-06
5	0x3781d36e	1.5476453e-05
6	0x00000000	0.0
7	0x00000000	0.0
8	0x00000000	0.0
9	0x00000000	0.0
10	0x00000000	0.0
11	0x00000000	0.0
12	0x3a0022bc	0.00048879883
13	0xb98b3a80	-0.00026555732
14	0x3a5a9141	0.00083376846
15	0xb9d11a66	-0.00039883255
16	0xb78e60e1	-1.6972832e-05
17	0xb94cab26	-0.00019518714

exp_avg_sq f4 [3, 3, 2]
0	0x32226596	9.452739e-09
1	0x3213a1f7	8.593353e-09
2	0x333a025f	4.3308656e-08
3	0x318005fb	3.72597e-09
4	0x3102cbce	1.903334e-09
5	0x322be5c0	1.0005749e-08
6	0x00000000	0.0
7	0x00000000	0.0
8	0x00000000	0.0
9	0x00000000	0.0
10	0x00000000	0.0
11	0x00000000	0.0
12	0x3782954c	1.556673e-05
13	0x37555058	1.2714496e-05
14	0x378e2a42	1.6947397e-05
15	0x377de670	1.5133628e-05
16	0x35dc1378	1.6396943e-06
17	0x3565fe59	8.567927e-07

exp_avg f4 [3]
0	0x38ce1715	9.827145e-05
1	0xbbcb401c	-0.006202711
2	0x3c9cad6e	0.019125666

exp_avg_sq f4 [3]
0	0x347e0550	2.3657526e-07
1	0x39f551d4	0.00046791008
2	0x3a12ce05	0.00056001573

exp_avg f4 [3, 1, 1]
0	0x383b073b	4.459101e-05
1	0xb9fbba88	-0.00048013427
2	0xbabede19	-0.001456204

exp_avg_sq f4 [3, 1, 1]
0	0x33504ec9	4.850043e-08
1	0x39210d4b	0.00015359109
2	0x37e7d72f	2.7637549e-05

exp_avg f4 [3, 3, 2]
0	0x374aaf6b	1.2080981e-05
1	0x3840fa8a	4.60097e-05
2	0x374bf060	1.215571e-05
3	0x38170821	3.6008776e-05
4	0x371c44fb	9.314385e-06
5	0x39066ce9	0.00012819808
6	0xba6abf79	-0.0008954923
7	0xba992a7e	-0.0011685637
8	0x3a679563	0.0008834211
9	0xbb56a41b	-0.0032751623
10	0xbbaa43da	-0.005196077
11	0xbc029cd2	-0.007971959
12	0x3b4c2c1f	0.0031154228
13	0x3b25dbe7	0.0025308074
14	0x3bde0369	0.006775309
15	0x3bee7527	0.0072771492
16	0x3cba4df9	0.022742258
17	0x3c9b5667	0.018962098

exp_avg_sq f4 [3, 3, 2]
0	0x322be4ca	1.0005531e-08
1	0x335cb2e6	5.138545e-08
2	0x3184a3f9	3.860347e-09
3	0x32f4239e	2.8421535e-08
4	0x32f2a186	2.824596e-08
5	0x34a929c4	3.1509092e-07
6	0x383a0692	4.4351975e-05
7	0x39487946	0.00019118664
8	0x399d497a	0.00030000118
9	0x3a03e0e7	0.00050307665
10	0x3a8b2e6c	0.0010618693
11	0x3a95375c	0.0011384296
12	0x37cefcfb	2.4674917e-05
13	0x3799ae2c	1.8320126e-05
14	0x398e92bc	0.00027193676
15	0x39069919	0.00012836269
16	0x3a9ad6f7	0.0011813332
17	0x3a81cedd	0.0009903569

exp_avg f4 [5]
0	0x3c0021b7	0.007820538
1	0x3cfb1e66	0.030654144
2	0x3d65ba60	0.056085944
3	0x3d3a8a1a	0.04554186
4	0xbc03a613	-0.008035201

exp_avg_sq f4 [5]
0	0x386c5891	5.634927e-05
1	0x3afa20ab	0.0019083222
2	0x3ba562df	0.0050471867
3	0x3b2ec92b	0.0026670198
4	0x39d05b22	0.0003974075

exp_avg f4 [5, 1, 1]
0	0x3b1354c0	0.0022480935
1	0x39c75661	0.00038020595
2	0x3b094786	0.0020947172
3	0xbab69e1a	-0.0013932616
4	0x3a6682fd	0.00087933225

exp_avg_sq f4 [5, 1, 1]
0	0x36549fec	3.1683549e-06
1	0x3869167b	5.5572465e-05
2	0x37b348a0	2.1372281e-05
3	0x3748ed6f	1.1976211e-05
4	0x36e3ea5e	6.792411e-06

exp_avg f4 [5, 3, 2]
0	0x3a12ab2c	0.00055949646
1	0x3a39ec84	0.00070924335
2	0xb91a7ca5	-0.00014733018
3	0x390a80d9	0.00013208705
4	0x392b806f	0.00016355676
5	0x3aa1673e	0.0012314094
6	0x39478fc1	0.00019031671
7	0xb92ee6da	-0.00016679932
8	0xb9bb3b3e	-0.00035711558
9	0xba1816f0	-0.0005801758
10	0x3ae271f8	0.0017276397
11	0xba31945a	-0.000677412
12	0x3a992c5c	0.0011686194
13	0x3a983665	0.001161289
14	0x3bb8d5f9	0.005640742
15	0x3b039373	0.00200769
16	0x3ba51c81	0.0050387983
17	0x3a8942ff	0.0010472237
18	0xb9b6ce65	-0.0003486752
19	0x39f7cf56	0.00047265989
20	0x3aa04438	0.0012227362
21	0x3a64c139	0.0008726302
22	0x3b24e417	0.0025160366
23	0x3abc0b70	0.001434667
24	0x3a2fd6cc	0.00067077274
25	0xb8b76db5	-8.7465545e-05
26	0xba8c677e	-0.0010711995
27	0xbb1d0b8e	-0.0023963186
28	0xb9c81570	-0.00038162945
29	0xbacacd29	-0.001547252

exp_avg_sq f4 [5, 3, 2]
0	0x34526070	1.9592858e-07
1	0x34ad043c	3.2226842e-07
2	0x33cf4363	9.651446e-08
3	0x33cec57f	9.628547e-08
4	0x3487a3da	2.5264927e-07
5	0x358ce321	1.0496916e-06
6	0x37900e58	1.7172817e-05
7	0x3755593e	1.2716568e-05
8	0x36dd83f8	6.6016764e-06
9	0x365834ee	3.2217317e-06
10	0x38983924	7.258568e-05
11	0x387be76c	6.005859e-05
12	0x36de0512	6.616706e-06
13	0x36ddebaf	6.6137504e-06
14	0x387be3bc	6.0055158e-05
15	0x385c2ea6	5.2495532e-05
16	0x39454071	0.0001881139
17	0x384b05fb	4.840454e-05
18	0x354e047c	7.6747506e-07
19	0x35bbf01a	1.4002464e-06
20	0x36462010	2.9522962e-06
21	0x360a86a3	2.0641971e-06
22	0x384fe0a7	4.956187e-05
23	0x38a6cee6	7.954035e-05
24	0x36538302	3.1517707e-06
25	0x33cbbd40	9.4873485e-08
26	0x36e4b377	6.815822e-06
27	0x37241276	9.77946e-06
28	0x37befe7e	2.2768272e-05
29	0x380c64ef	3.3472603e-05

exp_avg f4 [5, 3, 1]
0	0x39d6e602	0.0004098863
1	0xba3e7740	-0.00072656944
2	0x3bab93a1	0.0052361046
3	0xba8808a3	-0.001037855
4	0x3c09ba2a	0.008406201
5	0xbbb568b3	-0.0055361628
6	0x38aaf6e0	8.152216e-05
7	0x3c870d9a	0.016485978
8	0x3a1b70c8	0.00059295865
9	0xbb4f5f33	-0.0031642437
10	0xbca7c0dc	-0.020477705
11	0xbc9f3161	-0.019432725
12	0xbb382b36	-0.0028101928
13	0xbc0c787d	-0.0085736485
14	0xbcd324ce	-0.025774386

exp_avg_sq f4 [5, 3, 1]
0	0x35872daf	1.007158e-06
1	0x37b06ba1	2.1030954e-05
2	0x3898fb28	7.294706e-05
3	0x38ab61d6	8.172139e-05
4	0x3a1923d9	0.00058418285
5	0x3b17eba9	0.0023181236
6	0x396b2c5c	0.00022427872
7	0x3b2f7139	0.0026770367
8	0x3c2503e2	0.0100717265
9	0x394b6020	0.00019395398
10	0x3affa686	0.0019504584
11	0x3ba81267	0.005129147
12	0x38c430d4	9.355103e-05
13	0x395fd444	0.00021346012
14	0x3b007d90	0.001960609

exp_avg f4 [5]
0	0x3bd04363	0.0063556894
1	0x3bb3a32e	0.005482099
2	0x3c323c5b	0.010878648
3	0xbc613ea6	-0.013747847
4	0xbc825dd3	-0.01591388

exp_avg_sq f4 [5]
0	0x383f1ed5	4.5566663e-05
1	0x3a75d28f	0.0009377384
2	0x3b599583	0.0033200688
3	0x3b055a83	0.0020348139
4	0x3a598b28	0.0008298629

quantiles_tensor f4 [5]
0	0x3c23d70a	0.01
1	0x3dcccccd	0.1
2	0x3f000000	0.5
3	0x3f666666	0.9
4	0x3f7d70a4	0.99
