darts_logs/TCN_emissions/checkpoints/last-epoch=1.ckpt (torch, 51181 bytes, 93 tensors)

res_blocks.0.conv1.bias f4 [3]
000000 fe 73 56 be 08 16 0c 3e b0 34 fe bc
       -0.20942685 0.13680279 -0.031030983

res_blocks.0.conv1.parametrizations.weight.original0 f4 [3, 1, 1]
000000 31 81 0e 3f aa bc 1d 3f ce 6e 14 3f
       0.5566588 0.61616004 0.57981575

res_blocks.0.conv1.parametrizations.weight.original1 f4 [3, 8, 2]
000000 a6 b5 36 be 9a 73 52 be 70 70 4b 3d 76 ff 7b be
       -0.17842731 -0.20551911 0.049667776 -0.2460917
000010 40 ac f6 3c 9c e3 00 3e b0 2f 0c bd 8a 55 5a 3e
       0.030111432 0.12586826 -0.034225166 0.21321693
000020 92 6b 16 be 84 70 fb 3d 5c 74 b0 3d 48 c7 5b bd
       -0.14689472 0.1227732 0.08615944 -0.053656846
000030 96 93 22 3e f0 51 85 bc 50 59 36 be c0 5d 94 bd
       0.15876612 -0.016274422 -0.17807508 -0.07244444
000040 96 88 18 be 38 a6 9c 3d e0 e8 09 be 04 af 6a be
       -0.14895853 0.07648891 -0.13467741 -0.22918326
000050 48 06 48 bd 54 cf 7d be 20 3d 16 3c 8c ae 7a be
       -0.048834115 -0.2478612 0.009169847 -0.24480647
000060 1e 85 5d 3e b8 fc d8 3d a0 63 02 be 82 37 1a be
       0.21632811 0.10595077 -0.12733316 -0.15060237
000070 dc 29 c0 bd 10 17 e1 3c 88 54 aa bd 16 1e 56 be
       -0.09382984 0.027476817 -0.08316904 -0.20909914
000080 68 32 be bd f2 fc 74 3e bc 10 4c 3e b0 33 f4 3c
       -0.09286958 0.23924616 0.19928259 0.029809803
000090 90 7a f0 3c d6 4e 50 be 3c 46 b3 3d f0 de 81 3c
       0.029355317 -0.20342574 0.087536305 0.015853375
0000a0 88 79 de bd b0 c3 aa bc da 13 09 be 46 1f 55 be
       -0.10863024 -0.020845264 -0.13386479 -0.20812711
0000b0 80 77 fd 3d 94 1a 69 be d8 08 2f bd 48 4f 45 be
       0.123763084 -0.22764045 -0.042733043 -0.19268525

res_blocks.0.conv2.bias f4 [3]
000000 f0 63 62 3e de 9b d0 3d 31 16 a3 3e
       0.22108436 0.10185979 0.31852868

res_blocks.0.conv2.parametrizations.weight.original0 f4 [3, 1, 1]
000000 ac ac 05 3f 78 9c 24 3f fa 77 16 3f
       0.522166 0.6430125 0.5877682

res_blocks.0.conv2.parametrizations.weight.original1 f4 [3, 3, 2]
000000 59 57 bb 3e b9 30 89 3e b5 7c 1f bc 3c f5 e3 3d
       0.36590078 0.26794985 -0.009734322 0.11130759
000010 69 31 1c 3e 9a f3 34 3e a1 61 7d 3e 20 e8 b3 be
       0.15253223 0.17671052 0.24744274 -0.35138035
000020 cb 9a 8e be 8d a3 ee 3d 8a e5 bd 3e f1 47 f2 bb
       -0.27852473 0.116522886 0.37089187 -0.00739383
000030 03 65 e5 bd df ac 70 3e d8 21 2e be 23 d1 89 3e
       -0.11200907 0.23503445 -0.17005098 0.2691737
000040 04 25 30 3e 5c 1e c4 be
       0.1720162 -0.38304412

res_blocks.0.conv3.weight f4 [3, 8, 1]
000000 c8 17 35 be 7d 63 0c bc 5b 42 07 be 1b e7 a0 3e
       -0.17684853 -0.008568642 -0.13208906 0.3142632
000010 c0 2d aa be de f6 1e 3d 9e 92 1f 3d d6 43 94 be
       -0.3323803 0.03880965 0.038958184 -0.28958005
000020 c9 59 ff bd 66 93 2b 3e d5 b6 b4 3e d8 02 8f 3e
       -0.12468297 0.16755447 0.3529574 0.27931857
000030 be ed 1e be 13 14 9c 3e e5 ff 8a be f5 06 09 3e
       -0.15520379 0.30484065 -0.27148357 0.1338156
000040 04 65 72 bd 2d ac 4c 3e e8 af 21 3e a6 3e ac be
       -0.059178367 0.19987555 0.15789759 -0.33641547
000050 55 67 04 be d5 56 85 bd 2c 8c 59 bd 87 32 82 38
       -0.12930043 -0.065107025 -0.053112194 6.2082945e-05

res_blocks.0.conv3.bias f4 [3]
000000 11 f6 dc 3d 46 15 2b 3e de 63 de 3d
       0.10789121 0.16707334 0.10858892

res_blocks.1.conv1.bias f4 [3]
000000 20 8f bb 3e 98 3b a5 bd 04 36 05 3e
       0.36632633 -0.08068007 0.13008887

res_blocks.1.conv1.parametrizations.weight.original0 f4 [3, 1, 1]
000000 52 7a 24 3f 50 0e 33 3f 24 1f 3f 3f
       0.64249146 0.69943714 0.7465689

res_blocks.1.conv1.parametrizations.weight.original1 f4 [3, 3, 2]
000000 6c 71 e6 bd c7 e8 77 be 50 77 38 be 08 50 c8 3e
       -0.11252102 -0.24209891 -0.18014264 0.3912356
000010 e5 a8 bd 3c 9b 4a c9 be c3 ff ce 3e 7e b9 2e be
       0.023151824 -0.39314732 0.40429506 -0.17062947
000020 74 b3 b6 be 31 94 ba 3e 15 0f 41 be e4 df b8 bb
       -0.35683787 0.36441186 -0.1885341 -0.005641924
000030 4a c7 e0 3d 10 a7 cd 3e 30 56 8d be d1 18 7e be
       0.10975511 0.4016652 -0.27604818 -0.24814154
000040 66 f2 90 be c1 a4 d0 be
       -0.28309935 -0.40750697

res_blocks.1.conv2.bias f4 [3]
000000 4e 99 1f 3e 0c d4 b8 3e 66 22 cc be
       0.15585825 0.3609928 -0.39869994

res_blocks.1.conv2.parametrizations.weight.original0 f4 [3, 1, 1]
000000 f2 aa 0d 3f a2 ea f2 3e 03 b5 15 3f
       0.55338967 0.47444636 0.58479327

res_blocks.1.conv2.parametrizations.weight.original1 f4 [3, 3, 2]
000000 64 86 25 bc c9 32 97 be 31 93 89 be 9d 47 f5 bd
       -0.010102842 -0.29530933 -0.2687011 -0.1197655
000010 b0 3f ba 3e ed 1e e4 3c ee 8a 88 bd 5d 9f 2d be
       0.36376715 0.027846778 -0.06667124 -0.16955324
000020 49 33 83 bd c6 65 e4 bd 1b da c5 3e 45 ca 22 3e
       -0.06406266 -0.11152224 0.38642964 0.15897472
000030 38 44 b8 3e 61 fa 01 3e 30 81 ad bd a3 9c a8 3e
       0.35989547 0.12693168 -0.08471906 0.32932004
000040 70 d2 5b 3e ed 91 3e be
       0.21466994 -0.18610354

res_blocks.2.conv1.bias f4 [3]
000000 3d c8 8b 3e f3 5a 99 3e cd cc b9 3e
       0.27301207 0.299522 0.36289063

res_blocks.2.conv1.parametrizations.weight.original0 f4 [3, 1, 1]
000000 1f 23 ea 3e 87 c1 20 3f 60 47 22 3f
       0.4572992 0.627953 0.6339016

res_blocks.2.conv1.parametrizations.weight.original1 f4 [3, 3, 2]
000000 d9 c4 12 3e 9a c7 8f be cb 83 4b 3e ef 72 c7 bd
       0.14332904 -0.2808197 0.19874494 -0.09738719
000010 70 52 71 be 98 e6 8f 3d 37 ef 87 3e e1 01 c0 be
       -0.23566604 0.07026404 0.26549694 -0.37501433
000020 45 4d 7e 3e d2 62 61 bd 88 5a a7 be 31 69 e3 bd
       0.24834163 -0.055025883 -0.32686257 -0.11104048
000030 9c c2 88 be 8e f1 68 bd 3c cd e8 bd 38 a2 cd 3e
       -0.26710975 -0.05687099 -0.1136727 0.40162826
000040 49 40 8d be cf 6a 8e 3e
       -0.27588108 0.27815863

res_blocks.2.conv2.bias f4 [3]
000000 e4 6c 7a be c9 76 57 3c e0 89 b6 3e
       -0.24455601 0.013150879 0.35652065

res_blocks.2.conv2.parametrizations.weight.original0 f4 [3, 1, 1]
000000 d8 ac 3a 3f dc 31 45 3f 04 4e 2d 3f
       0.7291999 0.77029204 0.6769717

res_blocks.2.conv2.parametrizations.weight.original1 f4 [3, 3, 2]
000000 eb 93 76 bd 51 a9 96 be 3e 1f c3 be be 5b a2 3e
       -0.06019966 -0.29426053 -0.38109773 0.3171062
000010 8b a3 91 3e 59 2e ad 3e e8 e6 d0 be 24 0b d1 be
       0.28445086 0.33824423 -0.40801167 -0.40828812
000020 d1 69 53 3e 6d 35 cf 3d 4a fd 8c be 26 53 ba 3e
       0.20645835 0.10117612 -0.27536994 0.36391562
000030 9a 83 b4 3d 50 ea b2 3e af aa be 3e 67 5e 41 3e
       0.088141635 0.3494439 0.37239596 0.18883668
000040 2a b3 c8 be b0 79 c7 3c
       -0.3919919 0.024350017

res_blocks.3.conv1.bias f4 [3]
000000 53 7e 89 bd 72 3a bd be 6d 6c e8 bd
       -0.067135476 -0.36958653 -0.113488056

res_blocks.3.conv1.parametrizations.weight.original0 f4 [3, 1, 1]
000000 71 90 34 3f aa f6 de 3e 84 bf 02 3f
       0.705329 0.43547565 0.5107348

res_blocks.3.conv1.parametrizations.weight.original1 f4 [3, 3, 2]
000000 03 37 92 be a5 26 cd be 15 89 ca 3e 45 b7 76 3e
       -0.28557596 -0.40068546 0.3955771 0.2409335
000010 b9 75 49 3e 85 6d 25 bd df 7d c7 3d 74 aa 8f 3e
       0.19673814 -0.04038765 0.09740805 0.28059733
000020 b8 f2 3a be ca ea 21 3e a9 17 18 bd d4 1d 51 be
       -0.18256652 0.15812221 -0.03713194 -0.20421535
000030 81 90 ad 3e df 41 47 be dd 9f 82 3e eb d4 b3 bd
       0.3389931 -0.19458722 0.2551259 -0.08780845
000040 b4 01 ae bd 1a 88 2a be
       -0.084964186 -0.16653481

res_blocks.3.conv2.bias f4 [3]
000000 d0 74 9c bd 21 25 c9 be 34 4c 65 3e
       -0.07639468 -0.3928614 0.2239235

res_blocks.3.conv2.parametrizations.weight.original0 f4 [3, 1, 1]
000000 91 a1 f5 3e 3a b8 1b 3f 2a df 25 3f
       0.47974828 0.6082798 0.64793646

res_blocks.3.conv2.parametrizations.weight.original1 f4 [3, 3, 2]
000000 a4 9b e9 bb 06 d9 9c 3e a7 d1 08 be 26 4e 7f 3d
       -0.0071291495 0.30634326 -0.13361226 0.062330388
000010 cd 6a a8 3e cf 26 9b 3d cd 7c 8e be 73 8d 83 3d
       0.32893983 0.075757615 -0.2782959 0.06423464
000020 6b 5b bf 3e 8a ae 12 be 3d 22 ac be e3 76 fc bd
       0.37374434 -0.14324394 -0.33619872 -0.12327363
000030 1d 88 4d be e8 06 96 be f2 e7 4e be 33 fc 91 be
       -0.20071454 -0.29302144 -0.20205668 -0.28512725
000040 3c 42 20 be ad 97 c4 3e
       -0.15650266 0.3839697

res_blocks.4.conv1.bias f4 [3]
000000 ba 9e bf be f9 5e a3 3e 37 c1 1b be
       -0.37425786 0.31908396 -0.15210424

res_blocks.4.conv1.parametrizations.weight.original0 f4 [3, 1, 1]
000000 63 5d 82 3e 86 2e ff 3e fc 2a 16 3f
       0.25461873 0.49840182 0.5865934

res_blocks.4.conv1.parametrizations.weight.original1 f4 [3, 3, 2]
000000 cd 26 a0 bd ba 63 1c 3e ff 12 a1 3d d9 0d 22 3e
       -0.07819901 0.15272418 0.07864951 0.15825595
000010 0c 44 ec 3b f1 95 85 3d 0e ae 9c be b5 95 76 3e
       0.0072102603 0.0652274 -0.30601543 0.24080546
000020 3c 93 2a bd 6f ba 1a be 1e bf 13 be 20 dc 68 3e
       -0.04164432 -0.15110181 -0.14428374 0.22740221
000030 3e a2 0d be 9f 93 55 be 28 51 24 3e 1e 16 a6 3e
       -0.13831422 -0.20857094 0.16046584 0.3243875
000040 1c 9a e5 bc c6 84 c6 3e
       -0.028027587 0.38773173

res_blocks.4.conv2.parametrizations.weight.original1 f4 [1, 3, 2]
000000 f8 6f 37 bc ac 33 62 3e 3c 7b a7 3e f7 26 c2 be
       -0.011196129 0.22090024 0.32711208 -0.37920353
000010 cc 0f c2 be 0a 08 52 3e
       -0.37902677 0.20510879

res_blocks.4.conv3.weight f4 [1, 3, 1]
000000 73 7e 93 be e6 c1 10 3f d8 e5 87 be
       -0.2880741 0.56545866 -0.26542544

exp_avg f4 [3]
000000 00 00 00 00 00 00 00 00 00 00 00 00
       0.0 0.0 0.0

exp_avg_sq f4 [3]
000000 00 00 00 00 00 00 00 00 00 00 00 00
       0.0 0.0 0.0

exp_avg f4 [3, 1, 1]
000000 00 00 00 00 00 00 00 00 00 00 00 00
       0.0 0.0 0.0

exp_avg_sq f4 [3, 1, 1]
000000 00 00 00 00 00 00 00 00 00 00 00 00
       0.0 0.0 0.0

exp_avg f4 [3, 8, 2]
000000 00 00 00 00 00 00 00 00 00 00 00 00 00 00 00 00
       0.0 0.0 0.0 0.0
000010 00 00 00 00 00 00 00 00 00 00 00 00 00 00 00 00
       0.0 0.0 0.0 0.0
000020 00 00 00 00 00 00 00 00 00 00 00 00 00 00 00 00
       0.0 0.0 0.0 0.0
000030 00 00 00 00 00 00 00 00 00 00 00 00 00 00 00 00
       0.0 0.0 0.0 0.0
000040 00 00 00 00 00 00 00 00 00 00 00 00 00 00 00 00
       0.0 0.0 0.0 0.0
000050 00 00 00 00 00 00 00 00 00 00 00 00 00 00 00 00
       0.0 0.0 0.0 0.0
000060 00 00 00 00 00 00 00 00 00 00 00 00 00 00 00 00
       0.0 0.0 0.0 0.0
000070 00 00 00 00 00 00 00 00 00 00 00 00 00 00 00 00
       0.0 0.0 0.0 0.0
000080 00 00 00 00 00 00 00 00 00 00 00 00 00 00 00 00
       0.0 0.0 0.0 0.0
000090 00 00 00 00 00 00 00 00 00 00 00 00 00 00 00 00
       0.0 0.0 0.0 0.0
0000a0 00 00 00 00 00 00 00 00 00 00 00 00 00 00 00 00
       0.0 0.0 0.0 0.0
0000b0 00 00 00 00 00 00 00 00 00 00 00 00 00 00 00 00
       0.0 0.0 0.0 0.0

exp_avg_sq f4 [3, 8, 2]
000000 00 00 00 00 00 00 00 00 00 00 00 00 00 00 00 00
       0.0 0.0 0.0 0.0
000010 00 00 00 00 00 00 00 00 00 00 00 00 00 00 00 00
       0.0 0.0 0.0 0.0
000020 00 00 00 00 00 00 00 00 00 00 00 00 00 00 00 00
       0.0 0.0 0.0 0.0
000030 00 00 00 00 00 00 00 00 00 00 00 00 00 00 00 00
       0.0 0.0 0.0 0.0
000040 00 00 00 00 00 00 00 00 00 00 00 00 00 00 00 00
       0.0 0.0 0.0 0.0
000050 00 00 00 00 00 00 00 00 00 00 00 00 00 00 00 00
       0.0 0.0 0.0 0.0
000060 00 00 00 00 00 00 00 00 00 00 00 00 00 00 00 00
       0.0 0.0 0.0 0.0
000070 00 00 00 00 00 00 00 00 00 00 00 00 00 00 00 00
       0.0 0.0 0.0 0.0
000080 00 00 00 00 00 00 00 00 00 00 00 00 00 00 00 00
       0.0 0.0 0.0 0.0
000090 00 00 00 00 00 00 00 00 00 00 00 00 00 00 00 00
       0.0 0.0 0.0 0.0
0000a0 00 00 00 00 00 00 00 00 00 00 00 00 00 00 00 00
       0.0 0.0 0.0 0.0
0000b0 00 00 00 00 00 00 00 00 00 00 00 00 00 00 00 00
       0.0 0.0 0.0 0.0

exp_avg f4 [3]
000000 03 fa 5e bc 7b 85 74 3d 45 6f a2 bb
       -0.013609412 0.05969761 -0.004957112

exp_avg_sq f4 [3]
000000 e3 37 0f 37 b6 84 fe 38 cd d2 0f 36
       8.536476e-06 0.00012136383 2.1431363e-06

exp_avg f4 [3, 1, 1]
000000 00 00 00 00 00 00 00 00 00 00 00 00
       0.0 0.0 0.0

exp_avg_sq f4 [3, 1, 1]
000000 00 00 00 00 00 00 00 00 00 00 00 00
       0.0 0.0 0.0

exp_avg f4 [3, 3, 2]
000000 00 00 00 00 00 00 00 00 00 00 00 00 00 00 00 00
       0.0 0.0 0.0 0.0
000010 00 00 00 00 00 00 00 00 00 00 00 00 00 00 00 00
       0.0 0.0 0.0 0.0
000020 00 00 00 00 00 00 00 00 00 00 00 00 00 00 00 00
       0.0 0.0 0.0 0.0
000030 00 00 00 00 00 00 00 00 00 00 00 00 00 00 00 00
       0.0 0.0 0.0 0.0
000040 00 00 00 00 00 00 00 00
       0.0 0.0

exp_avg_sq f4 [3, 3, 2]
000000 00 00 00 00 00 00 00 00 00 00 00 00 00 00 00 00
       0.0 0.0 0.0 0.0
000010 00 00 00 00 00 00 00 00 00 00 00 00 00 00 00 00
       0.0 0.0 0.0 0.0
000020 00 00 00 00 00 00 00 00 00 00 00 00 00 00 00 00
       0.0 0.0 0.0 0.0
000030 00 00 00 00 00 00 00 00 00 00 00 00 00 00 00 00
       0.0 0.0 0.0 0.0
000040 00 00 00 00 00 00 00 00
       0.0 0.0

exp_avg f4 [3, 8, 1]
000000 68 b9 ba bb 94 00 8c bc cf f4 39 bc 4b 59 9f bc
       -0.0056983717 -0.01709012 -0.011349871 -0.019451758
000010 6f bc 05 bb 4d 1b cd ba 00 00 00 00 98 a1 a6 bc
       -0.0020406505 -0.0015648395 0.0 -0.020340726
000020 bb ea 58 3c 0d ee 2d 3d 26 b1 dc 3c 08 91 47 3d
       0.013239558 0.04246335 0.02693994 0.048722297
000030 57 e4 8f 3b 6e aa 55 3b 00 00 00 00 cf 6b 42 3d
       0.004391234 0.0032602805 0.0 0.047466096
000040 80 ea 2f bb a4 23 34 bc 30 7d df bb 0d 5d 4b bc
       -0.0026842654 -0.0109948255 -0.0068203434 -0.012412322
000050 8b 08 61 ba 94 37 f4 b9 00 00 00 00 08 32 2c bc
       -0.0008584342 -0.00046580716 0.0 -0.010509975

exp_avg_sq f4 [3, 8, 1]
000000 58 be a2 35 62 e9 2b 37 ce c3 9a 36 62 40 5f 37
       1.2125338e-06 1.0246733e-05 4.6123523e-06 1.3306826e-05
000010 9b e2 27 34 f1 83 d8 33 00 00 00 00 6b 74 79 37
       1.5635526e-07 1.0082284e-07 0.0 1.4868662e-05
000020 d3 1a d7 36 ef 6a 80 38 cb f5 d1 37 9a 0c a9 38
       6.410622e-06 6.1234336e-05 2.5029198e-05 8.060895e-05
000030 48 73 3b 35 b6 62 e9 34 00 00 00 00 52 63 a4 38
       6.9830685e-07 4.3471454e-07 0.0 7.838629e-05
000040 23 b7 93 34 2c c0 87 36 24 54 d3 35 fe c7 ac 36
       2.7514133e-07 4.0456853e-06 1.5745213e-06 5.1492816e-06
000050 bc 12 e2 32 ab 64 74 32 00 00 00 00 e2 ce 7a 36
       2.6318382e-08 1.42255585e-08 0.0 3.7373325e-06

exp_avg f4 [3]
000000 66 a6 a6 bc 79 76 42 3d bc 45 2c bc
       -0.020343017 0.047476266 -0.010514673

exp_avg_sq f4 [3]
000000 f0 80 79 37 ff 72 a4 38 45 06 7b 36
       1.4871577e-05 7.841549e-05 3.7405564e-06

exp_avg f4 [3]
000000 c4 de 74 bc 14 27 c2 ba 00 00 00 00
       -0.01494569 -0.0014812672 0.0

exp_avg_sq f4 [3]
000000 fd c7 01 37 89 1d a6 33 00 00 00 00
       7.735563e-06 7.73535e-08 0.0

exp_avg f4 [3, 1, 1]
000000 42 b4 b3 ba 46 9f 00 ba 00 00 00 00
       -0.0013710337 -0.0004906546 0.0

exp_avg_sq f4 [3, 1, 1]
000000 ff 04 8f 33 20 d1 14 32 00 00 00 00
       6.659865e-08 8.662283e-09 0.0

exp_avg f4 [3, 3, 2]
000000 96 81 26 bb 23 7a 61 bb 41 17 5f bc bd 44 63 bc
       -0.002540683 -0.0034405075 -0.013616384 -0.013871369
000010 40 40 86 bb 7e b1 a1 bb 4c d7 17 39 66 75 52 b9
       -0.0040970147 -0.004934489 0.00014480687 -0.00020070895
000020 27 58 65 ba 38 02 9b ba dd 9a ff b8 4d 8f d9 b9
       -0.00087487925 -0.0011826223 -0.00012188193 -0.00041496233
000030 00 00 00 00 00 00 00 00 00 00 00 00 00 00 00 00
       0.0 0.0 0.0 0.0
000040 00 00 00 00 00 00 00 00
       0.0 0.0

exp_avg_sq f4 [3, 3, 2]
000000 7f a1 80 34 ea 8c e0 34 ae a8 d6 36 6f 55 de 36
       2.3959362e-07 4.182578e-07 6.397334e-06 6.6260613e-06
000010 47 d5 26 35 fb a7 60 35 37 b5 9c 30 66 c3 c3 30
       6.215018e-07 8.3690946e-07 1.1401998e-09 1.4243653e-09
000020 35 ab ed 32 d9 9c 54 33 31 66 12 30 e7 bd cd 31
       2.7668287e-08 4.950275e-08 5.3259713e-10 5.9878746e-09
000030 00 00 00 00 00 00 00 00 00 00 00 00 00 00 00 00
       0.0 0.0 0.0 0.0
000040 00 00 00 00 00 00 00 00
       0.0 0.0

exp_avg f4 [3]
000000 75 8f 45 bc de ee a0 3d 00 00 00 00
       -0.012058129 0.0785806 0.0

exp_avg_sq f4 [3]
000000 57 40 bc 36 16 33 60 39 00 00 00 00
       5.6103268e-06 0.00021381336 0.0

exp_avg f4 [3, 1, 1]
000000 b3 2a e7 3a 86 74 82 bc 00 00 00 00
       0.0017636627 -0.015924703 0.0

exp_avg_sq f4 [3, 1, 1]
000000 f3 aa 1a 34 ac 05 11 37 00 00 00 00
       1.4404559e-07 8.643994e-06 0.0

exp_avg f4 [3, 3, 2]
000000 02 15 66 bb cf 68 0d bb a5 06 52 3a 80 41 9c 39
       -0.0035107736 -0.0021577363 0.00080118544 0.0002980344
000010 7d ac 97 ba 2c 69 b8 b8 60 7c e0 3c 5b 7f d3 3c
       -0.0011571791 -8.7933935e-05 0.027403057 0.025817564
000020 a8 f8 b6 ba b1 09 02 bb 61 09 55 3c 76 70 af 3b
       -0.0013959603 -0.0019842202 0.013002724 0.0053539826
000030 00 00 00 00 00 00 00 00 00 00 00 00 00 00 00 00
       0.0 0.0 0.0 0.0
000040 00 00 00 00 00 00 00 00
       0.0 0.0

exp_avg_sq f4 [3, 3, 2]
000000 b2 f5 27 35 76 2c 65 34 cd 41 fd 32 ea 54 89 31
       6.256988e-07 2.1343462e-07 2.9483e-08 3.9968784e-09
000010 33 30 85 33 1e 6c c4 2f 8a c5 d3 37 25 75 c1 37
       6.2020625e-08 3.5729014e-10 2.5245146e-05 2.3061943e-05
000020 67 b7 9a 33 d2 ac 26 34 60 58 c1 36 b3 23 83 35
       7.2045445e-08 1.5522826e-07 5.7621364e-06 9.77065e-07
000030 00 00 00 00 00 00 00 00 00 00 00 00 00 00 00 00
       0.0 0.0 0.0 0.0
000040 00 00 00 00 00 00 00 00
       0.0 0.0

exp_avg f4 [3]
000000 c1 4c 89 bc 51 3e 1b 3c 8f 66 9c 39
       -0.016760232 0.009475307 0.0002983105

exp_avg_sq f4 [3]
000000 37 fb 28 37 b8 d6 6e 36 3f 20 d5 34
       1.0072071e-05 3.5589746e-06 3.9697804e-07

exp_avg f4 [3, 1, 1]
000000 83 de a0 b9 e4 3b 9c 3a 2f dc d8 3a
       -0.00030683362 0.0011919704 0.0016545112

exp_avg_sq f4 [3, 1, 1]
000000 7f 49 9c 31 00 f8 c9 33 37 ee 1a 34
       4.548553e-09 9.404903e-08 1.442903e-07

exp_avg f4 [3, 3, 2]
000000 66 12 60 bb 56 92 6d bb c2 ab 8e bc 02 d9 b5 bc
       -0.0034190654 -0.0036250553 -0.017415885 -0.022198204
000010 87 45 8b bb f5 02 61 bb 44 2b 37 3a 84 71 35 3b
       -0.0042502317 -0.0034334038 0.0006987343 0.0027686069
000020 fc 76 39 3c c6 fc 1b 3c df 36 51 3b f1 4f 6a 3b
       0.011319872 0.009520715 0.0031923575 0.0035753215
000030 2c ce bd b9 bd dc 48 38 29 f7 a4 ba 0b fb 1b ba
       -0.000362025 4.7889294e-05 -0.0012585866 -0.0005950189
000040 1d 66 09 b8 0b f9 e7 b7
       -3.2758446e-05 -2.7653316e-05

exp_avg_sq f4 [3, 3, 2]
000000 2a 5e de 34 a3 65 05 35 0a 99 38 37 d0 4b 93 37
       4.1419236e-07 4.969426e-07 1.1002887e-05 1.7559069e-05
000010 ac 52 31 35 57 c7 f4 34 ea 9d c0 32 e8 f2 af 34
       6.605794e-07 4.559358e-07 2.2423553e-08 3.2773028e-07
000020 43 d6 ae 36 64 f4 81 36 85 cb e2 34 88 93 fc 34
       5.2105474e-06 3.8729504e-06 4.224386e-07 4.7046e-07
000030 c3 64 06 34 0e 7d 80 32 3a f3 3c 35 a5 ba da 34
       1.251638e-07 1.495803e-08 7.03894e-07 4.0741466e-07
000040 d4 34 04 34 a9 0e 72 33
       1.2312677e-07 5.635835e-08

exp_avg f4 [3]
000000 8d ad 8e bc 38 03 2b 3d 55 9e f8 bb
       -0.01741674 0.041751117 -0.007587234

exp_avg_sq f4 [3]
000000 66 51 3d 37 1b b9 7f 38 a4 3c 22 36
       1.128423e-05 6.096913e-05 2.4175179e-06

exp_avg f4 [3, 1, 1]
000000 95 3d 20 bc dd 91 20 3c 63 21 16 ba
       -0.009780307 0.0098004015 -0.0005727021

exp_avg_sq f4 [3, 1, 1]
000000 bb 39 76 36 4c 12 5b 36 c7 b2 b3 33
       3.669046e-06 3.2644193e-06 8.3678565e-08

exp_avg f4 [3, 3, 2]
000000 bf f5 82 bb db 68 14 bc 9e 65 30 bc 6c 9e 77 bb
       -0.0039965804 -0.009058203 -0.010766415 -0.0037783636
000010 4e 73 e7 bb fb 9c 38 bc dc f1 3b 3c 98 c3 5d 3c
       -0.007063306 -0.011267896 0.011471238 0.013535403
000020 06 02 6c 3c c1 26 63 3c a9 2a ab 3c 07 23 02 3d
       0.014404779 0.01386422 0.020894365 0.031771686
000030 1d 89 bc b9 64 4d 5e ba 1e 7a 89 ba 15 12 3b bb
       -0.00035960312 -0.000848016 -0.0010488664 -0.0028544713
000040 0f 3a 70 bb cc 26 f5 bb
       -0.00366557 -0.0074814316

exp_avg_sq f4 [3, 3, 2]
000000 b9 59 1b 35 1b 74 49 36 dc de 8b 36 3b 33 07 35
       5.7872563e-07 3.0018916e-06 4.168467e-06 5.036597e-07
000010 ad 65 e9 35 83 89 9f 36 ef b7 95 36 db 19 d6 36
       1.7389444e-06 4.7545777e-06 4.4619587e-06 6.380707e-06
000020 86 69 fb 36 a8 8a e2 36 0e aa 95 37 cf ea 18 38
       7.4926675e-06 6.7514666e-06 1.7841372e-05 3.6458307e-05
000030 fb cc 88 34 a2 e8 1a 34 a0 cb 72 34 3a 90 e9 34
       2.5481117e-07 1.4426999e-07 2.2612085e-07 4.350457e-07
000040 82 da c2 35 e2 d0 06 36
       1.451772e-06 2.0089142e-06

exp_avg f4 [3]
000000 11 20 5a bb 00 00 00 00 c6 95 af bb
       -0.0033283273 0.0 -0.0053584306

exp_avg_sq f4 [3]
000000 65 1f 6f 35 00 00 00 00 fd 5d 98 35
       8.9080123e-07 0.0 1.1352237e-06

exp_avg f4 [3, 1, 1]
000000 14 ef 79 bb 00 00 00 00 e5 7a 0e bb
       -0.0038136886 0.0 -0.0021740731

exp_avg_sq f4 [3, 1, 1]
000000 70 8f 94 35 00 00 00 00 40 42 50 34
       1.1068605e-06 0.0 1.9395611e-07

exp_avg f4 [3, 3, 2]
000000 ca 50 4e bb 3a 07 27 bb 9b 9d 19 bb 49 87 a7 bb
       -0.003148126 -0.0025486485 -0.0023439887 -0.005112563
000010 e3 65 2f 3a ce 69 26 bb 00 00 00 00 00 00 00 00
       0.00066909025 -0.0025392654 0.0 0.0
000020 00 00 00 00 00 00 00 00 00 00 00 00 00 00 00 00
       0.0 0.0 0.0 0.0
000030 d4 86 33 ba 60 86 26 bb 3d 11 db bb 5c 38 e7 bb
       -0.0006848399 -0.0025409684 -0.0066854046 -0.007056279
000040 d6 04 53 bb 2a b9 56 bb
       -0.0032198927 -0.0032764175

exp_avg_sq f4 [3, 3, 2]
000000 29 ef 2f 35 e0 4b 29 35 14 69 04 35 c4 09 c5 35
       6.5540604e-07 6.306782e-07 4.932674e-07 1.4680486e-06
000010 9f 67 0a 34 29 0e 21 35 00 00 00 00 00 00 00 00
       1.2889949e-07 5.999778e-07 0.0 0.0
000020 00 00 00 00 00 00 00 00 00 00 00 00 00 00 00 00
       0.0 0.0 0.0 0.0
000030 16 44 8f 32 fb 11 93 34 f5 6e f1 35 6b c7 02 36
       1.6678353e-08 2.7393966e-07 1.7988192e-06 1.9487586e-06
000040 91 c6 cb 34 c6 70 ee 34
       3.7956173e-07 4.4413008e-07

exp_avg f4 [3]
000000 3f e9 4c bc 00 00 00 00 d8 64 72 bb
       -0.012506782 0.0 -0.0036986377

exp_avg_sq f4 [3]
000000 cd 26 f3 36 00 00 00 00 4f 79 2d 36
       7.2464813e-06 0.0 2.584962e-06

exp_avg f4 [3, 1, 1]
000000 87 3e e0 bb 00 00 00 00 5d c7 ff 39
       -0.0068433913 0.0 0.00048785927

exp_avg_sq f4 [3, 1, 1]
000000 f0 11 16 36 00 00 00 00 d9 3f d1 33
       2.2362183e-06 0.0 9.743935e-08

exp_avg f4 [3, 3, 2]
000000 95 08 21 bc 33 51 b3 bb de a5 fa ba 09 68 6a 3a
       -0.009828706 -0.005472326 -0.0019122919 0.0008941894
000010 ff 7d 7a 3b 8c 2b da 39 00 00 00 00 00 00 00 00
       0.0038222072 0.00041612645 0.0 0.0
000020 00 00 00 00 00 00 00 00 00 00 00 00 00 00 00 00
       0.0 0.0 0.0 0.0
000030 43 a6 44 bb b5 d6 45 3a 23 61 1f 39 2b f0 60 39
       -0.0030006326 0.00075469475 0.00015199608 0.00021451774
000040 10 46 99 38 37 0e 3e ba
       7.308659e-05 -0.0007250043

exp_avg_sq f4 [3, 3, 2]
000000 3d 3c b1 36 fc f6 e3 35 72 86 3b 34 b0 19 24 33
       5.2820237e-06 1.69847e-06 1.7464643e-07 3.8207588e-08
000010 52 25 6a 35 7c aa 50 32 00 00 00 00 00 00 00 00
       8.72261e-07 1.2145957e-08 0.0 0.0
000020 00 00 00 00 00 00 00 00 00 00 00 00 00 00 00 00
       0.0 0.0 0.0 0.0
000030 6e 29 0b 35 2d 37 69 33 fa 99 22 32 20 e6 a1 32
       5.1841823e-07 5.4299722e-08 9.464651e-09 1.8847516e-08
000040 7f 69 bf 30 c0 bf 25 33
       1.3927063e-09 3.8591452e-08

exp_avg f4 [3]
000000 fc ad b7 3b 2b a8 26 3c 49 38 74 3c
       0.0056054574 0.01017193 0.014905998

exp_avg_sq f4 [3]
000000 b9 69 ca 35 96 33 75 36 3a b5 1e 37
       1.5080942e-06 3.6537872e-06 9.459729e-06

exp_avg f4 [3, 1, 1]
000000 92 a4 1b 3c 28 60 8b 39 b6 4a db 3c
       0.009499686 0.00026583788 0.026769023

exp_avg_sq f4 [3, 1, 1]
000000 76 c0 8d 36 b4 a6 86 33 b9 2b e9 37
       4.224533e-06 6.2701844e-08 2.7796124e-05

exp_avg f4 [3, 3, 2]
000000 5c da dc 3b a1 40 62 bb ba 49 83 3b 41 f5 82 3b
       0.0067398977 -0.0034523385 0.0040065916 0.0039965217
000010 d9 ef 53 3b dc 71 9f 3a 96 2e d3 b9 dd 19 08 3c
       0.0032339005 0.001216467 -0.00040279765 0.008306948
000020 95 84 52 3c f9 51 ac 3b 8e f1 80 3c 1d 1d d3 3b
       0.012848993 0.0052587953 0.015740182 0.0064426796
000030 0e 81 5f 3c e8 95 1c 3c a4 84 0b 3c 82 ba 1c 3c
       0.013641609 0.009557225 0.008515511 0.009565951
000040 dc 79 12 3c ef 84 6e ba
       0.008940186 -0.0009098788

exp_avg_sq f4 [3, 3, 2]
000000 ae 65 05 36 a8 12 fd 34 2b 2f 7c 35 99 66 14 35
       1.987773e-06 4.7138496e-07 9.3945954e-07 5.5283596e-07
000010 64 28 02 35 a7 ec d0 34 c6 54 7f 34 c9 1a 1b 36
       4.848755e-07 3.8915206e-07 2.3779566e-07 2.311239e-06
000020 98 4b d9 36 48 61 88 35 d8 40 17 37 e5 ee 33 36
       6.4759042e-06 1.0161102e-06 9.015399e-06 2.6812133e-06
000030 00 8b f7 36 cc a5 87 36 bf 9d 87 36 e1 48 86 36
       7.3773554e-06 4.042615e-06 4.0416776e-06 4.0019954e-06
000040 7b 26 a9 36 ed 1a 0c 34
       5.041072e-06 1.3048312e-07

exp_avg f4 [1, 3, 2]
000000 13 71 14 3b a6 80 cc bb 7c ec d0 bb e2 83 12 3c
       0.0022650405 -0.006240922 -0.0063758474 0.008942576
000010 ca b2 69 bb 28 54 dc 3c
       -0.0035659545 0.026895598

exp_avg_sq f4 [1, 3, 2]
000000 04 e1 4e 34 c5 97 e1 35 70 aa 28 36 03 bb 43 36
       1.9267105e-07 1.6807977e-06 2.5133158e-06 2.916612e-06
000010 48 c6 69 36 c3 b1 f4 37
       3.483512e-06 2.9169843e-05

exp_avg f4 [1, 3, 1]
000000 bb e1 1a 3d 26 d7 05 3e 0a e3 48 3d
       0.03781293 0.13070354 0.049044646

exp_avg_sq f4 [1, 3, 1]
000000 43 b2 4b 38 f9 3e 18 3a ab 32 b2 38
       4.856499e-05 0.00058077235 8.497139e-05
