darts_logs/GRU_emissions/checkpoints/last-epoch=5.ckpt (torch, 490682 bytes, 30 tensors)

rnn.weight_ih_l0 f4 [192, 8]
000000 40 a7 e1 bd 9f 6c 8c bd af d5 90 bd 43 30 8f bc
       -0.110182285 -0.06856655 -0.07072007 -0.017479068
000010 98 7e 8c bc 8e 00 8f bc 14 87 06 be 04 6f 6d 3e
       -0.017150208 -0.01745632 -0.13137466 0.2318688
000020 46 80 86 bd cb 41 aa 3d be 85 e9 3d 15 d0 04 bd
       -0.06567435 0.0831333 0.114024624 -0.032425005
000030 80 24 25 3c c1 51 31 3d 06 b9 a4 3d 75 e3 81 3d
       0.010079503 0.043290857 0.08043103 0.06342212
000040 4a 29 18 bc 6f ac 0a 3d 36 45 bb bd d5 99 c6 3c
       -0.009287188 0.03385585 -0.0914406 0.024243275
000050 2d ed 35 be d4 a2 64 be 46 cb 17 be e4 fe f1 3c
       -0.17766257 -0.22327739 -0.14823636 0.029540487
000060 07 78 03 be 51 16 a2 bd 40 f0 61 39 53 ed 00 bc
       -0.12838756 -0.07914413 0.00021547172 -0.0078690825
000070 78 a7 62 3c c3 09 dc bc 08 73 37 bd f5 26 1a 3c
       0.013833873 -0.026860124 -0.044787437 0.009408702
000080 d0 1e df 3b f5 ae d2 bd af e9 a3 bd 20 5d 18 bd
       0.006809093 -0.10287277 -0.08003556 -0.037198186
000090 cd ff 95 bd a7 1e f3 3d ac 08 98 3d 6b c9 d0 bb
       -0.07324181 0.11871081 0.07423529 -0.006371667
0000a0 d6 35 33 be 30 e8 37 be e0 eb df bd 1f ea 49 bc
       -0.17501006 -0.17959666 -0.109336615 -0.012323885
0000b0 aa c6 1b be dd 49 3c bd aa fc 53 3d 4a 0d be bb
       -0.15212503 -0.04596888 0.05175463 -0.005799924
0000c0 15 1f 00 be f1 d2 b7 bc c3 57 4a 3b e7 12 17 bc
       -0.12511857 -0.022439452 0.0030875064 -0.009220815
0000d0 b8 ba b5 3d 83 c3 b7 bd 6c 76 32 be 4a 43 80 3d
       0.088735044 -0.08972838 -0.17427987 0.06262834
0000e0 3d 76 da bd 20 ed 26 bd f1 5e 4f 3c 08 56 e5 bd
       -0.106670834 -0.040753484 0.012656913 -0.1119805
0000f0 35 cd 7a bc 5a 82 25 be 07 18 8a bc fc ad 98 3d
       -0.015307714 -0.16163006 -0.01685716 0.0745506
000100 36 ce f3 bc 85 79 fb 3d ca 3c 56 3c ef 37 93 bc
       -0.029761415 0.122790374 0.013076017 -0.017971007
000110 87 40 7b 3c fa 3e 94 bd 05 18 f1 3d 14 39 a0 3d
       0.015335209 -0.07238574 0.117721595 0.07823387
000120 cf 47 a4 bc f9 27 09 be cb e3 88 bd 41 53 eb 3c
       -0.020053772 -0.13394155 -0.06684073 0.028726222
000130 36 37 23 3e 25 12 17 bd fd 57 45 bd b9 38 c5 3d
       0.1593903 -0.03688254 -0.048179615 0.096299596
000140 06 ab 18 be b6 22 47 3d d7 3b a8 bd 43 ea d8 3d
       -0.1490899 0.048617087 -0.082145385 0.10591557
000150 a0 02 4f bd b2 f9 7b 3c c1 24 af bc 35 53 09 be
       -0.050539613 0.015379356 -0.02137983 -0.13410647
000160 88 9f b8 bd c9 fc cd 3d 7e 74 19 3e ec 12 2f bd
       -0.09014803 0.100579806 0.14985844 -0.042742655
000170 da 86 8d bc 10 1d bd 3d bf 75 a5 bd 7f 1f e1 3b
       -0.017276216 0.09234059 -0.08079099 0.0068702097
000180 8d bd 12 be 5e 1b 5b 3b 1d e5 e6 3d ab 98 80 bc
       -0.1433012 0.003343306 0.11274169 -0.015697798
000190 36 89 22 bd b6 fe 59 bd f3 96 fb bd 35 da d6 bd
       -0.039681636 -0.053221427 -0.12284651 -0.104908384
0001a0 80 54 0a 3d 0a c4 b5 3d 13 a4 fd bd 98 17 94 3d
       0.03377199 0.08875282 -0.1238481 0.07231063
0001b0 ff 1d ad bd 77 bc ea bd a3 8c b3 bc 0f d5 9e bd
       -0.08452987 -0.11461728 -0.021917647 -0.077554815
0001c0 39 3a b7 3d 8b e5 3c bc b1 6d 98 3d 0f de f8 3d
       0.08946652 -0.011529337 0.07442797 0.12151729
0001d0 c6 d9 59 bd 71 ca b7 3d cd 66 15 3e 24 0d 89 bd
       -0.0531862 0.089741595 0.14589997 -0.066919595
0001e0 45 22 93 bd 0f 39 17 be 84 6d 44 bd 96 0e 71 bd
       -0.07184271 -0.1476786 -0.047956005 -0.0588518
0001f0 64 33 59 be c7 97 83 be c2 c4 c7 bb 3b 2b 3c ba
       -0.2121101 -0.25701734 -0.0060964534 -0.00071780727
000200 34 95 40 bc a5 b2 bd bd f9 82 79 3d 7b bc 0f 3c
       -0.011754323 -0.09262589 0.06091592 0.008772965
000210 ad 85 2c be 0b ca 9a bc d9 ff 82 3d 35 cc 9c 3c
       -0.16847868 -0.01889517 0.06396455 0.019140342
000220 6f 11 41 be bc 26 d2 3c f5 3f 2b 3d 7f 0e b5 3d
       -0.18854307 0.025653236 0.04180904 0.088406555
000230 ac a6 99 bd cf cc 58 3d 15 99 5a 3d 7a 56 6f bd
       -0.07502493 0.052929696 0.053368647 -0.05843208
000240 9a 3b f0 3b 58 3c c7 bd 0f 0b c6 3d 55 e4 e5 3d
       0.007331324 -0.097283065 0.09670078 0.112251915
000250 4d 4f a2 bd 44 6b 4f 3d 27 7b e2 3d 94 b1 8c bd
       -0.07925282 0.050639406 0.11058646 -0.06869808
000260 80 78 3f bd b3 ff a3 bc af c2 ae 3d b9 8c 2e be
       -0.046745777 -0.020019388 0.08533227 -0.17045869
000270 3d be 37 3c 42 60 fc 3c 76 95 1a be f4 68 cc 3c
       0.01121479 0.030807618 -0.15096077 0.02495239
000280 f0 9a 0f bd ba dd 06 be f7 03 bc 3d 8e 97 0f be
       -0.03505987 -0.1317052 0.09180444 -0.14022657
000290 6d 15 e7 bd 60 fd a5 39 43 2d 09 bb b8 94 31 be
       -0.112833835 0.00031660032 -0.002093152 -0.17341888
0002a0 47 d6 25 3e 5c 24 8f 3d e9 f0 85 bb 87 23 a2 3d
       0.16195022 0.06989357 -0.0040875566 0.079169326
0002b0 90 73 d5 bd 12 af 39 3d c3 7a a6 3d 2c 14 68 bd
       -0.104224324 0.045332976 0.08128884 -0.056659862
0002c0 1d a2 e9 bc 34 79 03 be 2e 1b de bd d3 fc de bd
       -0.028519684 -0.12839204 -0.10845028 -0.10888066
0002d0 7e 6c cb 3c df 33 1e be 4e b8 cf bd 30 ed 6d 3c
       0.024832007 -0.15449475 -0.10142575 0.014521882
0002e0 fb 6a 97 bd 94 97 80 bd 0d 16 b2 bd 4a f5 57 be
       -0.07393452 -0.06278911 -0.08695612 -0.21089664
0002f0 12 7f 79 be 2c 47 44 be 67 f5 66 bd 4e c9 91 bd
       -0.2436488 -0.19167775 -0.056386378 -0.07118474
000300 bc f8 18 be 27 c7 b6 bd c2 59 f4 3d 38 39 5c bd
       -0.14938635 -0.08924704 0.119311824 -0.053765506
000310 b6 80 76 3d 74 a9 16 3d 15 bc 9d 3d 9b d9 2c bd
       0.060181342 0.036782697 0.077018894 -0.042199712
000320 ae df f4 3d 0e 76 c4 bd e3 31 15 bd b8 50 e2 3c
       0.11956726 -0.0959283 -0.03642453 0.02762638
000330 75 e2 39 bd 54 d2 01 3d 00 40 7f 3d de 14 a6 3d
       -0.045381982 0.031694725 0.062316895 0.08109449
000340 ef 6d 46 bd 9c 03 d2 bd 8a 63 b4 bd 85 ce 0d be
       -0.048444685 -0.10254595 -0.08808048 -0.13848312
000350 02 b5 cd bd a9 f9 01 be 2d 80 89 3d e4 70 fe 3c
       -0.1004429 -0.12692894 0.06713901 0.03105969
000360 e2 be 54 bc 9a 38 48 bd e9 4a 30 ba 2f 06 11 3c
       -0.012984963 -0.048882104 -0.00067250297 0.008851572
000370 42 26 0d be 99 d7 8d bc e2 60 68 bd 28 5a 9d 3d
       -0.13784125 -0.017314719 -0.05673302 0.076832116
000380 5f 46 10 be 9a 65 94 3d ff 86 3e bd d9 ed c6 3d
       -0.14089344 0.072459415 -0.04651546 0.097133346
000390 46 45 f7 bc 31 71 04 3d dc f6 07 3d f1 30 3f 3d
       -0.0301844 0.03233451 0.033194408 0.046677534
0003a0 31 86 37 3d 3b e7 24 3d 43 ce 34 3d 21 a0 1f be
       0.04480571 0.04025958 0.04414202 -0.15588428
0003b0 1c d1 b4 bd ac 62 f5 bc 94 71 0a 3d 9e 8c b8 bd
       -0.08828947 -0.029954277 0.033799723 -0.090111956
0003c0 f8 3f 00 3e fe 74 4c bd 11 2e 36 bc a3 5b cf bc
       0.12524402 -0.04991626 -0.0111193815 -0.02531225
0003d0 97 7b 23 be 83 ec 3d bc 53 1b 0c 3d 63 20 6f bd
       -0.15965115 -0.011592033 0.034205746 -0.058380496
0003e0 61 6b 28 bc 72 f9 07 bd f7 a3 9a 3c 3c df d5 bd
       -0.010279507 -0.033196874 0.018877013 -0.10442969
0003f0 5b dc af 3c 8b 48 30 3d a1 a4 3f bb 15 87 63 3d
       0.021467378 0.043037932 -0.0029242414 0.055548746

rnn.weight_hh_l0 f4 [192, 64]
000000 fc d8 2d be 3a ea 10 be 6a ea 5d bd 73 bc c5 ba
       -0.16977304 -0.1415185 -0.054178633 -0.001508607
000010 16 b6 b1 3d b9 4a 1b 3e 1c 20 8e 3d cd 5c b5 3d
       0.08677308 0.15165223 0.06939718 0.08855591
000020 0c 80 0b 3e 2f 63 4a bc 56 21 e2 3d 0d e6 70 3d
       0.13623065 -0.012352749 0.110415146 0.058813144
000030 ff 55 9d bd 5a 2d 15 3d d0 ad e1 bd c6 57 0a be
       -0.07682418 0.036420204 -0.1101948 -0.13510045
000040 2e cf da bd f9 27 bf bb 56 15 e3 3a 42 4d d4 bd
       -0.10684048 -0.0058336225 0.0017325084 -0.10366298
000050 fc ab 03 3e 15 57 11 3c 0d 9f 3e bc d2 79 9a be
       0.12858576 0.00887086 -0.0116346 -0.30171067
000060 1a 2e ad 3c e6 42 cb 3c ff cd f3 bc 9e f8 68 3d
       0.021140147 0.024812173 -0.029761313 0.056877725
000070 c1 bb bc 3d a9 97 02 be a8 21 5d 3d 95 6e ec bc
       0.09215499 -0.12753166 0.053987175 -0.028861323
000080 60 38 a4 be 60 2d a0 be 40 1d 2f be 40 b9 32 3e
       -0.3207426 -0.31284618 -0.17101002 0.1745348
000090 7d d1 ba bc 5e 1f c7 3c 82 3b 0d bd 4f 68 86 bd
       -0.02280497 0.02430695 -0.03448058 -0.06562864
0000a0 25 1c a1 3d b2 21 8b bd 89 3c 06 3e c3 fd 5d bd
       0.07866696 -0.06793536 0.1310903 -0.054197084
0000b0 c1 b5 f4 3d a3 92 50 3e 4d 14 e7 bd c9 3f 6f 3e
       0.11948729 0.20368437 -0.11283169 0.23364176
0000c0 89 d2 1f 3e 44 5f 93 bd 6e 94 27 bd 50 cd 73 3e
       0.15607657 -0.07195905 -0.040913038 0.23808789
0000d0 6d e9 2d 3e 8f 42 c0 3d a1 13 47 be 06 06 e3 bd
       0.16983576 0.09387695 -0.19441082 -0.11085133
0000e0 cd 89 9c bd 99 12 9e 3e a4 66 9e 3d a3 11 04 bd
       -0.07643471 0.30873564 0.07734421 -0.032243382
0000f0 49 b6 19 3d 89 7f 3a be 4e d6 7a bd ff 0f 21 3e
       0.037527356 -0.18212713 -0.061239533 0.15728758
000100 14 24 2a 3e 76 5d 26 bd df 6f bc 3d 82 fa d6 3d
       0.16615325 -0.040616475 0.09201025 0.10496999
000110 7e bd fd bd ac 72 38 bd 9a 49 58 be d3 4e 0c be
       -0.123896584 -0.045031235 -0.21121827 -0.13701944
000120 07 cd 8f bd 6d ba 15 3e 85 63 33 be 22 0d 64 bd
       -0.07021528 0.14621897 -0.17518432 -0.055676587
000130 9b 76 76 3d e8 27 04 be c5 51 2a be 11 9f 9f 3d
       0.060171705 -0.12905848 -0.16632755 0.077940114
000140 78 fe d8 bc ea 4c a4 3d ba 0e 3b bd e0 19 ce 3d
       -0.026488528 0.08022483 -0.04566834 0.10063529
000150 f5 14 c1 bd 73 b8 20 be 49 a3 73 3b 88 bc 5b 3e
       -0.09427825 -0.15695362 0.0037176183 0.21458638
000160 5e 81 a4 3d 96 0f 0a be 61 c2 2d bd 29 1c ce 3d
       0.08032487 -0.13482508 -0.042421702 0.10063965
000170 02 0b 0d bd b4 b6 89 3c 56 dc 1f 3e 89 37 84 3d
       -0.034434326 0.016810752 0.15611395 0.06455905
000180 61 41 53 3e 0b 0a 53 3e 26 b0 d9 3c 5f 93 d0 bd
       0.20630409 0.206093 0.026573252 -0.10184359
000190 7c 0f 11 3d 9d b4 34 3d fc a3 15 3c 65 ef c2 3d
       0.035415158 0.04411756 0.009133335 0.09518317
0001a0 e1 0f ad bd da 64 bd bc 35 60 35 be af bd e9 3d
       -0.08450294 -0.023119379 -0.17712481 0.114131324
0001b0 b3 29 83 be ab 3e 33 be 48 3a d2 bd ac d5 e4 bd
       -0.2561775 -0.17504375 -0.102650225 -0.11173567
0001c0 74 60 d5 3c f3 e3 c6 bd 8e 5a 10 3d 04 3b de bd
       0.026046969 -0.097114466 0.03524261 -0.108511
0001d0 77 89 08 bd 39 9b 80 bd c2 35 ee bc c5 31 f5 3d
       -0.03333422 -0.06279606 -0.029078368 0.119723834
0001e0 7c eb 3e 3e 30 20 fd bc aa d3 0f be df a7 94 3d
       0.18644518 -0.030899137 -0.14045587 0.07258581
0001f0 83 6f 4d bd 34 de f2 3d 57 ea 1f 3d e3 f2 8d bd
       -0.050155174 0.11858788 0.039041843 -0.069310926
000200 79 67 ff bb d4 03 e9 3d 9b e2 42 bd 56 43 e0 bc
       -0.0077943173 0.11377683 -0.04757939 -0.027375858
000210 44 9f 75 3b 09 77 b8 3d f4 cf 02 3e f1 e8 19 3e
       0.0037478963 0.09007079 0.1277464 0.15030266
000220 5d b3 a9 3d 13 af 25 be 19 5c 6d 3e f6 e9 9c bd
       0.08286164 -0.16180067 0.23179664 -0.07661812
000230 c5 c9 b9 3d b1 b8 af 3d 08 a6 b6 bd 39 f7 2e bd
       0.090716876 0.08580149 -0.08918387 -0.04271624
000240 ce e7 73 3d 86 52 d2 bd 57 ff 8a 3d b6 80 b9 bd
       0.059547238 -0.10269646 0.067869835 -0.09057753
000250 13 c1 fa 3d 03 a5 bc bd e1 ff bb 3d af c8 1a 3d
       0.12243857 -0.09211161 0.091796644 0.037789043
000260 fe 55 18 be 4d c7 15 bd 50 b8 b8 bc 5b d3 91 bd
       -0.14876553 -0.03656702 -0.022548825 -0.07120391
000270 ea 9b 83 bc 2f 78 33 bd 20 7e 73 bd 20 26 e6 bd
       -0.016065557 -0.043815788 -0.059446454 -0.112377405
000280 76 89 df bd 15 4a 04 be 32 6f 09 be 5c 26 0d 3e
       -0.109148905 -0.12918885 -0.13421324 0.13784164
000290 00 90 f7 3c d0 12 23 bd cb 56 16 be d1 0a 3f 3d
       0.030220032 -0.039812863 -0.14681546 0.046641175
0002a0 a7 b6 5a 3d ac 3f 0e be bb 2c 1e 3e b5 7e 92 3d
       0.053396847 -0.13891476 0.15446751 0.07153074
0002b0 cc d8 3f 3e 86 aa 20 3e 40 2f 00 3d ff 6f ce bc
       0.18735045 0.1569005 0.03129506 -0.025199888
0002c0 76 44 d5 bd 90 99 82 3d 27 c1 e5 bc cb c6 d3 bd
       -0.104134485 0.06376946 -0.028046204 -0.10340651
0002d0 9d 77 35 bd d1 ec fe 3c 47 f8 48 be f7 26 d1 3d
       -0.044303525 0.031118782 -0.1962596 0.1021251
0002e0 2d f0 6c bd f5 09 77 3e f8 a1 af 3d 99 9f 0a 3d
       -0.057846237 0.24124892 0.08575815 0.03384361
0002f0 18 cc 0a bd fd 3b 31 be 4d 7e 6d bd 7d 61 32 3e
       -0.033886045 -0.1730804 -0.057981778 0.17420001
000300 cd c7 fc 3d 6a 85 d4 3b c9 02 5c 3e 33 05 c2 3d
       0.123427965 0.0064856308 0.21485437 0.09473648
000310 40 bd 98 bd 68 8f 9f bd ee f9 16 bd 45 3b 10 bd
       -0.074579716 -0.077910244 -0.036859445 -0.035212774
000320 f5 a8 84 3d da 36 c7 3d fe 2b 0b bc 0e 18 cc bd
       0.064775385 0.09727259 -0.008494375 -0.099655256
000330 b8 e8 98 bc b3 eb a4 3c 9c 3e 9d 3d 80 8f 1b 3b
       -0.018665656 0.020131921 0.076779574 0.0023736656
000340 2a 87 aa 3d 33 15 22 be 15 61 13 3e fe 1e de 3d
       0.08326562 -0.158284 0.14392503 0.10845755
000350 fb 3d bc bd 72 bf 91 3d 93 22 81 bc c8 41 41 3e
       -0.09191509 0.071165934 -0.015763557 0.1887275
000360 32 55 80 3d e2 d3 7b 3d a8 39 19 3d be 91 2b bd
       0.0626625 0.061481364 0.0374085 -0.041887037
000370 f6 31 08 3e 5a 63 b3 3d 30 46 e2 bc 29 f6 03 bd
       0.13300309 0.08759184 -0.027621359 -0.03221718
000380 72 2d b4 bc ca f9 1f 3e b8 9c cc 3d 4b 73 2c bd
       -0.021994326 0.1562263 0.09990829 -0.04210214
000390 06 eb 4b bc a4 63 9f bc 21 2e 79 bc a7 8d f2 3c
       -0.012446171 -0.019456692 -0.015208752 0.02960856
0003a0 74 ee 21 bd 69 db ed 3d cf 00 03 be a1 5f aa bd
       -0.039534047 0.11614115 -0.12793277 -0.08319021
0003b0 da 34 27 be b3 f5 af 3a 00 ec ea bd 32 3d 82 bc
       -0.16328755 0.0013424665 -0.11470795 -0.01589832
0003c0 22 4e bd bd dc 8a 87 3b f2 d8 72 bd 3e 7d d6 bd
       -0.09243418 0.0041364264 -0.059288926 -0.10473107
0003d0 b8 f7 63 3d 2b 11 c0 bd 85 f6 23 bd 98 c8 06 3e
       0.055656165 -0.093782745 -0.04003002 0.13162458
0003e0 72 36 a9 bd 83 06 0e 3c 66 f5 10 be 67 bc 7c bc
       -0.08262338 0.008668545 -0.14156112 -0.015425778
0003f0 2b e7 6b 3d 72 aa 17 3d 86 62 c2 3d f6 e0 af bd
       0.057593506 0.037027784 0.09491448 -0.0858783

rnn.bias_ih_l0 f4 [192]
000000 72 5b ea 3c 0b cd 6f bd d3 c2 9a bd f6 6d bb 3d
       0.028608058 -0.058545154 -0.07556691 0.09151833
000010 8a a2 64 bd ca 19 29 bd ae 94 8e 3c 34 c3 ec bd
       -0.05581907 -0.04128436 0.01740488 -0.115606695
000020 49 34 2c bd ad bc 05 3e 36 5a a5 3d d5 f0 90 bd
       -0.04204205 0.13060255 0.08073847 -0.07077185
000030 4a 0b 93 bd 18 4b 1e be 8f e1 86 bd 6e 7a 31 3d
       -0.071798876 -0.15458333 -0.06585991 0.04332965
000040 6f 88 89 bd a6 a3 19 bd 93 21 13 3e f1 b0 be bd
       -0.06715476 -0.037509583 0.14368276 -0.09311093
000050 77 da 1b be b0 5d c3 bc 7f 66 cf bd fa b7 13 be
       -0.15220056 -0.023848385 -0.101269715 -0.1442565
000060 74 57 3c 3d b1 de fd bd f6 c1 6e 3c 87 1c 07 be
       0.04598184 -0.12395991 0.014572611 -0.13194476
000070 96 3f c3 3d 14 51 43 3d 40 c5 d6 bd fe 36 93 bd
       0.095336124 0.047684744 -0.10486841 -0.07188223
000080 aa 49 0b 3e 34 8e 1f 3e d1 16 c7 bd 96 6a 0b 3d
       0.1360232 0.1558159 -0.09721149 0.034037195
000090 f1 38 dc bd 69 46 84 3d 4c 6f 9d bb 75 41 25 3d
       -0.10753048 0.06458742 -0.0048045274 0.040345628
0000a0 fb db ee bd 20 4a 97 bc 1a 75 f7 bd 9b ae 30 bd
       -0.11663052 -0.018467963 -0.12082882 -0.043135267
0000b0 9e f2 2d 3d 6a 25 91 3d 63 ab b6 3c f4 c7 17 3d
       0.042467706 0.07087214 0.02229852 0.037055925
0000c0 f9 3e c0 3d a4 e1 84 3d 4a de 83 bd 1b 23 ed 3d
       0.09387011 0.0648835 -0.06438883 0.115789615
0000d0 e1 c3 15 bd 2d 6a 1f 3d 61 30 8a 3c d9 63 08 be
       -0.036563758 0.038919616 0.016868772 -0.13319339
0000e0 ee 6b 54 3c e0 4f 8d 3d 20 26 5b bd a2 b9 03 bd
       0.012965186 0.069000006 -0.053503156 -0.032159455
0000f0 04 f8 67 bc 09 a9 41 3c ad 7a 04 3d 21 4e 11 bd
       -0.014158253 0.011820086 0.032343555 -0.0354749
000100 ff d7 ba bd 3c 7f 5f bc 37 9f 68 3e 87 0e b4 be
       -0.09123229 -0.013641175 0.22716986 -0.35167333
000110 7f 3c 53 be 5c 09 af be 33 d5 45 be bc 78 f0 be
       -0.20628546 -0.34186828 -0.1931961 -0.46967113
000120 3e 9f 08 3e a0 91 30 be 2e 34 06 bf 4e 07 de bd
       0.13341996 -0.17243052 -0.5242337 -0.10841237
000130 23 d5 b8 bd 0e 72 66 3d 7c d2 1e be cf 2d bc be
       -0.090250276 0.056261115 -0.15509981 -0.367537
000140 de 9c e2 bd 64 dd d9 3d d1 a9 af 3d 86 ac da bc
       -0.11065076 0.1063793 0.08577312 -0.026693594
000150 91 71 f8 3d 55 10 64 3d 90 bd a7 be fe fe c7 be
       0.12131036 0.055679638 -0.32761812 -0.3906173
000160 ca 93 14 3d de 8b 03 be f9 f9 a3 bd 2c 69 a9 be
       0.036273755 -0.12846324 -0.08006663 -0.33088052
000170 5f cc 16 be 69 fa 01 be e8 31 37 be 44 41 6e bd
       -0.14726399 -0.1269318 -0.17890131 -0.05816771
000180 a2 26 b1 be 3e 0e cb 3d ae d8 65 bd c0 72 c1 be
       -0.34599787 0.09914826 -0.056114845 -0.3778286
000190 7d ea 43 be a2 85 c0 bd cb c0 c8 bd f9 2f 0b 3e
       -0.19132419 -0.094004884 -0.09802397 0.13592519
0001a0 5d 89 04 be c7 e4 f7 bb 45 6d e4 be fb 44 ab be
       -0.12943025 -0.007565114 -0.44614616 -0.33451065
0001b0 1e e9 6d be 4a 96 d1 be 13 cf e2 bd 75 82 20 3e
       -0.23233458 -0.40934974 -0.110746525 0.15674765
0001c0 c5 ec 0b 3e ff cf 94 be e3 6f 56 3d ad eb a5 3d
       0.13664539 -0.29064938 0.052352797 0.08101592
0001d0 32 b7 2d be 87 f2 7d bd f3 97 c9 be 4f 73 c1 be
       -0.16964415 -0.06199887 -0.3937374 -0.37783286
0001e0 84 78 6f bd c4 ca 83 be ee 1a 1f be 3d cb 18 be
       -0.058464542 -0.25740635 -0.15537617 -0.14921279
0001f0 74 4d 25 be 9b 08 0d be 39 8b a6 be 32 70 b0 be
       -0.16142827 -0.13772814 -0.32528093 -0.34460598
000200 bd 82 fd 3d 54 70 c8 bd 3f 56 f5 3c fb c4 3e 3d
       0.12378452 -0.0978705 0.029948352 0.046574574
000210 56 b8 87 bd ee f5 7c 3c 99 d3 f9 bd 04 21 55 3d
       -0.06626956 0.015439494 -0.12198562 0.05203344
000220 07 5e f6 bc f6 9b 5e 3d 69 74 da bd a0 37 35 bd
       -0.030074133 0.054347955 -0.10666735 -0.0442425
000230 8a b6 4e 3b 64 3a 52 3d 00 e1 3f 3d 7a 6a 10 3d
       0.0031541907 0.051325217 0.046845436 0.035257794
000240 d9 de a1 3d 55 01 3b bd cb 2f 38 bd bf f2 ac 3d
       0.07903833 -0.045655567 -0.044967454 0.08444738
000250 12 b4 31 bd f9 54 d3 3c d1 77 af bc 69 4b 0e be
       -0.04338462 0.025797354 -0.021419438 -0.13895954
000260 1c 6c 15 bd d9 94 c6 ba 0c 88 04 be ce ac 92 bd
       -0.036480054 -0.0015150561 -0.12942523 -0.07161866
000270 ca b4 85 3d 3c 04 a9 3d 3e fe 82 3d 11 5d d2 bc
       0.065286234 0.08252761 0.06396149 -0.025679143
000280 1f 5c dc bc b3 7e e7 bc 7a 1d f9 bd a5 6a ed bc
       -0.026899396 -0.028258657 -0.12163825 -0.028981516
000290 bb a5 ac 3d c3 43 9a bd 76 a2 1e bd 64 f6 57 3b
       0.08430048 -0.07532456 -0.038729154 0.0032953257
0002a0 0b 53 0d 3c 59 14 0b 3d 45 cc d9 bd 0d 08 3e bd
       0.008625756 0.033954952 -0.106346644 -0.046394397
0002b0 e4 24 b8 bd 87 03 81 3b 6b d7 e4 bb de 6c 3b bd
       -0.08991411 0.003937188 -0.0069836876 -0.04575812
0002c0 4b b0 fe 3b 74 24 93 bd 05 23 c5 3d 77 36 0e 3d
       0.0077724806 -0.07184687 0.0962582 0.03471991
0002d0 81 fc 92 3d d5 b4 60 bd 22 2e 07 3d d0 7d d0 3d
       0.071770675 -0.054859955 0.03300298 0.10180247
0002e0 cf b3 fd 3d 23 28 ca 3c 83 2f bc bb 6d 82 e0 3d
       0.123878114 0.024677342 -0.0057429685 0.10962377
0002f0 e7 34 dd 3d ef 51 99 3d 6c 32 40 3d cb c2 89 bc
       0.10801106 0.07486331 0.046923086 -0.016816517

rnn.bias_hh_l0 f4 [192]
000000 11 2a a8 3d df 53 a4 3b 9b 50 6b 3d 14 05 4c 3d
       0.082111485 0.005014881 0.05744992 0.04980953
000010 90 2a e7 3d 9a e0 0a be da 9e 0c be 0f cc 95 bd
       0.11287415 -0.13562241 -0.13732472 -0.07314312
000020 06 43 e0 3d 16 3f 06 3e 5a eb d3 3d 44 57 ab 3d
       0.10950284 0.13110003 0.10347624 0.08366254
000030 54 41 e4 bd 0a df 7d 3d 7d 51 20 3e 0b b4 e2 bd
       -0.11145273 0.061980285 0.15656085 -0.11069497
000040 1c 71 9e bd 02 41 30 bd cf 0c 4c bd d0 aa f2 bd
       -0.07736418 -0.043030746 -0.049816903 -0.11848986
000050 c5 24 84 bd ae c7 be bd 29 31 b3 bd bd 41 0d bd
       -0.06452326 -0.0931543 -0.08749611 -0.03448652
000060 53 fe c3 bc fa 71 7d 3b 9d db 47 bd 15 b8 74 bc
       -0.023924982 0.0038672672 -0.048793424 -0.014936467
000070 21 3f 08 bd 90 fe 92 bd b9 55 b5 3c e5 fc f5 b9
       -0.03326333 -0.0717746 0.022135602 -0.00046918463
000080 26 e7 7f bd 85 5e 70 bb 78 fd 0e be 87 9f 5c bb
       -0.0624763 -0.0036677432 -0.13963878 -0.0033664422
000090 80 97 d4 bd 6d 6e 56 3d e5 14 22 bd 0e b4 62 bd
       -0.10380459 0.052351404 -0.039570708 -0.055347495
0000a0 72 da 9b bd 17 8f 21 3d d4 2f 13 be 1b 27 38 bd
       -0.076100245 0.0394431 -0.14373714 -0.04495917
0000b0 01 bf f8 3c 66 20 a3 3d 0c be a0 bd d0 9a fa 3d
       0.030364515 0.07965164 -0.078487486 0.122365594
0000c0 45 3f 1a bc 12 5c 17 3b 3b cb 5b 3d a0 b1 e1 bd
       -0.009414499 0.002309565 0.053660613 -0.110202074
0000d0 40 76 53 3d af d9 06 3d 6c c1 e3 bd 43 07 08 3c
       0.051626444 0.032922443 -0.11120877 0.008302513
0000e0 a8 3f 35 bd 14 57 89 bd c2 a8 3b bd 1a 62 46 be
       -0.04425016 -0.06706062 -0.045815237 -0.1937336
0000f0 1d 26 11 be 42 34 64 3a 25 99 df bb 03 55 68 bd
       -0.14174695 0.0008705297 -0.006823676 -0.0567217
000100 ac 91 34 be fb 8b e9 3d c7 3a 68 3e ae 4b 83 be
       -0.17633694 0.11403652 0.22678672 -0.25643677
000110 5e 4c 87 be 1e 60 89 be 5b d0 31 be 68 04 97 be
       -0.2642545 -0.26831144 -0.17364638 -0.2949555
000120 42 9f 5e 3e 83 23 99 b8 7e 4c f3 be 99 5c a3 bc
       0.2174044 -7.302223e-05 -0.47519296 -0.019941615
000130 af f7 03 3e 5e 49 dc bd d9 f5 19 be 45 ff 9a be
       0.12887453 -0.10756181 -0.1503519 -0.3027288
000140 c5 0c 11 be 53 6c 19 3e 9e cb 2a 3e 16 28 f8 bc
       -0.14165027 0.14982729 0.16679236 -0.030292552
000150 c5 5a df 3b ca 27 1f 3e 44 66 b6 be 21 50 89 be
       0.0068162405 0.15542522 -0.35624897 -0.26818946
000160 93 da 81 bd 85 75 71 bd 6c 02 d0 bd bd e8 3e be
       -0.06340518 -0.058949966 -0.10156712 -0.1864347
000170 e7 98 7d be e2 f1 17 be 4a fd 22 be 61 f6 c5 bd
       -0.24765359 -0.14838365 -0.15916935 -0.09666134
000180 15 c2 96 be 4c a0 9f 3b 62 87 af bc 23 92 bc be
       -0.29444948 0.004871404 -0.02142686 -0.36830243
000190 cb df 9c be b6 ff bc bb 55 b4 1e be 90 63 f7 3d
       -0.3063949 -0.005767788 -0.15498479 0.12079537
0001a0 d2 0b 40 be 20 f9 08 be 67 82 e4 be d9 56 88 be
       -0.18754509 -0.13376284 -0.4463074 -0.2662876
0001b0 13 b2 d6 be 54 11 ce be 2b b1 39 be 74 dd 1c 3e
       -0.41932735 -0.40247595 -0.1813399 0.15318853
0001c0 96 3c 5b 3d 60 88 40 be e5 d9 0b bd 14 4d eb bd
       0.053524576 -0.18802023 -0.034143347 -0.11489311
0001d0 1e f6 4b be 36 e2 85 bc c5 31 c8 be 87 b4 bd be
       -0.19918105 -0.016343217 -0.3910047 -0.37051794
0001e0 9a f4 33 bb a9 c0 79 be 42 21 67 be 0f ae 11 be
       -0.0027459026 -0.243899 -0.2257128 -0.14226554
0001f0 fe 62 03 be bd e9 ba be b5 ab d2 be e5 76 b0 be
       -0.12830731 -0.36506453 -0.41146627 -0.3446571
000200 99 43 35 3d b3 ec 0f 3e a8 c0 65 3d 8f df 79 bd
       0.04425392 0.14055137 0.056091934 -0.061004218
000210 51 65 ae bd 0d 1c 37 bd b8 8e be b9 dd 8a 1c bc
       -0.08515418 -0.044704486 -0.00036345958 -0.009554592
000220 07 10 97 3d 74 95 22 3d 3e 98 cc 3d 16 ac 0e 3e
       0.07376104 0.03969331 0.099899754 0.13932833
000230 8a c5 0b 3e 3e ff 91 3d 35 ba 86 bc a8 25 d4 bd
       0.13649574 0.07128762 -0.016446212 -0.10358745
000240 aa 04 95 3d 44 69 e5 3d 1a cc e8 bd 80 93 cd 3c
       0.0727628 0.112017184 -0.11367054 0.025094748
000250 09 d8 91 bd 33 22 c0 bd d6 c7 a6 3d f3 18 8e bc
       -0.071212836 -0.09381523 0.081435844 -0.017345881
000260 44 eb c8 3d e5 f8 f9 bc ab f0 73 bc ed d7 6d 3d
       0.09810498 -0.03051419 -0.014888923 0.05806725
000270 b7 c8 1d be 74 ed 90 3c 5c 29 9e 3d 22 7a 7c 3d
       -0.15408598 0.017691351 0.077227324 0.061639912
000280 99 a5 23 3d 77 b0 fd bc 90 3b b1 3d 90 74 6c 3d
       0.039952848 -0.030967934 0.08653939 0.05772835
000290 ba 66 bf bd dd 28 c8 3d 35 87 c3 3d 66 c8 ab 3a
       -0.093457654 0.09773419 0.09547273 0.0013105988
0002a0 7b e4 1b bd 19 fd 01 bd ae 57 34 bd 6e 4a e5 3d
       -0.038059693 -0.031735513 -0.04402893 0.11195837
0002b0 65 5c 17 bd 00 e6 9d bd f3 2e e5 3c b4 3b 21 3b
       -0.03695335 -0.07709885 0.027976489 0.0024602236
0002c0 30 af 9a 3d 91 fd c7 bc 8f 96 f8 bd 48 eb b9 bd
       0.075529456 -0.024412902 -0.12138092 -0.090780795
0002d0 8a 01 83 3d 43 ac 54 bd 31 b1 1c bd 70 8f e3 3b
       0.06396778 -0.051922094 -0.03825492 0.0069445893
0002e0 7d c4 b7 bd d5 f3 14 3e c2 33 07 3e 52 f1 14 bc
       -0.08973024 0.1454614 0.13203338 -0.009090738
0002f0 53 7c 92 bd 22 cd a0 bd 74 ca 97 3d c9 6f b5 3c
       -0.07152619 -0.07851626 0.07411662 0.02214803

rnn.weight_ih_l1 f4 [192, 64]
000000 51 7c b1 bc b3 ca 80 3d f5 68 bc bb 3b 0a e2 ba
       -0.021665724 0.06288662 -0.0057498165 -0.001724548
000010 56 af f4 3b 4d e0 c2 bc a3 5d 38 3d be 48 01 bd
       0.0074671907 -0.023788596 0.045011174 -0.031563513
000020 a9 2b ad 3d 89 ce 73 bc f6 9b 49 bc f9 a4 da 3d
       0.08455593 -0.014880785 -0.01230525 0.10675997
000030 54 cc a7 3d ca b8 0f 3d 8b 11 ec bd 7d 31 01 bd
       0.08193269 0.035088338 -0.115267836 -0.031541336
000040 bd 4d 28 3d 60 4c d4 bd 26 26 d6 ba dc f7 36 3c
       0.041089762 -0.1036613 -0.0016338273 0.011167493
000050 b8 49 20 3d 40 71 60 3d e4 bc bb bd f4 12 f0 3d
       0.039132804 0.054795504 -0.091668874 0.11722365
000060 bd 05 ef bd 24 7c 4d 3d 69 0d 51 bd b7 5b 58 3d
       -0.11671016 0.050167218 -0.05103818 0.05282184
000070 08 a3 ab bd 6b 3f 3b bd 23 fd a8 3d 7c 2e d8 bd
       -0.08380705 -0.045714777 0.08251407 -0.10555741
000080 3f 15 94 bd d0 6d 24 be ea b1 c8 3d 32 c2 a6 3d
       -0.07230615 -0.16057515 0.097995594 0.081425086
000090 cc 39 53 bc 12 ee b1 bd 22 fb af bb 65 60 93 3c
       -0.012892198 -0.086879864 -0.0053705135 0.0179903
0000a0 11 da 0e bd cd 62 ee 3d ad 1c 33 3d c5 a1 e4 bd
       -0.034875933 0.116399385 0.04372852 -0.111636676
0000b0 6d 66 13 3b 72 25 ac 3c 3e cf c1 3c f3 3f a2 bd
       0.002249147 0.021013949 0.023658391 -0.079223536
0000c0 5d fa d7 3d 13 7b 40 3d 57 c3 a9 bd 83 12 ec 3d
       0.105458 0.046992373 -0.08289211 0.11526968
0000d0 f7 2b c9 3d ef 44 4e bd ca 3a 9f bd e6 f6 27 3e
       0.09822839 -0.05035871 -0.07774885 0.16402778
0000e0 7b 8e 0a bd 87 1f 54 bd 74 72 ac bd 00 37 aa 3c
       -0.033827286 -0.05178788 -0.08420268 0.02077818
0000f0 00 bf ca bb 5f eb ad 3d b2 c8 e3 bc 01 b4 d2 bd
       -0.0061873198 0.08492159 -0.02780566 -0.10288239
000100 34 94 4d bd 55 ac 1c be e9 45 d6 bd a6 0f 20 3e
       -0.050190166 -0.15300114 -0.10462553 0.1563097
000110 2d af 8b bb 5e b7 ff bc 3e 16 83 3d 73 31 0e be
       -0.004262826 -0.031215366 0.06400727 -0.13886051
000120 1c d2 e9 3c 99 72 1b 3d bf 8a 69 bd 81 62 01 bd
       0.02854257 0.037951086 -0.057017084 -0.03158808
000130 e6 96 54 3d 36 38 ab bd bb 69 7a 35 51 88 4d 3e
       0.05190172 -0.08360331 9.3286116e-07 0.20071532
000140 44 02 c4 bd cf f9 c2 bd 4d f3 91 3d 5b 57 d3 bb
       -0.09570745 -0.095203035 0.07126484 -0.0064496226
000150 ca 14 d0 bd a3 0b fa 3d c5 fd 1a bd a2 94 01 3e
       -0.10160215 0.12209251 -0.03783967 0.12654355
000160 b4 74 23 3d 9e 9d 94 bc 85 ef ad 3c ff 93 93 bd
       0.03990622 -0.018141564 0.021232376 -0.072059624
000170 b3 0c d4 bd 9e 0c 99 3d 0f ab bd bd 76 d5 6b 3d
       -0.10353985 0.0747311 -0.092611425 0.05757662
000180 8e a7 60 3e 23 62 8c 3b f2 2e 04 3e e3 42 ac 3d
       0.21938917 0.0042841597 0.12908533 0.08411195
000190 6e 28 bc 3d 1e cb eb 3d f1 07 eb bd 75 80 b3 3d
       0.09187399 0.11513351 -0.11476124 0.087647356
0001a0 cb 03 08 3e b5 e7 13 3e 77 ee 6f 3d 66 10 90 3b
       0.13282697 0.14443858 0.058577027 0.004396486
0001b0 aa ae 68 bc 9c 0d 37 be 85 ce dd bd a8 d8 0b 3e
       -0.014201799 -0.17876285 -0.10830406 0.13656867
0001c0 96 bd be 3d a5 c2 d7 bd ff 4b 81 bd 94 44 48 bd
       0.093135044 -0.105351724 -0.06313323 -0.048893526
0001d0 71 7e 85 3d 84 06 a5 bd 31 d7 2b 3d 96 bb 0e 3c
       0.065182574 -0.080578834 0.04195327 0.008711716
0001e0 90 39 b1 3d f1 30 72 be ba c8 39 3d 04 76 1a be
       0.08653557 -0.23651482 0.045357443 -0.15084082
0001f0 6a a4 03 be 47 97 00 bb 0a 8d 96 3d 83 20 6e be
       -0.12855688 -0.0019621418 0.0735112 -0.2325459
000200 77 db 8b 3c c4 5b d0 bc d0 43 04 be c0 34 92 3d
       0.017072422 -0.025434382 -0.12916493 0.071389675
000210 7e 2e 5d 3c 03 ef 46 bc 9e b1 2e 3e f9 3a de bd
       0.013499854 -0.012141946 0.17059943 -0.10851092
000220 a3 ce 08 3d 9a ed 78 bd a3 cf a8 3a 3c b4 55 3d
       0.03340019 -0.06077347 0.0012879263 0.052173838
000230 b6 cd 15 3c 94 f2 95 3d 6c fb f2 bd 66 8d 44 bd
       0.009143284 0.07321659 -0.11864361 -0.04798641
000240 61 91 0e be b7 85 e7 bc 68 14 d1 3b 4a 27 41 3d
       -0.13922645 -0.028262002 0.0063806064 0.04715661
000250 77 5f 8f bd e3 77 f8 3d 24 1b 91 3d 54 71 26 bd
       -0.0700063 0.121322416 0.07085255 -0.040635422
000260 2b a8 31 3c 65 d3 15 be b6 45 e6 bd 10 71 bd 39
       0.010843317 -0.14631422 -0.11243765 0.00036133127
000270 1d 86 0d be 03 af af bd e8 a1 95 3d 8c ed 8c 3d
       -0.13820691 -0.08578303 0.07306272 0.06881246
000280 da 45 ad 3d c6 a7 0c 3c bd 5e 82 3c dc 17 ca 3c
       0.08460589 0.008584922 0.015914315 0.02466958
000290 cb 04 4d bd 82 22 5f bd a4 b5 c5 3d 79 c5 69 bd
       -0.0500534 -0.05447627 0.09653786 -0.05707309
0002a0 48 11 ce bc 8a 51 30 bd 74 3f 92 3d ac 99 25 be
       -0.025154725 -0.04304651 0.07141009 -0.16171902
0002b0 e2 d7 2b bd 82 a1 ce bd b7 f6 bc bd e0 95 65 bd
       -0.04195393 -0.10089399 -0.092267446 -0.056051135
0002c0 32 37 80 bd ec df 95 bd 99 5b ab 3c ec 62 22 bd
       -0.06260528 -0.073181 0.0209177 -0.03964512
0002d0 79 81 6a 3c d3 ac c3 3d 77 16 e9 3d 89 0f 0f 3d
       0.014313095 0.09554448 0.11381238 0.034926925
0002e0 a1 91 24 be 06 4c 2c be dc 6f 9e 3d d5 8c 1a bd
       -0.16071178 -0.16825876 0.07736179 -0.037731964
0002f0 5c 4e 79 bc 2f f4 0b bd 12 15 89 3d 74 1c 31 be
       -0.015216436 -0.03416842 0.06693472 -0.1729601
000300 b9 1d a1 3d 07 a0 c0 bd 10 e5 96 3c a3 58 be 3c
       0.07866997 -0.09405523 0.018419772 0.023235625
000310 3c 10 12 3e 35 7f c6 bd 6a cb e0 3b f9 ce ef bd
       0.14264005 -0.096922316 0.0068601863 -0.11709399
000320 b8 b5 79 3b 3b 74 9f bc 68 c3 b0 3d 8b 8b 4b 3d
       0.0038102698 -0.019464603 0.08631021 0.049693625
000330 0a 2d e7 bc 4a 9f e9 bc 29 dd f9 3d c0 d7 2b 3d
       -0.028219718 -0.028518338 0.12200386 0.041953802
000340 d8 ad 01 bd 36 9f da 3c 37 3e 7d bd d4 1b 8b bd
       -0.03165993 0.026687246 -0.06182691 -0.06792417
000350 7f 9a 7e 3d fd 9a d3 3c 28 38 bc bc ed 9c 8c bd
       0.062159058 0.02583074 -0.022975996 -0.06865869
000360 20 b8 bf 3c 8b c9 8b bd 21 af b5 bd ea ff 1f 3d
       0.023403227 -0.06825551 -0.08871294 0.039062418
000370 24 c2 2d 3d 6a 81 38 bc 2e 82 17 be b7 fe 38 be
       0.042421475 -0.0112613235 -0.14795753 -0.18065916
000380 df 9f 80 bc f9 ad 4b bc 08 b7 39 bd c3 bd be 3d
       -0.015701232 -0.012431615 -0.045340568 0.09313538
000390 9d 82 d0 3d 4a c5 2b 3d bd 16 74 3d 8d 44 11 be
       0.101811625 0.041936196 0.059591997 -0.14186306
0003a0 e8 c0 85 bd 5d 78 b8 3d 89 31 2b 3d b2 c1 b2 bd
       -0.065309346 0.090073325 0.041795287 -0.08728351
0003b0 8f a8 80 bd 3a 29 9f bd 45 6a 29 bd a5 65 ec 3c
       -0.0628215 -0.07771535 -0.041361112 0.028857062
0003c0 4d e4 91 bc 8d e7 99 3d bc 62 cf 3d 06 a8 75 bd
       -0.017809058 0.07514868 0.10126254 -0.059974693
0003d0 cf 9c 42 3d fe 26 af bd 85 d5 48 bc f1 c5 c0 3c
       0.047512826 -0.08552359 -0.012257938 0.023531886
0003e0 d5 8b 93 bc f2 da b3 3d 32 d1 af 3d 3d fa ad 3d
       -0.018011013 0.08781995 0.08584823 0.08494995
0003f0 d3 f2 a4 3d 64 1c 99 3d 3f 5a 95 3d 29 79 1f bd
       0.080541275 0.07476118 0.07292604 -0.038933907

rnn.weight_hh_l1 f4 [192, 64]
000000 e2 78 bd bd 3f 28 36 be 89 60 9f 3c 7c 7d 14 3e
       -0.09251572 -0.1778879 0.019455211 0.14500993
000010 94 33 d3 3d 8e 7e 75 bd eb cc ca 3c 19 db 60 3d
       0.10312572 -0.059935145 0.024755916 0.054896448
000020 62 30 b5 bd 18 b1 4a 3d f4 f1 3f 3d ad 5d b7 bc
       -0.08847119 0.049485296 0.046861604 -0.022383535
000030 b9 f2 5a 3c 6b 54 7a bd ee 41 d9 3d bd 76 04 bd
       0.013363534 -0.061115663 0.10608278 -0.0323398
000040 57 32 9d 3d 95 3b 4c bd 06 49 ab bd 20 f9 64 3d
       0.07675617 -0.04986151 -0.083635375 0.055901647
000050 2a c4 cc 3d 38 90 bb bd 11 63 b0 bd b5 b8 71 3d
       0.09998353 -0.09158367 -0.086126454 0.05901404
000060 d0 ca 80 3c a8 da 85 3c aa 5c 82 bd 62 f6 81 3d
       0.015721709 0.016339615 -0.063653305 0.06345822
000070 65 2f 85 bd a1 b6 8a bd 26 33 14 be 07 ca 67 bd
       -0.065031804 -0.06773115 -0.14472637 -0.056589153
000080 25 7c 4d 3d 15 ab 2d bd 0a b1 cb bc 3d a5 e9 bc
       0.05016722 -0.042399485 -0.024864692 -0.028521175
000090 57 ec 5f bd b1 29 25 3d 6b d2 88 bc 10 c1 0a be
       -0.05466875 0.040322963 -0.016701898 -0.1355021
0000a0 3c d9 9c bc f4 e2 b5 3d b4 18 95 3d 9b e5 9e 3c
       -0.019146554 0.088811785 0.07280102 0.019396594
0000b0 ca f8 fe 3c f3 02 32 be 97 c8 8c bd a5 6a a1 bc
       0.031124491 -0.17383938 -0.06874197 -0.019704172
0000c0 b3 98 b2 3d e6 45 d4 bd 2c da 2a 3d 50 46 5c 3c
       0.08720531 -0.103648946 0.04171197 0.013444498
0000d0 36 60 8f 3a a6 e6 8a 3d 84 67 44 3d e4 1e d4 bd
       0.0010938707 0.06782274 0.047950283 -0.103574544
0000e0 ce 4e 0d 3c e7 bb e5 3d 22 29 a1 bd c0 58 c7 3d
       0.0086247455 0.1121748 -0.078691736 0.097337246
0000f0 bc 82 8e bc 77 a8 25 bd f2 02 6f bd 07 61 a9 bd
       -0.017396323 -0.040443864 -0.05835242 -0.082704596
000100 f5 21 aa bd a7 ed ca 3c 4e b8 a4 bb 2b 13 c5 3d
       -0.08307258 0.024771525 -0.0050268536 0.096227966
000110 ea 5f 93 3c 4e 4a fe bd 95 f9 8d bc 36 05 cb 3d
       0.017990071 -0.12416516 -0.017330924 0.09913103
000120 d0 ea d6 3c 19 f6 16 bd 33 7d ac bd da d0 5d 3b
       0.026235014 -0.03685579 -0.08422317 0.003384641
000130 2d d2 42 bd 00 d7 3e 3d e8 92 ec 3d e0 68 55 bd
       -0.04756372 0.04659176 0.11551458 -0.05210197
000140 0f cb 82 3d 99 43 c0 3c c1 65 3c 3d bf 36 de 3d
       0.063863866 0.023469733 0.045995478 0.10850286
000150 d5 66 47 bc 17 de 91 bd a8 c6 21 3d 48 f5 61 bd
       -0.012170513 -0.071224384 0.039496094 -0.05516556
000160 67 14 a4 3d a4 b3 25 3e bc 11 31 be eb 9f 70 3d
       0.08011704 0.16181809 -0.17291921 0.05874626
000170 24 4b 8a bd 69 52 2b 3d 75 59 ee bd 43 ee 14 be
       -0.06752613 0.04182664 -0.11638156 -0.14544015
000180 2f 1f 3e bd a9 1b 1d 3d 08 7e 62 bd 52 dc 73 3c
       -0.046416458 0.038356457 -0.055295974 0.014884071
000190 4b 63 b9 bd 5f 90 f2 3c 43 82 4c 3d 1c 10 bb bd
       -0.09052142 0.029609857 0.049928915 -0.09133932
0001a0 7f 35 94 3d 84 ce 08 3b a3 4c dc bd 04 3d 92 bd
       0.07236766 0.0020875046 -0.10756805 -0.07140544
0001b0 fe 54 5d 3d d0 5e 16 be 0e 27 6c bd f7 8e 5a 3b
       0.054036133 -0.14684606 -0.057654433 0.0033349374
0001c0 9e e0 13 3d eb f3 c4 3c a5 20 83 3d 3a 9a 2b bd
       0.036102884 0.02404209 0.06402711 -0.04189513
0001d0 1d 8a f3 bc cf ec 5a bd 71 94 9e 3c 44 9a fc 3d
       -0.029728943 -0.053448495 0.019357892 0.12334111
0001e0 b6 4b 8f b9 84 96 c3 3d 81 50 5b 3b 50 30 b3 bd
       -0.00027331494 0.09550193 0.0033464732 -0.08749449
0001f0 c9 11 11 3e 1b fc 89 bd 45 8b 03 be b3 c0 08 ba
       0.14166941 -0.067375384 -0.12846096 -0.00052167027
000200 eb 0f 19 3e 36 a8 2b be 48 b1 9e bd ec ef 49 bd
       0.14947478 -0.16763386 -0.077486575 -0.049301073
000210 26 c4 06 be 02 04 d4 bd 3c 62 12 be 4c 76 f1 bd
       -0.13160762 -0.10352327 -0.14295286 -0.117901415
000220 9f 29 77 3d a5 7e ae bc c6 42 02 be 38 b5 a3 3d
       0.060342427 -0.021300623 -0.12720785 0.07993549
000230 39 cc d6 3d 97 1e 21 be f8 11 54 3d 84 c0 0f 3e
       0.10488171 -0.15734325 0.05177495 0.14038283
000240 e7 2d a0 bd 74 4f 06 be 2b 69 58 bd 3d 0d 8c bc
       -0.07821255 -0.13116246 -0.05283467 -0.017096156
000250 28 12 7e 3c 50 5f 26 bc 01 7c 9a bd 82 28 c4 bc
       0.0155072585 -0.01015456 -0.07543183 -0.023945097
000260 3f 2a a4 3d 5b da 0b 3e 5b 37 6a 3c f2 b7 2f be
       0.0801587 0.13657515 0.014295424 -0.17160013
000270 3a ff 1e bc 4b f4 09 3e d0 dd 11 be 70 81 84 3d
       -0.009704405 0.13472097 -0.14244771 0.06470001
000280 79 6b 79 3d 39 d7 ad 3d 98 1c 4a bd 40 23 c8 3c
       0.06089351 0.08488316 -0.049343675 0.024430871
000290 3a 7d 23 3e eb 0a ac bd 2e f1 4b bd f6 8c c5 3d
       0.15965739 -0.0840052 -0.049790554 0.09646027
0002a0 92 62 ae 3d 7f a8 bf bd f3 b5 ea bd 0c 1f b3 bd
       0.085148945 -0.0935831 -0.11460485 -0.08746156
0002b0 2d 3c a1 3d aa 2f 8e 3d 42 da f0 bd bd 8f 9f bd
       0.07872806 0.06942685 -0.117603794 -0.07791088
0002c0 4b ed 6c bd 8d 7f 87 3d 59 af 18 bd 39 81 b1 bd
       -0.057843488 0.06616125 -0.0372766 -0.086672254
0002d0 77 78 18 3e df 03 24 bd ef 14 01 3e f3 ea 6c bd
       0.14889704 -0.040042754 0.12605642 -0.057841253
0002e0 ab 4e 6d bd 70 c2 4a 3d d5 df e7 3d 2a e4 ce bb
       -0.05793635 0.049501836 0.113219894 -0.0063138204
0002f0 d1 6d 13 3e f5 b0 1f 3d 21 18 14 bd 2b 54 ed bb
       0.1439736 0.03898712 -0.036155824 -0.0072426996
000300 ed 9c 0f bc 70 73 03 be c0 f6 8e bc 08 ae eb 3d
       -0.008765441 -0.12837005 -0.017451644 0.11507803
000310 a5 a0 bf bd 8a a1 bc bd a3 87 1c be ec f0 15 be
       -0.093568124 -0.09210499 -0.15286116 -0.14642686
000320 5d 9f 1e 3e ee ed 41 ba 48 86 a4 bd 3b a4 85 3c
       0.1549048 -0.000739782 -0.080334246 0.016313663
000330 d2 df 0b 3e 44 63 14 be fa 6d 99 3d 19 e2 86 bd
       0.136596 -0.14490992 0.074916795 -0.065860935
000340 53 52 df bd 88 fa 8a bd 08 74 4c 3e 0e 68 b8 bd
       -0.10904374 -0.06786066 0.19966137 -0.09004222
000350 44 2c 28 be 06 41 bb 3d bc 15 6a bd 6f 86 38 bd
       -0.16423136 0.091432616 -0.057149634 -0.04505008
000360 42 e1 03 3e 15 1c 87 3d ff b3 4f bd 3e 6a d4 3d
       0.12878898 0.06597153 -0.050708767 0.103718266
000370 ea be 86 bd ed 74 2f bd e3 16 88 bd 7c cd 56 bd
       -0.06579383 -0.04283612 -0.0664499 -0.05244206
000380 db 42 49 3d 58 64 d1 3d b9 c3 d7 3c f0 43 0d 3e
       0.049136024 0.10224217 0.026338445 0.13795447
000390 9d 6f 32 3e fe b8 1b 3e 28 ae 37 3d 16 23 17 3d
       0.1742539 0.15207288 0.044843823 0.036898695
0003a0 9b 53 0e 3e 19 45 37 3e d8 a2 fe bd a3 79 be bd
       0.1389908 0.17897452 -0.12433404 -0.09300544
0003b0 7f f5 19 3e b9 a0 bc bd e9 9d 67 3c 1d 78 0f bd
       0.15035056 -0.09210343 0.01413677 -0.03502666
0003c0 2a 4d 79 3d fb 58 c2 bc cf 44 34 be 36 60 3a bc
       0.060864605 -0.02372407 -0.17604373 -0.011375478
0003d0 6c b9 53 bd c5 8f af 3d 88 68 81 3d a1 0a 77 3d
       -0.051690504 0.08572344 0.06318766 0.06031287
0003e0 e3 b2 aa 3d ed 7f 21 3e 4f 3f ab 3d 6c de e1 bc
       0.08334901 0.15771456 0.083616845 -0.02757188
0003f0 96 2f cd 3d 28 11 0e be 5e 37 45 bd 32 d6 f7 3d
       0.10018842 -0.13873732 -0.048148505 0.121014014

rnn.bias_ih_l1 f4 [192]
000000 03 7b 06 3d 83 17 8d 3d 00 52 c1 bd 57 fb c3 bd
       0.032832157 0.0688925 -0.094394684 -0.09569424
000010 cc 77 a7 bd 5c 81 56 bd 74 ad 08 be fb 75 b4 bd
       -0.08177146 -0.05236946 -0.13347417 -0.088115655
000020 d6 c1 aa 3c 9b 15 6a 3d 93 79 34 3d f9 63 13 3d
       0.020844381 0.05714951 0.044061255 0.035984013
000030 99 f6 9b bd fc ba a6 bc 91 e3 26 be a6 c5 ea 3d
       -0.07615394 -0.020352833 -0.16297747 0.1146348
000040 f3 30 b6 3c c5 db 00 bd 1c ed 85 bd 2b 3e f6 3c
       0.022240138 -0.03145959 -0.06539366 0.03005894
000050 d2 a3 6c 3c d2 dc e9 bc 3b 27 f1 bd d8 c7 4f bc
       0.014443355 -0.028547678 -0.11775061 -0.012681924
000060 46 b0 90 bd 04 c7 b9 3b a6 d2 c8 3c e6 98 82 bd
       -0.070648715 0.0056694765 0.024514508 -0.06376819
000070 b9 1e 9d 3d 40 dc e7 3c 6b 63 49 ba 89 1e 9e bd
       0.076718755 0.028303266 -0.0007682356 -0.07720668
000080 c6 aa 59 3d a0 df f5 bd c8 fa 85 3d ea ba fe bd
       0.053141378 -0.12005544 0.06541973 -0.12437995
000090 72 c3 78 3c c2 f7 f6 3b b7 00 30 be ee 13 4a 3d
       0.015183317 0.0075368593 -0.17187773 0.049335413
0000a0 69 f4 aa 3d e2 b5 9a 3d 94 8f 60 3c bb b4 e9 bd
       0.08347399 0.07554223 0.013706107 -0.11411425
0000b0 de 65 74 bd f7 33 5f 3d 21 72 a3 bd 93 a6 93 bd
       -0.05966746 0.054492917 -0.07980753 -0.07209506
0000c0 0c c8 8a bd 94 94 f1 3c cf 3f ac bd bd 82 05 be
       -0.06776437 0.029489793 -0.08410608 -0.13038154
0000d0 4e 93 ff bd 50 0e 95 ba af fb e3 bc 32 e8 9e bd
       -0.12479268 -0.0011372063 -0.027829973 -0.077591315
0000e0 f5 7d 06 be b8 2f 74 3d 04 00 6a bd 7c f8 dc 3c
       -0.13133986 0.05961582 -0.05712892 0.026973955
0000f0 d9 16 cf 3b d8 02 57 be 6e 50 65 3a bb f2 57 bd
       0.0063198623 -0.20997179 0.00087476417 -0.05272172
000100 2c bd cc bc 74 5d 87 bd d3 2e 11 be 42 2a 4b be
       -0.024992548 -0.06609622 -0.14178018 -0.19840339
000110 5b ea 93 3e a5 c2 b7 3d a5 9a a1 3c 97 f1 07 3e
       0.28889737 0.089726724 0.01972706 0.13275753
000120 2f 39 41 be 49 4c 09 3d 80 8f 32 be de 1a 74 3e
       -0.1886947 0.033520017 -0.17437553 0.23838374
000130 2b 13 0c be 5e c0 c2 bb 7f 30 7d 3e 59 50 37 3e
       -0.13679187 -0.005943342 0.24725531 0.17901744
000140 bb 1c 64 bc 2a 73 00 be cb 5c 9a bd 9c 6c 00 bd
       -0.0139228655 -0.12543932 -0.0753723 -0.031353578
000150 08 6f 88 3d b6 56 83 bd e4 d8 0b 3e c8 a5 54 3e
       0.066618025 -0.06413023 0.13656956 0.20766366
000160 db 88 0c bc 42 bd 7e 3d 5b 73 9f bd 0c ed ac bc
       -0.008577551 0.06219221 -0.07785674 -0.021109127
000170 75 9e 29 be 6f 64 9f 3c 94 f8 4c bd 1e 7a 3d bb
       -0.16564353 0.01945707 -0.05004175 -0.00289119
000180 0e 00 76 3d ce b5 00 3d b4 f9 45 be a7 d4 02 be
       0.060058646 0.031423382 -0.19333535 -0.12776433
000190 2e a1 d3 3d 8d de 53 3e 8f ec d8 3d 88 58 5a bc
       0.10333477 0.20690365 0.10591995 -0.013326772
0001a0 db 1d ce 3d c5 a4 d4 bb cb fd 9b 3d 03 25 75 be
       0.10064288 -0.0064893686 0.076167665 -0.239399
0001b0 e3 83 05 be 5e e2 5b bc 5d be 01 3d 20 e9 9a bd
       -0.13038592 -0.013420669 0.031675685 -0.07563996
0001c0 d0 6c 53 3e 4b 53 70 3d df 9e f5 bd f1 0b 33 be
       0.20646977 0.058673184 -0.11993193 -0.17485024
0001d0 f6 37 01 bd 2c da 44 3e 32 71 26 be 05 d0 42 be
       -0.03154751 0.19223851 -0.16254118 -0.19024666
0001e0 80 0f 5c 3d f9 93 63 be 04 8e 14 be 81 73 a9 3d
       0.05372572 -0.22224416 -0.145073 0.08273984
0001f0 b9 78 83 bd dc 07 20 bd ba 52 71 be 6d e7 cc 3d
       -0.064195104 -0.039069995 -0.23566714 0.100050785
000200 9a f6 17 bd b0 05 96 bd d9 1a 3d bd 85 41 50 3c
       -0.037100412 -0.073253036 -0.046168182 0.012710934
000210 77 ee fd 3c 27 42 c8 bc d6 6a a3 3d 74 6a a3 bc
       0.030997498 -0.024445606 0.07979362 -0.019948222
000220 af 52 82 bd ad e2 45 bd 3e 55 19 3d 1c c7 ba bd
       -0.06363427 -0.048311878 0.03743481 -0.09120008
000230 88 48 02 be 0f c4 dc 3d a2 65 34 bd bc 10 08 3d
       -0.12722981 0.10779583 -0.044042237 0.033219084
000240 a0 22 26 3d d8 b8 0c 3e df 7e 8b 3c 9a 9e 9a 3d
       0.040560365 0.13742387 0.01702827 0.07549782
000250 bc 00 d7 3d d7 88 d1 bd a1 14 6d bc f9 46 b2 3d
       0.10498187 -0.10231178 -0.01447025 0.08704943
000260 7c ba 2e bd c8 16 91 3d 34 34 09 bd e5 d0 3b 3d
       -0.042658314 0.07084423 -0.03349705 0.045853514
000270 f9 7b 07 3e 57 28 6e 3d d3 37 90 bd 07 8d 9a bd
       0.13230886 0.05814394 -0.070418976 -0.0754643
000280 20 99 01 be 33 10 0e be 8d 5d df bd 95 98 75 bc
       -0.12656069 -0.13873367 -0.10906515 -0.014989992
000290 b5 19 e1 bc d2 cd 0b 3d b7 5f da 3b d4 91 20 bc
       -0.027478078 0.034131832 0.006664242 -0.009800393
0002a0 4a ed 98 bd 41 02 95 bd 84 14 81 3d ea 40 32 3d
       -0.07467134 -0.072758205 0.06302741 0.043518938
0002b0 0c 8f 57 bd fe 0a 7a bd d1 31 3e 3d e8 1b 93 3d
       -0.052626655 -0.06104564 0.046434227 0.07183057
0002c0 49 18 2e 3d 43 54 20 bd cc 7b ea 3d ff 8c 27 bd
       0.04250363 -0.03914286 0.11449394 -0.04090595
0002d0 d4 7c 89 bd a2 fd 6f bc 49 68 94 3d 9e 61 3f 3d
       -0.06713262 -0.014647873 0.07246453 0.046723954
0002e0 56 69 7a 3d 09 e3 72 3d 5d 10 1d be 10 fc 07 be
       0.061135612 0.05929855 -0.15338273 -0.13279748
0002f0 33 c8 84 bc f9 da 08 3d fe b9 48 3d c0 e3 20 bc
       -0.016208744 0.033411954 0.0490055 -0.009819925

rnn.bias_hh_l1 f4 [192]
000000 c9 ac da 3c 6d 89 c4 bd 54 1d ea bd 1b 4d 98 bb
       0.026693719 -0.095965244 -0.11431375 -0.0046478636
000010 da 28 d8 bd 00 a4 de bc de e9 31 bd 8d a6 b7 bd
       -0.10554667 -0.02717781 -0.043435924 -0.08967314
000020 fb fd 0a be f0 99 0b 3d e3 4f 0f bd 5f 91 16 be
       -0.13573448 0.034082353 -0.034988295 -0.14703892
000030 c8 ff 8c 3d 17 25 df 3d 37 ac 3c be 4c 87 2e 3d
       0.06884724 0.10895746 -0.1842507 0.042609498
000040 90 89 a9 bd ea 7a 36 be 92 68 b1 3c 9c 99 de bc
       -0.08278191 -0.17820325 0.021656308 -0.027172856
000050 e1 ee 93 3d f8 af 57 bd 51 09 99 bd 6c e5 1c 3d
       0.07223297 -0.05265805 -0.0747248 0.03830473
000060 91 83 03 3c 29 c7 2b be 4c 1b df bc 1f 90 16 3d
       0.008026973 -0.16775192 -0.027234696 0.03675854
000070 70 c9 86 3c 6f 7e 9b bd 68 8a 08 3c 9d 5c df bd
       0.016453475 -0.07592475 0.00833378 -0.109063365
000080 6c ea f9 bd d7 38 1f 3c 33 e5 b7 bc 28 19 07 be
       -0.122029155 0.0097181415 -0.022448158 -0.1319319
000090 ff a0 44 bc 26 d1 89 bd b3 93 43 3c 5c 28 28 be
       -0.012001275 -0.06729345 0.01193707 -0.16421646
0000a0 49 0f 9d bb 41 89 fe 3c f8 65 37 3d 91 37 f6 bd
       -0.004793082 0.031071307 0.04477498 -0.12022317
0000b0 5e b4 19 3d d6 51 b9 bd d0 fb 16 be f9 ff 8c bd
       0.037525527 -0.09048812 -0.14744496 -0.068847604
0000c0 66 d8 df bd 8c 27 61 bc 60 c2 f9 3c ba b0 d5 bd
       -0.109299466 -0.013742339 0.030488193 -0.104340985
0000d0 85 0d c4 3d 17 9f 2c bd d3 48 0e 3d d1 dc 24 3d
       0.09572891 -0.042143907 0.03473742 0.04024965
0000e0 e7 54 fb bc 3e 89 3c bc 6c 92 f3 3d 14 3e 4a 3c
       -0.030680133 -0.01150733 0.11893162 0.012343902
0000f0 3c 24 33 bc 5a 92 0b be 08 78 43 be 40 5e b8 bb
       -0.010933932 -0.13630047 -0.19088757 -0.00562647
000100 9a e8 db bd 0e 12 3c be e6 f3 3d be 33 cc 39 be
       -0.107377246 -0.18366262 -0.18550071 -0.18144302
000110 d8 dc ab 3e 3b 6f 92 bc 32 82 b3 3d 17 85 1b 3e
       0.33566928 -0.017875304 0.08765067 0.15187488
000120 52 8c 77 3b 80 0d 8e 3c c1 47 95 bc a3 e4 57 3e
       0.0037772846 0.017340422 -0.018222691 0.21083312
000130 37 4f 7a bd ff 1c 94 bd b0 0a 65 3e 79 28 14 3e
       -0.0611107 -0.07232093 0.22367358 0.14468564
000140 6f b7 ec ba b6 2b ca bd b1 ca ef 3d b6 d2 72 bd
       -0.0018060039 -0.098716184 0.11708582 -0.05928298
000150 d6 51 1b 3c 5d c6 75 bc a1 30 99 bd 63 71 c9 3b
       0.00947996 -0.015000907 -0.07479978 0.00614755
000160 fb dc d3 3b 92 4b 91 bd a9 22 35 be b8 91 71 bd
       0.006465552 -0.07094492 -0.17689003 -0.05897686
000170 45 dd b9 bd c0 af fb bc 24 29 0d be 8d 86 52 3c
       -0.09075407 -0.030723453 -0.13785225 0.012849462
000180 71 f7 29 3e b2 8d a9 bd a2 b5 97 bd 0b 94 28 be
       0.16598298 -0.08278979 -0.074076906 -0.16462724
000190 6f c3 82 bd 98 c7 e8 3d 86 9c 91 bc c4 f1 88 bd
       -0.06384932 0.113661945 -0.017774832 -0.06686738
0001a0 7c 4f 2b bb 79 3e 0f be 02 48 44 3e d9 4f a9 bd
       -0.0026139906 -0.13988675 0.19168094 -0.08267183
0001b0 51 34 ac 3a 8d 65 0e bc 8e c6 fb bc 25 04 d2 3c
       0.001313815 -0.008691204 -0.030734327 0.025636742
0001c0 be 9a 59 3e 67 89 b8 3d 60 81 a9 bd 54 4b 49 bd
       0.21250436 0.090105824 -0.082766294 -0.049144104
0001d0 dc d5 ed 3d 72 bc 8f 3c 7f a6 3c be 25 f9 40 bd
       0.11613056 0.017545912 -0.18422888 -0.047112603
0001e0 91 0a 74 bd 24 20 8a be 4b a2 00 be 6e 24 b8 3c
       -0.05958039 -0.26977646 -0.1256191 0.022478309
0001f0 f6 71 b4 bd bd 19 50 3d 1d 74 92 bc 14 91 2f 3e
       -0.08810799 0.050805796 -0.017877633 0.17145187
000200 64 ab bc 3c 8c 93 1a 3e 03 7a f5 bd ea 81 08 3d
       0.023030944 0.15095347 -0.119861625 0.03332702
000210 f1 e9 c9 3d 9c 74 4b 3d 78 18 bf bd ea 92 09 3e
       0.09859074 0.049671754 -0.09330839 0.1343495
000220 27 29 ac 3d 9f 51 0c be 17 be a4 3b 29 99 8b 3d
       0.08406287 -0.13703011 0.0050275433 0.06816322
000230 56 97 03 be ad 06 bf 3d 31 78 9d bc d3 0b ee bd
       -0.12850699 0.09327445 -0.01922235 -0.11623349
000240 27 c6 48 bb db 65 24 bd fc 06 42 3d 4d 07 de bc
       -0.0030635686 -0.0401362 0.047369942 -0.02710309
000250 9f a6 d7 bb 84 a2 76 bd 78 3a 87 bd 2d 22 fa bd
       -0.006581142 -0.06021358 -0.06602949 -0.1221355
000260 f3 b9 ee bd a1 39 43 bb e2 26 d8 3a 95 9c 14 3d
       -0.11656561 -0.0029788988 0.001649108 0.03628214
000270 86 b3 bf 3d 04 fe af bd da 9f 18 3e 06 80 0c 3e
       0.09360413 -0.085933715 0.14904729 0.13720712
000280 86 a4 48 bc 35 88 c5 bd bb 5e 88 bd f5 4f 10 3d
       -0.012246257 -0.0964512 -0.066586934 0.035232503
000290 4c 10 e5 bd bf e3 09 bd e1 9a 97 bd 4a 2e 09 bd
       -0.11184749 -0.03366446 -0.07402588 -0.03349141
0002a0 0e 22 af bd 36 5b 0a bd 6d c5 6b bd 6b f4 a6 3d
       -0.08551417 -0.03377839 -0.057561327 0.08152088
0002b0 0f 3a 11 bd c1 46 d8 3d 52 d1 bb bb 3b ec ed 3b
       -0.03545576 0.1056037 -0.00573174 0.007260827
0002c0 1f 91 84 3d 52 40 52 bb e1 3b be bd 38 16 64 bd
       0.06472992 -0.0032081795 -0.09288765 -0.055685252
0002d0 c4 5b fd 3b bc 93 8c bc 5d 24 77 bd 26 03 b2 bc
       0.0077318866 -0.017160289 -0.060337413 -0.021730017
0002e0 9e 29 eb 3d 0b 52 c0 bd 94 9a 06 be ac 7a 06 be
       0.11482547 -0.093906485 -0.13144904 -0.13132733
0002f0 86 b4 bf bd e5 2b 30 3c 85 fb 65 3d 37 8d 5d 3d
       -0.09360604 0.010752653 0.05614807 0.05408975
