darts_logs/LSTM_emissions/_model.pth.tar (torch, 674776 bytes, 22 tensors)

weight_ih_l0 f4 [256, 8]
00000000: 572a d03d 5f10 2ebd 1145 99bd 1c19 a3bd
00000010: 7a2d 053d a925 373e 1009 913d f002 0d3e
00000020: 3a96 ef3b 7752 d13d b05a b83d 4dcd 82bd
00000030: 1c94 59bd 1eef dfbb 373f 5b3c 5566 903d
00000040: 5ab4 3c3e 1e82 153c 7107 08be 4031 b6bb
00000050: 736f 7bbc 8f69 083d 52e8 fcbd d97e a73c
00000060: 5823 4cbd e322 f8bd 6548 7dbd 1d01 bcbd
00000070: 4455 46bd ce6b 2fbd 687d 0bbe a5f3 92ba
00000080: 063b 103d 9f8d 3ebd c486 9ebd 83b3 c0bc
00000090: 3b75 ebbd 3643 833d f889 9d3d e442 943c
000000a0: 4a37 593d c70c 9fbd 73a8 ad3c d55a 613d
000000b0: df3c fdbd a144 4cbc f7b8 9c3d 32e6 073e
000000c0: c615 e43d 548c 853d 9d49 02bd bf61 ffba
000000d0: 882c 1a3e 3b3d fa3d 6040 59bb 4ec1 d13c
000000e0: 2162 143c 4a61 ba3d fae9 c63d b59e 8cbb
000000f0: 445a a13d 62ce 98bd 9ea3 cb3d deaf 333e
00000100: 1520 c7bc 1dd1 1e3e fd72 e23d 56a8 4e3c
00000110: a540 5abc 4bb4 3cbe b18c 0c3e b89d 073e
00000120: 2d31 003e 72f8 9cbd abcd f4bd 252d 9ebc
00000130: 9426 5d3d 7b85 12bd e274 31ba f65c d23d
00000140: b8d4 913d 57f4 14bd 515a adbd a52d 553d
00000150: 8d32 3abc 4200 213d 118d 8cbd a316 a3bd
00000160: 3eda 1a3e 9707 083e ef1e ee3d 8a02 afbd
00000170: 5ddb 13bd d5b7 4c3e 3935 70bd 9c1e 8c3c
00000180: 0abf a83d c62a c73d 3ac2 043e 7604 f33a
00000190: 8a93 7abc 1535 c83b ef4b bdbd a29a f1bc
000001a0: 3ecf a7bb 341f c13c ad7f 50bd 3bfd f03d
000001b0: 94f1 b13d f06c b53c a38e 273d a819 9fbd
000001c0: 9a66 183e a737 8fbd dac0 243c 5f36 6f3d
000001d0: 6724 efbd 6b32 ed3d 3276 6e3d d8d8 c73c
000001e0: b288 fa3d c829 9cbd 0a96 31bc 2e20 09bd
000001f0: 1a46 2bbe 83bd 42be 5cea 043d 0de2 d73c
00000200: aeca f83d 8e50 2abd 1330 ce3d bd12 7b3d
00000210: 4f5f b0bb 3d36 573d 899d c93d 8968 033e
00000220: f8a3 2fba 9666 c83d 57bb 01bc 40f0 503d
00000230: f691 05be ed10 b93d 934d 823d ef08 45bd
00000240: 0551 d5bc d21b 17be ce6a 323d 8bcb 8f3d
00000250: 8208 b2bd 406c 873d 6aab 9f3d 17e1 e8bd
00000260: c1c2 f63d 4370 b43d 51fc 053e 1beb d0bd
00000270: da8b 0f3e 7699 c43d bd27 95bd 8175 253e
00000280: 4500 6f3e ae90 b6bc 52f7 c83d e0b7 c7bd
00000290: 183b dabc 3312 213e 946b 3b3d f039 8cbd
000002a0: 1404 793e 1a53 f63d 10aa 86bb 1716 8e3d
000002b0: b040 0dbe 6ee9 7a3d 5806 0c3e 29b0 93bd
000002c0: 51e1 613e d311 a6bd 51b5 c4bd a5ea 01be
000002d0: 590e 183d bef0 92bd b352 92bd 0692 833d
000002e0: a341 723e 6a74 b93d ee98 6ebc 2c05 08be
000002f0: f058 0bbe 59ab 573c fc42 a13d 8447 8f3d
00000300: dfee 0a3d 14a4 e83c 2e57 373e 24ad be3c
00000310: bd64 fa3d 4dbc 293e d7df 073e dffe f23d
00000320: d8c0 293e c427 e6bd 04aa 15bd 761f e13c
00000330: e2fe 2fbd 7586 ff3d 2eae 9c3d 6b2a e43d
00000340: 73f9 083c 56f2 8cbd 97f7 a0bd 3a4c e0bd
00000350: 8118 ccbd 55dd 83bd 7698 bd3d c6ad 2f3d
00000360: 222f ec3c a2da 08bc db01 ce3c b243 373d
00000370: 2176 05be 6e8a 083d cfef a1bc ff0f ed3d
00000380: aa02 ce3d ee73 f93d e4f7 5abd c54c 333d
00000390: 1d1c 71bd 1d63 bf3d e7cd 843d d255 c73d
000003a0: ac03 ae3c 2eae 8c3d 3ca9 913d 4337 d9bd
000003b0: 445b 75bd 6fa3 8bbc 7993 753d e997 86bd
000003c0: e992 b13d 2ecb 17bd bd7f 94bd 72cd 6fbd
000003d0: 6773 fcbd 24dc 6cbd ec16 e13d 9567 0bbe
000003e0: c6d6 403e 18b5 f5bc 036a 793c 24c5 0cbe
000003f0: c222 f33b 3524 1d3e 522a e4bb d780 f13d
0.10164326 -0.04249608 -0.074838765 -0.079637736 0.032514073 0.1788546 0.07081807 0.13770652
0.0073116096 0.10220807 0.09001672 -0.06386814 -0.053119764 -0.006833925 0.013381771 0.07050768
0.18428174 0.009125261 -0.13284089 -0.0055600703 -0.015346396 0.033303794 -0.12348999 0.020446228
-0.049838394 -0.12116029 -0.06183662 -0.091799 -0.04842116 -0.04282742 -0.13622057 -0.0011211528
0.03521254 -0.04652178 -0.07740548 -0.023523098 -0.11496969 0.06409304 0.07692331 0.018098302
0.053031243 -0.07766109 0.021198487 0.055018265 -0.12365126 -0.012467534 0.07652467 0.13271406
0.111369655 0.06520906 -0.031808484 -0.0019484087 0.1505605 0.1221871 -0.0033149943 0.02560487
0.009056599 0.09100588 0.09712596 -0.0042913803 0.07878545 -0.074612394 0.09943317 0.17547557
-0.02430729 0.15509458 0.110570885 0.012613377 -0.0133210765 -0.18428151 0.13725545 0.13243759
0.12518759 -0.07664575 -0.119532906 -0.019308636 0.05399187 -0.03577183 -0.0006769431 0.10271637
0.07120651 -0.036365833 -0.08464492 0.052045483 -0.011364591 0.039306886 -0.06862844 -0.07963302
0.15122315 0.13284145 0.11626994 -0.08545406 -0.036097873 0.19992001 -0.058644507 0.01710444
0.08239563 0.09724955 0.12964717 0.0018540758 -0.015293965 0.0061098435 -0.09242999 -0.02949268
-0.0051211407 0.02357445 -0.05090301 0.1176705 0.086886555 0.022146672 0.040907513 -0.077685654
0.1488289 -0.06993037 0.010055745 0.05840146 -0.11676865 0.11581882 0.05821819 0.024395391
0.12233104 -0.07625157 -0.010838995 -0.033477955 -0.1672596 -0.19017605 0.032450065 0.026352907
0.12148033 -0.04158073 0.10067763 0.061297167 -0.0053824554 0.05254196 0.098445006 0.12832846
-0.00067001535 0.09785192 -0.0079182 0.05101037 -0.13043961 0.090364315 0.06362452 -0.048104223
-0.02603961 -0.14756706 0.043558888 0.070212446 -0.08693029 0.06612444 0.077963665 -0.113710575
0.12048865 0.08810475 0.13084532 -0.10201093 0.14018193 0.09599583 -0.0728297 0.16158105
0.23339947 -0.022285786 0.098127976 -0.09751868 -0.026639506 0.15729599 0.04575689 -0.06846988
0.24317962 0.12027569 -0.0041096285 0.06937807 -0.13794208 0.061257772 0.13674295 -0.07211334
0.22058608 -0.081088684 -0.09604896 -0.12687166 0.037123058 -0.07174824 -0.0714468 0.06424336
0.23657851 0.09055407 -0.0145628285 -0.13283223 -0.13608146 0.013163411 0.078741044 0.069960624
0.03391921 0.028398551 0.1790435 0.02327592 0.122262456 0.16575737 0.13268982 0.11865019
0.1657747 -0.112380534 -0.036539093 0.027480822 -0.042967685 0.124768175 0.0765041 0.11140903
0.008360255 -0.068821594 -0.07859724 -0.10952039 -0.09965611 -0.064387 0.09257595 0.042890333
0.028831068 -0.008352907 0.02514737 0.044742294 -0.13033344 0.03333514 -0.01976767 0.11575317
0.10059102 0.12180315 -0.053459063 0.043774385 -0.0588647 0.09345076 0.06484585 0.09733166
0.021241985 0.0686916 0.07112357 -0.106062435 -0.05990149 -0.017045705 0.059955094 -0.06571943
0.08670599 -0.037059 -0.07250927 -0.058545537 -0.12326699 -0.05782713 0.109907 -0.13613732
0.1883193 -0.029993579 0.015223029 -0.13747078 0.007419915 0.15345843 -0.006963053 0.117921524

weight_hh_l0 f4 [256, 64]
00000000: fd37 613b c2ba 663b 0dfe 1abd 7a2a d23d
00000010: 1109 8d3d b28a 44bd 83e3 bb3d 489a 0ebe
00000020: 7abd f0bd d6f8 a63d c076 a9bd 5a01 07be
00000030: 20b1 07be 911a 91bb 7672 cbbc f4e6 aa3a
00000040: 0c55 223d 5341 473d bd2a bb3d 03be 333e
00000050: a007 a7bd 7220 eb3d 1c96 a73d 7303 9f3d
00000060: 6729 cebd e278 063c cd7f 813d 04f7 583d
00000070: 7447 14bd cdf2 4ebd 1eeb 2b3e 0761 903d
00000080: ae93 5d3d 7371 d13d d038 08bd 5e45 35bd
00000090: 23ab 94bc 75aa 0a3c d46f 823d 0157 a2bd
000000a0: 2f0e d33b 443a f73d 6431 dbbc 9d0a 4d3d
000000b0: 8e10 c2bd 0c50 f7bd ad40 cc3d e490 6dbd
000000c0: 6200 b43d aca6 443d 811c abbd fd8b fe3d
000000d0: 7d58 26bd 254e d03c 0ed0 d7bd a87d 1e3e
000000e0: c1ae e4bd af32 fbbd cf51 78bd 94a6 1c3e
000000f0: bef4 1bbe 3510 f4bd 3a0d 783d 5796 2bbc
00000100: 496f d4ba 4c9c 213d fbc9 583d df67 813d
00000110: 37f7 ab3d a3f3 59bd f2a4 f3bb 063a a2bd
00000120: 72c4 a83d a182 0abd 7d24 afbb 5db4 f53c
00000130: 889c eabd 9a18 86bc 1a68 8a3b c59e 143e
00000140: 5725 863c f962 cdbd 524e 24bc 7aff 83bd
00000150: 65c3 033e c892 6fbd 6420 18bd 2ceb 153d
00000160: b51a 8c3d d146 8abd 400c 973c 61a8 d4bd
00000170: 4713 a03d 510b a23b e392 b23c 90da b03b
00000180: dabd c6bd 91b6 5bbc 3fd4 bcbd 56a4 5ebd
00000190: a2dc b73b 6aec d83d f66c 34bd c777 7abd
000001a0: eaae 0cbd 1d83 afbd 2e30 6fbd 66fc c03d
000001b0: 7f4e 36bd d55c e5bd ba50 cc3d 000e dd3d
000001c0: 7b27 de3c 8612 b9bd e437 a0bc ac33 9ebd
000001d0: d645 debd 2443 d0bc 42fe 18bc 0187 98bd
000001e0: 29f7 d3bd 9688 08bc 62cc b33d 6b28 a23d
000001f0: fac7 acbd 55ee a2bd 1a36 14bd 3474 bcbc
00000200: b83f 2cbd 3c4b 543d 3b14 da3d 23e3 8cbc
00000210: 9736 183e ad49 c5bd e9cc 63be 5d1a 82be
00000220: 1f86 84be 605b 54be 45b3 9c3d f2c0 14be
00000230: eafc e53c dcf4 8dbd 9daf b4bc 5edc 233e
00000240: 6561 483e 2467 dabd 3338 0bbe 80f4 bc3d
00000250: 704e a73d e376 e63d d7c9 5cbc 1104 5e3e
00000260: d363 9c3d fb68 ecbd bd16 f5ba e125 8a3d
00000270: 7a88 223e cfcb c03d bc9b 953e 6172 303e
00000280: 1fa4 1dbd 9e25 2c3e 4326 853e a8cf a5bd
00000290: f9e1 103e ebaa a4bd 0407 a53d 77f2 27be
000002a0: 74ee a63e 91c1 703d b1e7 763c a38e c1bd
000002b0: e3df 33be 6bb0 08be a0a6 1abe 55fa 9e3c
000002c0: 1c00 633d bf27 abbd 3797 8b3d 7226 ed3d
000002d0: baa4 d4bc 04a9 e63d 7bdc 67be 8dca 573e
000002e0: dda7 7ebe 4da1 d8bd c24d 73bd 6fd3 233e
000002f0: 6eef e8bd 20db 063e da4e 76bd e5fc 7fbe
00000300: a2be b7bd c45e 4e3c 803a f0bd ab06 17bb
00000310: ad9b 10be d8b4 bc3c 18fb 823d f960 52bd
00000320: 5ae8 80bc 08ef 053e e4dd 8d3c 95e4 433d
00000330: 4e0f a3bd 3568 233e 6eab 90bd 5c1f 6cbd
00000340: 07af 523d 5c93 ae3c 5a73 3bbd 3539 e0bd
00000350: a57e 2c3d 38a3 c03d ed51 c33c 9297 90bd
00000360: 7dc5 29bd 629b 173e a871 9e3d 956e 143c
00000370: c690 d4bd 4ebd 6abb 1659 26be e6c3 cfbc
00000380: da1d a9bd e474 1dbd cbe5 71bd b2fb ad3c
00000390: b1af f13d 89b6 d8bd 30c0 cdbd c517 56ba
000003a0: ce5e a53d 1367 e3bd c4ef c63d 6d6a 813d
000003b0: 47e7 c0bd 2d99 cbbb 79e9 843d b5cf 41bd
000003c0: 37c7 123d ec62 a43d 35f1 aa3a 8f61 5e3d
000003d0: 167f 96bc 810a bb3b c192 573d b48f 83bd
000003e0: ee32 d03d b0c7 8fbd 54c8 183e 14f5 35bd
000003f0: ef41 a73d 1618 64bd cae1 d13c f8ac ca3d
0.0034365647 0.0035206531 -0.037839938 0.10262008 0.06886495 -0.047983833 0.09174254 -0.13926041
-0.1175489 0.081529304 -0.08274603 -0.1318411 -0.13251162 -0.004428216 -0.024834853 0.00130388
0.03963189 0.048646282 0.09139011 0.17552952 -0.08155751 0.11480798 0.08182928 0.0776433
-0.100664906 0.008207532 0.06323204 0.052969947 -0.036200956 -0.05052452 0.16788909 0.070497565
0.054095916 0.10226717 -0.033257306 -0.044255607 -0.01814801 0.008463492 0.06368986 -0.07926751
0.0064409 0.1207166 -0.02675695 0.05005895 -0.09475814 -0.120758146 0.099732734 -0.057999507
0.087891355 0.048010513 -0.08355046 0.124290444 -0.040611733 0.025427887 -0.1053773 0.15477622
-0.11166144 -0.122655265 -0.060624894 0.1529792 -0.1523008 -0.11917154 0.06055949 -0.0104728555
-0.0016207482 0.039455697 0.052927 0.0631864 0.08396762 -0.053210866 -0.0074354345 -0.07921223
0.08240594 -0.033815984 -0.005344926 0.02999323 -0.11455637 -0.016369153 0.0042238357 0.14513691
0.016375227 -0.10028643 -0.010028439 -0.06445213 0.12867506 -0.05848959 -0.037140265 0.03660123
0.068410315 -0.067517884 0.018438458 -0.10383678 0.07816177 0.0049451967 0.021798557 0.0053971484
-0.0970418 -0.013410226 -0.0922017 -0.05435594 0.0056110183 0.105919674 -0.044049226 -0.061149385
-0.0343465 -0.0856993 -0.058395557 0.09423141 -0.044508453 -0.11199347 0.09976335 0.10793686
0.027118435 -0.09036736 -0.0195579 -0.077246994 -0.10853164 -0.02542264 -0.009337964 -0.07447625
-0.103498764 -0.008333346 0.08779217 0.07917865 -0.0843658 -0.079556145 -0.036184408 -0.023004629
-0.042052954 0.05182956 0.1064839 -0.017198151 0.14864574 -0.09633193 -0.22246136 -0.2541074
-0.25883576 -0.20737982 0.076513804 -0.14526728 0.0280747 -0.06931469 -0.022056395 0.16002032
0.19568403 -0.10664204 -0.13595657 0.09226322 0.08169258 0.112531446 -0.013475857 0.21681239
0.076362275 -0.11543461 -0.0018698793 0.06745506 0.15872374 0.094138734 0.29220378 0.17231132
-0.038486596 0.16811225 0.26005754 -0.08096248 0.14148702 -0.080404125 0.08057979 -0.16401087
0.326038 0.05877835 0.015069888 -0.09451034 -0.17565875 -0.13348548 -0.15102625 0.019406477
0.055420026 -0.0835719 0.06815951 0.115795985 -0.025957454 0.11262706 -0.226427 0.2107336
-0.24868722 -0.10577641 -0.059400328 0.15998624 -0.113737926 0.13169527 -0.060133792 -0.24998815
-0.08971907 0.012595836 -0.11729908 -0.0023044746 -0.14121886 0.023035452 0.063955486 -0.05136201
-0.015735794 0.13079464 0.01731772 0.047825415 -0.079619035 0.1595772 -0.070639476 -0.057647094
0.05143645 0.0213105 -0.045764305 -0.109484114 0.042112965 0.094061315 0.023842776 -0.0706016
-0.041448105 0.14805368 0.07736522 0.009059568 -0.10379176 -0.00358184 -0.16244921 -0.025361966
-0.08257647 -0.038441554 -0.05905704 0.021238182 0.118010886 -0.10581691 -0.100464225 -0.0008166994
0.08074723 -0.11103644 0.097137004 0.06319127 -0.09419113 -0.0062133283 0.06489844 -0.047317225
0.035834517 0.0802668 0.0013041856 0.054292258 -0.018371146 0.0057080393 0.05263019 -0.064238936
0.10165964 -0.07020509 0.14920169 -0.044423178 0.08166873 -0.055687033 0.02562036 0.098962724

bias_ih_l0 f4 [256]
00000000: d729 b0bd c44d 65bd 3c0a 573c 007c 133d
00000010: 87a7 1dbc f7c3 3ebd 421a a93d aae0 58bc
00000020: c22c d93d 01b6 ae3d a1f3 5bbb 4b32 0d3e
00000030: 2f61 dc3d 6e12 003e aea3 38bd ccf8 3cbc
00000040: c373 043e b810 0bbd b38e eabd 5a6f 27bd
00000050: 23ad 2cbb a34b ce3d 67e4 b23c 9b50 78bc
00000060: af3c cf3d 1634 dc3c ca18 713c 8352 d83c
00000070: 85bd 7cbc 75c5 be3c 0c1a f23c bc93 bf3d
00000080: ae2d eb3d 75e5 ee39 f13b 1e3b 8a3e 76bb
00000090: f8c6 553d 4ad0 1ebd 8df7 85bd a018 8abc
000000a0: 2fb0 413e b74e 063e 31f8 a8bd 0d36 793d
000000b0: a742 3f3e ae2b b4bd 147f e63c 82dd 233d
000000c0: 0e5b 053e e81f 7dbd 66e8 87bd 7a2b ffbc
000000d0: c654 38bd 9ce9 ca3d 1177 c4bd 8e6e c13d
000000e0: bd01 8e3d 5550 6b3d adc0 b0bd e4ee 883c
000000f0: 0a36 713d 36a6 ca3d 509b 993c 37a1 2b3e
00000100: cfa1 85bd c8e6 333d 732d c6bd 568e 62bb
00000110: b8ef 473d 1bd6 883d 9daa b4bd e40c a03c
00000120: 6cfd 87bc 0c75 573d 66b6 f4bc 1889 f13c
00000130: 67b9 523d 6d4e da3d 2bbe 84bd f48a c73d
00000140: f843 193d 47d2 d1bd 2894 433c e285 913d
00000150: 5cab d73d f7e2 59bd f558 9e3d c98f 023e
00000160: 8bc7 bcbd b314 a03c d1c3 b03d 2d35 3e3d
00000170: 0c74 b1bc 284d cabd 8bc4 223d aac1 a53d
00000180: 3b46 df3d e374 243d 7270 983d 7519 163d
00000190: 23f4 15be 0ce4 9dbd 975d bfbd ebbc 57bc
000001a0: 9070 793c 0b8b c03d 5f0c ddbd 5083 bc3d
000001b0: 9344 a33b 10fb f9bd 3846 5fbd a459 9f3d
000001c0: 7100 053e ca17 533d b5f1 3bbd cd53 6b3a
000001d0: 1855 2f3c 4f81 083e b65b 8a3d 994f 75bd
000001e0: 2eca d4bc 3aa6 d7bd 5dd1 de3c 8384 913d
000001f0: beda 903d b66b ee3c 75f0 fe39 97b5 3cbd
00000200: dab7 973d f0e9 9b3c 4573 543d cbf8 8bbb
00000210: a28c 97bd 3e4e f23d 000f eebd 4191 523d
00000220: 6343 21bd 937e c3bd e058 b13d 688f 65bd
00000230: 6bf6 cb3d e9ec 8b3d 1845 a1bd ee85 5abd
00000240: c218 4a3d 5479 18bd 5e40 353d 295c 173d
00000250: a13c a93d 2cc7 463d 9d43 11bd 930a b3bc
00000260: 03ea ea3d 6877 98bd 2b0b c93d 4695 623d
00000270: bb29 8dbd 61e7 86bd ea72 a2bd 74b8 babd
00000280: 08c7 7b3c e735 653d de38 f5bb 6201 853d
00000290: de10 c2bb f44c 35bd c896 bd3d f5bb 073d
000002a0: 07c4 773d 632a acbd 0de2 4a3c b819 f73d
000002b0: 375e 1c3c c150 d9bd 15a6 59bd 02f5 c23d
000002c0: a4f3 4fbd 8488 cbbd 11c9 313d 81c3 5a3d
000002d0: b901 d43b 1831 c33b b1f3 dd3c e48a 283c
000002e0: 74ee dabd a22e 313d 2faa f33c eb51 26bd
000002f0: d2a3 dc3b 3401 cebd 44ce 0a3e d8b0 ecbc
00000300: 003a 823d 57dd 563d 840b b5bd fc5a eabc
00000310: e6ba babd 2010 a73d 6ed4 913d 47b6 1abd
00000320: dc45 b13d b063 f83d 68f1 3dbd 24d6 a4ba
00000330: 8bc0 85bd e112 553c 5df4 85bd a7d2 fc3d
00000340: db09 253e 6012 5e3d cf73 f5bd d4dc 113e
00000350: 7eec cf3d 3ef1 ccbd f4ad 8cbd f280 2c3d
00000360: 1b16 9a3d 6518 973d 149a 863c a186 ae3d
00000370: 5602 14bd 644a 6cbd 7b8a f3bc 5a55 74bd
00000380: 5e0e 183e ad33 123e 5692 263e 3c50 a4bd
00000390: e1e2 aa3c baaa bdbb 4ea2 e0bd 2f7d d73d
000003a0: cefa 093e 5680 fa3d 8d40 a8bc 6bfa df3d
000003b0: cd8c e83d c289 f23d e83f 093d e470 b7bc
000003c0: bd10 753d a480 8b3d 0451 8038 89d9 b0bc
000003d0: 0c96 b13d 24a9 93bd b01c fdbc 6756 d03d
000003e0: 634b a5bd 9405 7cbd 7497 ac3d 4a3b b6bc
000003f0: 405c 3e3d 4c21 8dbd 81fb 85bd e122 153d
-0.0860173 -0.055982366 0.013124999 0.036006927 -0.009622461 -0.046573605 0.082569614 -0.013237158
0.1060424 0.08530808 -0.0033561962 0.13788716 0.10760724 0.1250703 -0.045077972 -0.011533927
0.12934785 -0.03395149 -0.11452999 -0.040877678 -0.0026348315 0.1007302 0.021837426 -0.015155937
0.10118996 0.026880305 0.014715383 0.026406532 -0.015426044 0.023287514 0.029553436 0.0935435
0.11483322 0.00045565856 0.0024144615 -0.0037573897 0.052191705 -0.03877286 -0.06541357 -0.016857445
0.18914865 0.13115965 -0.08250464 0.060842562 0.1867777 -0.08797394 0.028136767 0.04000617
0.13023016 -0.061798006 -0.06636123 -0.03114866 -0.04500272 0.09907839 -0.095930226 0.09444915
0.06933925 0.057449657 -0.086305 0.016715474 0.058889426 0.098949835 0.018750817 0.16760717
-0.06525003 0.043921262 -0.096766375 -0.0034569702 0.048812598 0.066814624 -0.088216044 0.019537397
-0.016600333 0.05260186 -0.02987213 0.029484317 0.051446345 0.1065949 -0.06481584 0.097433
0.037418336 -0.10245185 0.011937179 0.07105614 0.10530731 -0.053194966 0.07731811 0.12750162
-0.09217747 0.01954112 0.08631099 0.04643743 -0.02166178 -0.09877998 0.03973822 0.08093579
0.10902067 0.040150534 0.07443322 0.03664537 -0.14643912 -0.07709512 -0.09344023 -0.0131676
0.015224591 0.0940152 -0.10793375 0.09204733 0.00498254 -0.122060895 -0.054510325 0.077807695
0.1298845 0.05153636 -0.045884807 0.0008977026 0.01070144 0.13330577 0.06755774 -0.059890363
-0.025975313 -0.10529752 0.027199442 0.07105353 0.07072972 0.029104095 0.0004862581 -0.046071615
0.07408114 0.019032449 0.051867742 -0.004271602 -0.073998705 0.1183133 -0.11623955 0.051408056
-0.039370906 -0.095456265 0.0865953 -0.056044966 0.0995911 0.068322964 -0.07874507 -0.05335038
0.049340017 -0.037225083 0.04425084 0.036953125 0.08263517 0.04852979 -0.03546487 -0.021855628
0.114704154 -0.0744465 0.09816583 0.05531814 -0.06892725 -0.06587101 -0.07932074 -0.09117213
0.015367277 0.05595961 -0.0074835857 0.064944044 -0.005922421 -0.04426284 0.09257275 0.033138234
0.06048968 -0.08406522 0.012382996 0.12065452 0.009543947 -0.10611106 -0.053136904 0.09519388
-0.050769463 -0.09938148 0.043404642 0.053409103 0.006469932 0.00595678 0.02709374 0.01028702
-0.106900126 0.043257363 0.029744236 -0.040605467 0.006733396 -0.10058823 0.13555247 -0.02889292
0.06358719 0.05245718 -0.08840087 -0.028607838 -0.09117679 0.081573725 0.07120596 -0.03777149
0.08655903 0.12128389 -0.0463728 -0.0012576026 -0.06530865 0.013004989 -0.06540749 0.12344866
0.16117041 0.054216743 -0.11984979 0.14244395 0.10152529 -0.10006951 -0.068691164 0.04211516
0.075237475 0.073777 0.016430892 0.08521772 -0.03613504 -0.057688132 -0.029729119 -0.05965171
0.1484923 0.14277525 0.1626676 -0.08023116 0.020860137 -0.0057881745 -0.10968457 0.10521924
0.1347458 0.122315094 -0.020538593 0.10936435 0.113549806 0.118426815 0.03350821 -0.022392698
0.059830416 0.068116456 6.118606e-05 -0.021588104 0.08671197 -0.072099954 -0.030897468 0.1017273
-0.080710195 -0.061528757 0.08427325 -0.022245068 0.046474695 -0.068911165 -0.06542111 0.036410216

bias_hh_l0 f4 [256]
00000000: b0c2 0abd 85d3 eabd 1753 a53d 74e5 59bd
00000010: afb4 bebd e1c5 56bb 62cb c83c 1b95 da3c
00000020: 9117 003e 359c e4bd 750e 69bd fa9d 163e
00000030: 3b5b 9fbc d89c d1bd f7f9 4fbd 041e a3bd
00000040: 44a6 b83d d3e5 f13d a108 843d 0767 103e
00000050: f74c 0c3d b7ea e73d 2f03 a7bd 2949 bdbd
00000060: a227 fb3d abb2 643c d014 0cbc e4ee d1bd
00000070: d20d 1f3e ef7d d9bc c2dc 603d b46f 00be
00000080: 4d62 c13b de62 8f3d 9ccd 0d3d 4811 68bd
00000090: fc62 793e 9d59 00bd 57f2 3bbd e04c d3bd
000000a0: 4505 e03c 9ecf ea3b 59a0 02bd 2794 d3bc
000000b0: 3558 0bbc 133b 9ebc ee7e 843d ab3f 15bc
000000c0: 69c3 86bd 25db aa3d 0279 ef3d bc93 8a3a
000000d0: 6ed6 c93d 8aa4 b3bd 3eb1 22bd ce57 b33a
000000e0: 214a 2dbd c4f2 babd 1563 bb3d 26d9 db3d
000000f0: db1f 0e3e 31e7 16bd 68cd ba3c c3e6 32bd
00000100: 47d4 3b3d cbc0 87bd b21f eb3b 3bb3 3abd
00000110: 0ecc a73d 3518 55bd a7e6 90bd 4854 3a3e
00000120: a27a c8bd 9c77 883d 7fac 95bd b936 83bd
00000130: 38e0 f93c d955 0cbd 9005 f0bd 416c f03d
00000140: 7065 843b bd19 593d 3918 b23c f59f 2d3e
00000150: f22c cabd c3c9 aebc 909e 82bd 1447 1d3d
00000160: dcf2 bdbc fb72 68bd 16b1 81bd a48b a2bd
00000170: 2755 843d 12db ae3d 2737 003d a82c dabd
00000180: 8a6a b5bc fca1 b3bc 4e49 4dbd b24a 623d
00000190: 0491 11be 7e30 9fbd e93d 02bb 6175 d53d
000001a0: 9abf 74bd 755a 623d 056f b3bd f09d f93c
000001b0: edf4 5cbd b00b ac3d 2a0c 42bd eca7 93bd
000001c0: 311f 6bba 4e6c cb39 46e9 7cbd f3e3 91bd
000001d0: 24b1 8d3d 1dce db3d 9ffd 103e 897c 0b3e
000001e0: 9fc5 b2bc 88c6 fcbd 46f3 b03d 949e 6bbd
000001f0: f48b 563d ffc0 9a3d 9c30 a53c d217 da3d
00000200: 7423 a9bd bbcc 943d 1150 c9bd 7135 bcbd
00000210: ceb2 5f3d c245 63bd 8fba c6bc 641e e83c
00000220: f358 143c 4ed0 b23b 4a5c 783d c3ad b53d
00000230: a783 85bd 9120 b4bd 7c12 97bd c5d7 abbd
00000240: fba3 74bd c9ff 9c3a 1e0c 993d 5703 94bd
00000250: 1830 223d 548c 283b 251f 043d 308b 313d
00000260: 8f12 343d 513a 1dbd f90f 24bd d792 863c
00000270: 79d9 a7bd fae5 98bc 19c2 17bd b3f6 c23d
00000280: 591d c33b be76 e43d 7464 863c 69ab c63c
00000290: 1adf 61bd d466 913c 84e1 2f3c 343f 93bd
000002a0: 8b42 733d dd0a 993d 9dd1 b3bc 7448 b13d
000002b0: 2169 a4bd 0050 333d 3274 dc3d 6416 79bc
000002c0: 7c24 1b3d fbe8 24bd 69ae d2bd 3269 f4bb
000002d0: 259a 8d3b 767a ecbd 4d99 c1bd 99d7 dd3d
000002e0: 2d7b 373d 76c9 fc3c dcfc 99bd adf0 253d
000002f0: 9cae 9e3d 084b f2bd 301f 8dbb 087e 46bd
00000300: 9d12 653b 6cda 9b39 573e 8fbd 88b3 723c
00000310: 5953 56bd 7e56 de3d 5be4 893d 5d36 97bd
00000320: 0db7 143e 3ed2 593d 30bf b7bd cd29 93bd
00000330: 64eb 04bb a51d 153d affe c3bc ad46 fabc
00000340: 2fd7 b43d b8f9 d83a 9522 8d3d ed9d b8bc
00000350: 0b4d 3ebd 43c6 54bc f63a 083e c24f ddbd
00000360: d0e0 91bb 8f60 d4bd f406 17bd d814 0f3d
00000370: 46f1 7abd 1ae7 3f3d a641 62bd 27b9 a13d
00000380: 4d64 263e 8e24 093e 34bd 293d 1efb e53d
00000390: 4c3a 553c cae4 b53d 0c2b 47bd 0f54 6bbd
000003a0: 4f54 903c 9ef1 513d 86d7 af3d 2ff8 a93b
000003b0: 4304 5c3e 77af c53d 821b 1ebd d831 8c3d
000003c0: a405 7b3d d11a 10bd eb57 e0bd 3dfb 503d
000003d0: 365f d33d fff1 003e 1bff 3cbd 17a3 b73d
000003e0: df47 473c b659 babd 5492 89bd a2b4 c93d
000003f0: 09a3 bb3d f60d 983d 93a0 ab3d e5b0 9d3d
-0.033877075 -0.114661254 0.08072489 -0.05319734 -0.093118064 -0.0032771754 0.024511043 0.026682427
0.1250899 -0.111626066 -0.056898553 0.14708701 -0.019452682 -0.10234994 -0.050775494 -0.079647094
0.09016088 0.118114136 0.06446958 0.14101802 0.034253087 0.11324065 -0.08154904 -0.0924247
0.12263419 0.013958613 -0.008549884 -0.10250643 0.15532616 -0.026549308 0.05489803 -0.12542611
0.005901611 0.07001279 0.034619913 -0.056657106 0.24354166 -0.031335462 -0.04588541 -0.10317397
0.027346263 0.007165863 -0.0318912 -0.02582748 -0.008504917 -0.019315278 0.064695224 -0.009109418
-0.0658024 0.0834258 0.11693002 0.0010572593 0.09855352 -0.08771618 -0.039719813 0.0013682784
-0.042307023 -0.09128335 0.09149758 0.10734777 0.1387934 -0.036841575 0.022803023 -0.043677103
0.04585674 -0.06628569 0.0071754092 -0.045581084 0.08193217 -0.05202504 -0.070752434 0.18196213
-0.09789015 0.06663439 -0.07308292 -0.06406922 0.030502424 -0.03426156 -0.11719811 0.11739398
0.0040404126 0.05300306 0.021740066 0.1695555 -0.09871854 -0.021336442 -0.063779 0.038397864
-0.023187093 -0.05675028 -0.063326046 -0.079367906 0.06461554 0.08537878 0.031302597 -0.10653049
-0.022145528 -0.021927826 -0.050118737 0.055247016 -0.14215475 -0.07772921 -0.0019873327 0.10422779
-0.059753038 0.055262048 -0.0876141 0.030470818 -0.053944517 0.08400667 -0.04737488 -0.07209763
-0.00089691865 0.0003879987 -0.061745904 -0.07123556 0.069185525 0.10732672 0.14159249 0.13621725
-0.021822749 -0.12342554 0.08640151 -0.05752428 0.052379563 0.07556342 0.02016478 0.106490746
-0.08258715 0.07265612 -0.098297246 -0.09189881 0.05461388 -0.055486448 -0.02425888 0.028334804
0.00905441 0.0054569608 0.06063489 0.08871033 -0.06519251 -0.08795274 -0.073765725 -0.08390764
-0.059726696 0.0011978085 0.07473014 -0.072271995 0.039596647 0.0025718408 0.032256264 0.04334563
0.04396301 -0.038385693 -0.040054295 0.01642744 -0.081957765 -0.018664349 -0.03705034 0.095197104
0.0059544262 0.11155461 0.016405322 0.024251657 -0.055144407 0.017749228 0.010734919 -0.071897894
0.059389632 0.07472775 -0.021950537 0.086563975 -0.08027864 0.043777466 0.1076435 -0.015203092
0.03787659 -0.04026125 -0.10287172 -0.0074588293 0.004321354 -0.11546795 -0.09453068 0.108321376
0.044795204 0.030857783 -0.07518932 0.04051273 0.07748148 -0.11830717 -0.0043066964 -0.048460037
0.0034953721 0.0002972664 -0.06994312 0.014813311 -0.05232558 0.10856341 0.067330085 -0.07383416
0.14522953 0.05317902 -0.08972013 -0.07185707 -0.0020281905 0.036405224 -0.023925154 -0.030551279
0.088301055 0.0016553914 0.068913616 -0.022536242 -0.046460193 -0.012986722 0.13303742 -0.10806228
-0.0044518486 -0.103699796 -0.036871865 0.034931988 -0.061265253 0.046851255 -0.05523839 0.07896643
0.16249199 0.13392851 0.041440204 0.112295374 0.013014387 0.08881529 -0.048625037 -0.05745321
0.017618326 0.051255815 0.0858603 0.0051870565 0.21486 0.09652608 -0.038600452 0.068454444
0.061284676 -0.035181824 -0.10954269 0.05102085 0.103208944 0.12592314 -0.046141725 0.08966654
0.0121631315 -0.09099142 -0.06717363 0.09848906 0.09161956 0.07424538 0.083802365 0.076997556

weight_ih_l1 f4 [256, 64]
00000000: 88eb 083d 9841 dabd d734 66bc d7ec 46bd
00000010: 53a4 b13c 8269 d43d d525 c13d a366 353d
00000020: bdb4 4cbd c673 ac3d 4dfe 89bc 5d0a 193e
00000030: 8269 e03d d94e 2abd 6b62 db3d fd8e 10be
00000040: cc20 94bd 94ee e3bc 3815 433d 6de9 36be
00000050: bb22 e4bd cb47 1ebe 96d3 293e 4821 443c
00000060: 8074 08bc 9828 0e3e e46d 963d 2536 55bc
00000070: f12a 123d 449e 8d3d 6b84 943d cc64 35be
00000080: 6c1d ba3d e2ff b0bd c169 04be 399e a33d
00000090: 867c 2f3e 8bd2 023e 4563 bbbd ddbc 123e
000000a0: 163d 80bd 9ee4 01be f4d6 213c 68a7 e8bc
000000b0: f3f2 55bd 83c5 153e 4c41 043b 791f 37bd
000000c0: 8055 8dbd d92d 143e ae12 b5bc 6fcd 94bd
000000d0: 3e2b 893d 7e4b 993a cb74 e23c 5f5b 38bd
000000e0: 6c1e 203e e3dd 143e 9b47 7f3d f329 13bb
000000f0: 326b ae3d 49e0 d2bb d38a d23d acef 423e
00000100: cda8 0dbd 3853 55bc ca7a 10be 9ddd 7bbd
00000110: fa87 21be a3e0 2dbc e98c dcbc 6b52 9bbd
00000120: e07c 17be 6ccf 9bbd b141 b5bc 4848 0abd
00000130: c0d6 953d eb37 ae3d 6ebc 923d 7a53 8b3d
00000140: 1440 d2bd ce52 cfbc 0146 dfbd f19a 0abd
00000150: a21c 243c 5756 3e3d b29e 913c 661a 5f3d
00000160: 5718 113d 24b3 243d ce46 723d f271 9d3d
00000170: a06a 48bc 5ca5 053e 1d63 513d c42a 3d3d
00000180: 0ead b23b c104 12be 3192 913d 1517 f23d
00000190: 72b8 cd3d abb4 b9bd ff05 debd c0bc 20bc
000001a0: abe1 da3c 4898 32bd 4631 5f3c 544c dabc
000001b0: 123d a1bb b61a f1bc e19c b1bc 2588 8c3d
000001c0: 7d14 9ebd 16c2 a53d 83ba 063e a79b 5cbd
000001d0: c3c0 8b3d 283b 843d 69bb a33d 2e47 b9bd
000001e0: ccaf 60bc f4e6 cf3c a291 39bc c221 143d
000001f0: bbb0 bd3c 4694 8a3d 535c 7d3d 2658 8d3d
00000200: 4060 11bd 82f8 b03c db7c 5abe fe92 bf3c
00000210: 112b 5cbd 14a4 0cbd b558 f73d 2996 d33c
00000220: 7c32 373d 2793 f63c f24a 6bbd d76b ad3d
00000230: bf84 6cbd a091 103d 5303 ca3d 0ed2 a8bc
00000240: e56b 80bd 1b41 afbc 42e8 dfbd 1fdf 05bd
00000250: 1e46 dfbd f4f4 3abc 40bb 5ebd 2dfe 3dbc
00000260: 0765 673d a01d 0c3e e2ef f73c 3783 f4bc
00000270: 93ee ab3d c7dc dfbd 9e08 81bd f1b3 863d
00000280: 56e0 1c3d b511 6bbd 3668 9b3d 6f7f 3d3d
00000290: f92e b73d 578f ddbd e98c 793d 14b2 0f3e
000002a0: 1f9e a33d 44cf d13c 58c2 063e 6f3e 4abd
000002b0: 270d 363e 97ea b93d 0945 37bd d04f b93d
000002c0: 7ca5 a43d 0091 363e 97e0 44bc 4f97 b5bd
000002d0: ab4b fb3d e96f f2bd a143 f4ba 97fc 14be
000002e0: 5179 e53d 317e 163e 45f0 373d 038c fabd
000002f0: 0969 83bd f2f3 0f3e f3f4 b03d f026 243e
00000300: 5e5d 10be b466 f03d 1389 66bc 5195 09be
00000310: 859b b43b b56b 203d 8f37 dfbb f916 b9bd
00000320: c5a0 1abb add3 21be bbbc 103e b77d 9cbd
00000330: f327 b6bd 2ed5 78bc 3a76 adbd 3e3c ab3d
00000340: 804a 973d 8b73 e8bc 97f7 cabd d33f 4b3e
00000350: 6924 393d ac5a 683d c447 8f3b 5b4f 63bd
00000360: cbc3 1abd c24f fabc ed0f d43d f104 20bd
00000370: be7d ebbc bba8 1d3d 6299 1cbd 8539 3bbd
00000380: 5efc 1fbb 463c 173e d41b 3e3e 39fc 843d
00000390: 7aa7 b43b e49d 50bd 5fa6 c4bb 5062 24be
000003a0: aae5 8f3d e61c 363e 8715 653c 7d6c efbc
000003b0: 68eb 6fbd b1f9 053d 5374 cbbd 966b 07bd
000003c0: 9aab 433d acb3 c73d 8eb5 5cbd 566a 253d
000003d0: c5ba 75bd 639a 67bc 1e27 bcbd a11c 0a3e
000003e0: 03b9 b3bd 48c8 763d 987a debd 0e9b b0bc
000003f0: aa8b 9abd fec7 873c 3d45 d53c 985a 2abe
0.033427745 -0.10657042 -0.014050684 -0.04856571 0.021684801 0.103716865 0.09431044 0.044287335
-0.049977053 0.084205195 -0.016844893 0.1494536 0.10957624 -0.0415791 0.10712131 -0.14117046
-0.07232818 -0.027823724 0.047627658 -0.17862482 -0.11139437 -0.15457074 0.1658462 0.0119708255
-0.008328557 0.13882673 0.07345179 -0.013013397 0.035685483 0.069149524 0.07251819 -0.17714232
0.09087643 -0.08642556 -0.12930967 0.07989163 0.17137346 0.12775628 -0.091497935 0.14329858
-0.06261651 -0.12684867 0.009877909 -0.028400138 -0.052233648 0.14626126 0.0020180522 -0.04470775
-0.069010735 0.14470614 -0.022103634 -0.07265746 0.06697701 0.0011695472 0.027643582 -0.045009013
0.15636605 0.14537768 0.062324148 -0.0022455424 0.0851654 -0.0064354283 0.10280385 0.1903674
-0.03458481 -0.013020329 -0.1410934 -0.061490644 -0.15774527 -0.01061264 -0.02692266 -0.07584079
-0.1479373 -0.07607922 -0.02212605 -0.03376034 0.07316351 0.08506759 0.07164846 0.06803031
-0.10266128 -0.025308039 -0.10902024 -0.03383917 0.010016592 0.04646906 0.017775867 0.054468535
0.035423603 0.040209904 0.059149556 0.07687749 -0.012232453 0.13051361 0.051119912 0.046183363
0.0054527586 -0.14259626 0.07107962 0.11820809 0.10044946 -0.09067663 -0.108409874 -0.0098106265
0.026718935 -0.043602258 0.013622588 -0.026647724 -0.00492061 -0.029431682 -0.021681251 0.06861905
-0.077187516 0.080936596 0.13157086 -0.05385938 0.06823876 0.06456596 0.0799473 -0.090467796
-0.013713788 0.025378682 -0.0113262255 0.036165006 0.02315556 0.06766562 0.061855625 0.069015786
-0.03549218 0.021602873 -0.21336691 0.023385521 -0.05375201 -0.034336165 0.120774664 0.025828438
0.04472588 0.030099465 -0.05744452 0.084678344 -0.057743784 0.03529513 0.09863915 -0.020607974
-0.06270579 -0.02139335 -0.109329715 -0.032683488 -0.10902046 -0.01141094 -0.054377794 -0.011596245
0.05649283 0.13683176 0.030265752 -0.029847724 0.08395114 -0.10930782 -0.06300472 0.0657729
0.03829988 -0.057389934 0.07588236 0.04626411 0.08944506 -0.108183555 0.060925398 0.14032775
0.079891436 0.025611527 0.13160074 -0.049375948 0.17778455 0.090779476 -0.04474357 0.09048426
0.08039376 0.1782875 -0.012016437 -0.088667504 0.12270292 -0.118377514 -0.0018635878 -0.1454948
0.1120478 0.14696576 0.044906873 -0.12233736 -0.06416518 0.14057902 0.0864047 0.16030478
-0.14098117 0.11738339 -0.014070767 -0.13435866 0.0055117034 0.039165217 -0.006812043 -0.09037585
-0.0023594361 -0.15803404 0.14134495 -0.07641166 -0.088943385 -0.015187545 -0.084698156 0.083611
0.073872566 -0.028375408 -0.09910505 0.19848566 0.04520074 0.056727096 0.004372569 -0.0554956
-0.03778438 -0.03055561 0.103546 -0.039067212 -0.028746482 0.038490992 -0.038232215 -0.04570915
-0.0024411897 0.14769086 0.18565303 0.0649342 0.005513129 -0.050931826 -0.0060012783 -0.16053128
0.07026227 0.17784461 0.013982183 -0.029226536 -0.05857411 0.032708827 -0.099342965 -0.033061586
0.047771074 0.097510666 -0.05388408 0.040384613 -0.05999257 -0.01413593 -0.091871485 0.13487484
-0.087755226 0.060249597 -0.10863227 -0.02155831 -0.0754617 0.016574856 0.026033992 -0.16636121

weight_hh_l1 f4 [256, 64]
00000000: 0fb6 cfbd f6df a9bd bd46 e0bd 3f09 f8bd
00000010: 1bc2 3fbd 6d63 a23d 8531 24bd 1fcd ecbd
00000020: fe79 53bd 5ed6 483d b80a 703d 3c9b 313d
00000030: fcda 8a3c d837 0f3e 4693 18be 8ef1 15be
00000040: 7b6b 3f3d 0caf acbc 8602 5abb 44b6 083e
00000050: ba78 403d 57f5 2b3c 5d44 bcba 8c4a 2e3e
00000060: 204d a139 f322 9b3d a39a cbbb 3cfc 8dbc
00000070: 9519 2c3c d58a 153e 4d7c 5d3d b451 e0bd
00000080: bade 45bd 7264 f33d 46d6 c7bc dcd1 c1bd
00000090: 2329 27bd f4e5 c73d 3ea0 7d3d 8375 1f3d
000000a0: c835 d2bd 6930 e03b b235 29bc 57dd 0f3e
000000b0: dfa4 c03c 5a19 743d f2e8 1abd 9039 c73d
000000c0: 4507 853d 4481 833d 2fff 813d 607f c33d
000000d0: 1899 1a3e f230 b53a 10fb 403d 132f f9bc
000000e0: 1faa 10be 44eb 553d e1ad 743c 33df 8f3d
000000f0: bdae 1fbe 42d7 0cbe 8e59 9b3d 76fb 98bc
00000100: 2960 a63c 29f9 bbbd b988 bfbd b1fe eebb
00000110: 6fae 86bd 836e fb3d 45b9 ccbd 6ab1 373d
00000120: 4e90 86bd 2189 bf3b f195 fb3d 8ed3 f83d
00000130: b9c1 6fbd f483 c83d bbb8 f5bc 07b7 aa3d
00000140: acac 623d 6750 f3bb 41e3 2ebe 63a2 e33d
00000150: fa02 0f3d ae29 bebd 9432 f23d b2e7 583d
00000160: aa62 cabc abc0 b43d 832a 4bba 9ff9 fc3c
00000170: c1d5 8bbd a437 753d af43 b4bb 16f1 d43b
00000180: 7bb6 94bb 408b abbd 9514 4c3d 4b48 8dbb
00000190: 07e5 153d 690f 4bbd 39c7 dfbc cfdf c8bd
000001a0: abca 8c3d 46bc d73b 7cd7 1dbc ac9d 9c3d
000001b0: 4655 543d 3d8e bb3d 2c75 993d c423 7abd
000001c0: 9a8c 513d 554d d2bd 1390 073e 3cfb 63bc
000001d0: da03 6f3e 6a66 06be 4f27 ab3d 3f8b 50bd
000001e0: 5f86 e93c 5c7b 05bd 6f6e 10be 8773 9dba
000001f0: e48c d9bd 12ee e23d e25d 14bd 111c 353d
00000200: ed9f 94bd d805 debd c3e1 44ba 949e d2bd
00000210: d5f7 1abd 772d c4bc f412 e9bd 0317 1bbe
00000220: f6ae 3e3c 26c0 8e3d 2078 db3b 6351 813d
00000230: db87 9a3d 653c 5a3d 633d af3d ae28 04be
00000240: e4d9 533d ef59 0b3d af80 433e accf b43d
00000250: 4963 64bc df4b d1bb 600b 46bd 474b fc3d
00000260: 6a29 b9bd a68f 94bd 2549 313d 6a0b 94bd
00000270: 2f97 993d 3e16 95bc 6a19 80bc f8ae 923d
00000280: 8850 06be 2e98 993d 66bc 6cbd eefc ffbd
00000290: cb80 c7bc ddf6 c33d e0db fdbd b777 2a3c
000002a0: 9859 92bd 143e c43b 73ee 8f3d 6c72 15bd
000002b0: e2d6 493e 5aef fdba 51d4 af3d 6bda e03d
000002c0: ac32 d43d f44d ac3d 5e25 bcbc ab2f b93c
000002d0: 53f3 ce3d da5b a8bd 3568 613d 3e14 623d
000002e0: 04b2 303d d277 cbbd 4de3 eabd 8041 d93d
000002f0: 8fde 7c3d 4a1a 93bd 66fd 303d 914c 933d
00000300: 85a5 983d 11e9 6fbd 314e b23c a36d 233c
00000310: f907 df3c bc3c e9bd e014 d63d c217 0a3e
00000320: 8ed3 a5bd 5706 7bbd f372 c03d b4f3 c9bd
00000330: 4c07 913d 66ff 08be 50eb 6abd a0ce 9d3d
00000340: 1a69 71bd 8569 3dbd dca2 233e 21ef 0d3c
00000350: eb61 f1bd ac02 3f39 af5f 83bd 8cac 6ebd
00000360: c9be 06bd 1d4f 05be 91d1 cdbc 2830 e63d
00000370: e1c1 ef3d fa23 e4bd 7c28 76bd 1c5b 813d
00000380: 68ca a3bd c603 61bd c20f ac3d 943c 243d
00000390: 97f5 f2bd 1dfa bbbd c14f c3bd d5f9 cabd
000003a0: 9044 1f3d 227e 533d e825 053c 3293 db3d
000003b0: c967 81bd 3a44 f5bd 0999 afbd 7f5f 9bbd
000003c0: 4549 bbbd 40ae cdbd b403 e4bd d22c 65bc
000003d0: 0ca1 e4bc 5d29 a93c e5a5 ee3c de64 d3bc
000003e0: d568 afbc 0f37 67bd 5576 df3d ae33 d6bc
000003f0: d8a1 2bbc 52c3 013e 9ea8 a83d 70f7 00b9
-0.10142147 -0.0829467 -0.10950992 -0.121111386 -0.046815973 0.0792912 -0.040086288 -0.11562561
-0.051630013 0.04903256 0.058603972 0.043360934 0.016950123 0.13986146 -0.1489993 -0.14642927
0.04673336 -0.021079563 -0.0033265664 0.13350779 0.046990134 0.010495505 -0.0014363636 0.17020625
0.00030765776 0.075750254 -0.0062135025 -0.017332189 0.010504146 0.14603741 0.05407362 -0.10953084
-0.04830811 0.11884393 -0.024394166 -0.094638556 -0.040810715 0.09760657 0.061920397 0.038930427
-0.10264164 0.0068417084 -0.010327743 0.14049278 0.023516117 0.05959449 -0.03781981 0.09727776
0.06495527 0.0642114 0.063475005 0.09545779 0.15097463 0.0013823791 0.04711443 -0.030417955
-0.14127396 0.05222632 0.014934034 0.07024994 -0.15594001 -0.1375399 0.075854406 -0.018674593
0.020309525 -0.09178383 -0.0935225 -0.007293545 -0.06576239 0.12276938 -0.09996275 0.04484693
-0.06570493 0.0058452045 0.122844584 0.12149726 -0.058534358 0.09790793 -0.029995313 0.08335691
0.055340454 -0.007425356 -0.17078878 0.11114957 0.034914948 -0.092852935 0.11826053 0.052955337
-0.02470525 0.08825811 -0.000775017 0.030880747 -0.0682788 0.059867516 -0.0055012326 0.0064984662
-0.004538355 -0.08376169 0.049824316 -0.0043115965 0.03659537 -0.049575243 -0.027316676 -0.09808313
0.06874593 0.0065837232 -0.009633895 0.07647261 0.051839136 0.09157989 0.07493052 -0.061069265
0.05115948 -0.10268656 0.13238554 -0.013914879 0.23341313 -0.13125005 0.08357107 -0.050914045
0.028506456 -0.032588348 -0.14104627 -0.0012012579 -0.10622576 0.110805646 -0.036222346 0.04421622
-0.07257066 -0.10840958 -0.0007510448 -0.102841526 -0.037834007 -0.02394746 -0.11380568 -0.15145497
0.011638394 0.06970243 0.0066976696 0.063143514 0.075454436 0.053280253 0.085566305 -0.12906143
0.05172147 0.034021314 0.19092058 0.08828673 -0.013939687 -0.0063872184 -0.04835069 0.123190455
-0.09041102 -0.07253961 0.043282647 -0.072287396 0.07499539 -0.018199082 -0.015637118 0.07162279
-0.13116658 0.07499729 -0.05779686 -0.124994144 -0.024353405 0.0956857 -0.123954535 0.010404519
-0.07145995 0.0059888456 0.070279025 -0.036486074 0.19710878 -0.00193737 0.08585418 0.1097916
0.103612274 0.08413306 -0.022967037 0.022605738 0.10105004 -0.08220644 0.05503102 0.055195086
0.04313852 -0.09934963 -0.114691354 0.10608196 0.061735686 -0.071827486 0.04321041 0.07192338
0.07453445 -0.05857188 0.0217658 0.00997487 0.027225481 -0.11388537 0.104532 0.13485625
-0.080969915 -0.061285343 0.09396925 -0.09860936 0.0708147 -0.13378677 -0.057353318 0.07705426
-0.058938123 -0.04624321 0.15980095 0.00866297 -0.117862545 0.00018216175 -0.064147346 -0.058270022
-0.03289679 -0.1301846 -0.025124343 0.11239654 0.11706901 -0.111396745 -0.060097203 0.06316206
-0.0799759 -0.05493524 0.08401443 0.040096834 -0.11863249 -0.09178565 -0.09536696 -0.09910933
0.038883746 0.05163396 0.008126713 0.10721435 -0.063186236 -0.11975904 -0.08574111 -0.07586574
-0.091448344 -0.10043001 -0.11133519 -0.013987737 -0.027908824 0.020649606 0.029131839 -0.025804933
-0.021412292 -0.056448992 0.10911242 -0.02614769 -0.010475598 0.12672165 0.08235286 -0.00012299209

bias_ih_l1 f4 [256]
00000000: 7d7b cbbd 264a dfbd d3f1 b4bd b8db 9cbd
00000010: d4fb 88bd c39d ed3c 9603 d7bd 0fcb 99bd
00000020: 674e a43d 23f3 d0bb a54e ddbd a797 f53c
00000030: 3946 7abc 8028 ddbd d15b a93d 0685 853c
00000040: e70e e63d c289 9e3d 1402 4e3e 5452 0fbd
00000050: 1a6b b73c 60dc c9bc adcc 4ebd abb2 0b3e
00000060: 3c61 97b9 5cbc 1dbe 99ec 27bd b533 e7bc
00000070: 99d1 aebd b23e ebbd bb39 6bbd 5226 c0bd
00000080: 7c15 f63d ca02 86bd f776 b4bd 608f 503d
00000090: 309a 82bd 14e3 71bc c7ae 063d 3dd3 823d
000000a0: 6d43 ffbd b342 12bd 0a3e 92bd a65e a33d
000000b0: 363e 593c d93f ba3d 081d aabc 2a27 68bd
000000c0: bad4 80bb 34d1 69bd 5df5 8cbd ed95 45bd
000000d0: d4c6 1d3d c856 133d 0ecc 373b 6701 01bd
000000e0: e3ee bdbd e8ec 88bd f7e2 a33d d561 84bd
000000f0: f756 893c 2c5e dbbd e217 7ebc 75ef 53bd
00000100: f8e8 9bbd da3a b73c ec24 dc3c 3277 663d
00000110: b297 b3bd b26c f5bd ff12 603c 43af 9b3d
00000120: 6df6 1cbd 0644 79bd e589 9a3c 6888 cfbc
00000130: a7ac 273d 3734 afbd ca77 1fbd 5deb 9abd
00000140: a825 d7bd 25ba 0b39 c7d0 29be 2e21 52bd
00000150: b9f5 19bd b5cf d93b f293 643d 1a82 55bc
00000160: bdca cabd 6993 1c3c e6c2 9abd 7370 cf3c
00000170: 98c2 52bd f9c4 20bd a396 fd3d d78b b03c
00000180: 4a78 c13c 0bcf c2bd 6b8f 9bbd a7da 8f3d
00000190: 1295 5c3d e47c 27bd 9087 3abe 3eae d23d
000001a0: 63f2 7bbd 4fff adbc a14c b3bd bcea 2d3d
000001b0: de0d 693c 7d25 0c3d 5607 4cbd bcd4 223d
000001c0: ceda 8738 62cc f1bd 1412 1d3e 0dd2 f03d
000001d0: 585d 8fbd 626d a5bd fbc4 1fbe d71a ab3c
000001e0: 718e 95bd a3de 8bbd be7b f03d 79ef 453d
000001f0: f113 d0bd 57c8 c43c e62d bf3d bb36 da3c
00000200: 148b dc3d d498 2f3d da29 b33d 7c39 133e
00000210: fb9f 1a3d 136d 633d a494 3cbc a8dc 72bd
00000220: 22f6 1bbd 8336 8b3d 4868 953d bdea e7bc
00000230: 02bc 9ebd 7873 0e3c 984c a73d a80b a13c
00000240: c29c 983d a4e7 db3d 41a7 5f3d 4955 88bd
00000250: 85e0 073e 69f4 dabd baa2 7aba 21aa 1fba
00000260: 38c4 32bc 997d 853c 1790 063e 5268 6e3d
00000270: 41c1 073e a25e 93bd f9e1 d43c 6d91 923b
00000280: 52b9 2dbd ff21 bbbd 942c ec3b 9286 073e
00000290: b130 be3d cb01 fb3b f711 103d a89c b03d
000002a0: 72e3 81bd 9e27 94bd 6a15 97bc 6acb 9f3d
000002b0: abab 61bd f8c7 b9bd 8170 493c 7c35 dfbd
000002c0: 7224 efbd c14e 52bd 985a c9bd bcc0 d4bd
000002d0: c2c1 c73c eca4 f63d e88a 25bc c948 043d
000002e0: 6359 023e 03d0 6a3d 1e70 72bc c43b c1bc
000002f0: 590b 53bd b0dd 1abd 13d8 653d 5ddf 8dbd
00000300: b32b dbbc 0675 f03b 8ffa aa3d 2890 5b3d
00000310: ce0d 58bd 74fd 033d 643c a5bd faaf 1f3d
00000320: cdf4 aabd 18af ddbd 938d bd3d 2574 c139
00000330: c1aa ddbc 4e81 f7bd 28ae da3d 7dd0 7c3d
00000340: 64b0 51bd 418a 1d3c 0ea1 823d 3027 0dbd
00000350: 176f bfbc 4a55 94bc 77b7 883b 5c34 0d3e
00000360: e139 513d eeda 20be 438c c1bc c85b 0fbc
00000370: 6e58 a4bd 9031 c9bd 62e4 54bc 82c8 ca3c
00000380: 0a7f e83d 7006 c4bc df3b 16be 930b 64bb
00000390: 7fe8 47bd 8400 ecbb 03d2 a53d ccfe ed3d
000003a0: 74ad 96bd 5f6b c7bd 68e2 b63d 63a5 793d
000003b0: c5f6 be3d e1e8 1abd 0eed bfbd d252 abbc
000003c0: e4b3 66bb 6d91 d7bd 54bc 763d 09ab d73c
000003d0: 0a98 f1bb e542 e53c caaa 2a3d 0ef3 063d
000003e0: 432f e03d 5c29 12be f87b 393d e3fa 033c
000003f0: 03d2 d63d eef9 13be 9efd ef3d c12f 00bd
-0.09935663 -0.109028146 -0.08835187 -0.076590955 -0.066886574 0.02900589 -0.10498731 -0.075094335
0.080227666 -0.0063766404 -0.10806016 0.02997954 -0.015275531 -0.107987404 0.08269466 0.016298782
0.11233311 0.07741119 0.2011798 -0.034990624 0.022389937 -0.024641216 -0.050488163 0.13642375
-0.0002887341 -0.15403885 -0.04099712 -0.028222898 -0.08536071 -0.114865676 -0.057428103 -0.09382309
0.120158166 -0.06543501 -0.08811753 0.050917983 -0.06377065 -0.014763612 0.032881524 0.06387947
-0.12464032 -0.03570814 -0.07140739 0.07977037 0.013259461 0.09094209 -0.020765796 -0.056677975
-0.003931609 -0.057084277 -0.06882737 -0.048238683 0.038519695 0.035971433 0.002804521 -0.031495478
-0.0927408 -0.06685811 0.080022745 -0.064639725 0.0167651 -0.10711321 -0.015508624 -0.051742036
-0.07612795 0.02236693 0.026873074 0.056266017 -0.08769168 -0.119836226 0.013676404 0.07601788
-0.038320947 -0.060855888 0.018864581 -0.025333598 0.04093614 -0.08554881 -0.0389326 -0.07564423
-0.10505229 0.00013325417 -0.16583548 -0.051301174 -0.037587855 0.006647075 0.055805154 -0.013031507
-0.099019505 0.00955663 -0.07556705 0.025322175 -0.05145511 -0.039250348 0.12382247 0.021551056
0.023616929 -0.095121466 -0.07595714 0.070241265 0.053853102 -0.04089059 -0.18215775 0.1028714
-0.061510455 -0.021239905 -0.0875485 0.04246019 0.014224498 0.03421544 -0.049811684 0.03975366
6.478057e-05 -0.11806561 0.15338928 0.11758814 -0.07000226 -0.08077504 -0.15602486 0.020886822
-0.07302559 -0.06829574 0.11742352 0.048324082 -0.101600535 0.02402131 0.09334926 0.026637426
0.107687145 0.042870358 0.08748217 0.14377397 0.037750226 0.055523943 -0.011510048 -0.059292465
-0.038076527 0.06797507 0.07295281 -0.028310174 -0.077507034 0.008694522 0.08168906 0.019658878
0.07451774 0.10737541 0.054602865 -0.06656892 0.13269241 -0.10691149 -0.00095609913 -0.000609072
-0.01091104 0.016295241 0.13140903 0.058204956 0.13257314 -0.07195784 0.025986658 0.0044729025
-0.042413063 -0.091373436 0.0072074626 0.13234928 0.09286631 0.007660126 0.035173383 0.0862363
-0.0634221 -0.07234119 -0.018442828 0.0780247 -0.055095356 -0.09071344 0.012294889 -0.10898873
-0.11676873 -0.051344637 -0.098317325 -0.10388324 0.024384383 0.12043175 -0.010103919 0.032295976
0.12729411 0.05732728 -0.014797239 -0.023588069 -0.051524494 -0.037809074 0.056114268 -0.06927369
-0.026754236 0.007338169 0.083485715 0.053604275 -0.05274754 0.032224134 -0.08068159 0.038986184
-0.08347473 -0.10824412 0.09255519 0.00036898363 -0.02705896 -0.1208521 0.10677749 0.061722267
-0.05119361 0.009615482 0.06378375 -0.0344612 -0.023368401 -0.018107075 0.0041722613 0.13789505
0.05108059 -0.15708515 -0.023626452 -0.00874991 -0.08024679 -0.098239064 -0.012993904 0.024753813
0.11352356 -0.02392885 -0.14671277 -0.0034796938 -0.04880571 -0.00720221 0.08096697 0.11620864
-0.07357302 -0.09737276 0.08929902 0.06094874 0.09324411 -0.037819747 -0.093713865 -0.020913515
-0.0035202438 -0.10525785 0.060238197 0.026326673 -0.007372861 0.027986 0.041666783 0.03294664
0.109465145 -0.1427359 0.04528424 0.0080554215 0.10489275 -0.1445081 0.117182955 -0.03129554
